<?xml version="1.0" ?>
<net name="saved_model" version="10">
	<layers>
		<layer id="0" name="Func/StatefulPartitionedCall/input/_1/Output_0/Data__const" type="Const" version="opset1">
			<data element_type="f32" offset="0" shape="30522,128" size="15627264"/>
			<output>
				<port id="0" names="Func/StatefulPartitionedCall/input/_1:0" precision="FP32">
					<dim>30522</dim>
					<dim>128</dim>
				</port>
			</output>
		</layer>
		<layer id="1" name="input_ids" type="Parameter" version="opset1">
			<data element_type="i32" shape="1,128"/>
			<output>
				<port id="0" names="Func/StatefulPartitionedCall/input/_0:0,input_ids:0" precision="I32">
					<dim>1</dim>
					<dim>128</dim>
				</port>
			</output>
		</layer>
		<layer id="2" name="StatefulPartitionedCall/model_1/bert/embeddings/word_embeddings/embedding_lookup/Cast_27969_const" type="Const" version="opset1">
			<data element_type="i64" offset="15627264" shape="" size="8"/>
			<output>
				<port id="0" names="StatefulPartitionedCall/model_1/bert/embeddings/word_embeddings/embedding_lookup/axis:0" precision="I64"/>
			</output>
		</layer>
		<layer id="3" name="StatefulPartitionedCall/model_1/bert/embeddings/word_embeddings/embedding_lookup" type="Gather" version="opset1">
			<input>
				<port id="0">
					<dim>30522</dim>
					<dim>128</dim>
				</port>
				<port id="1">
					<dim>1</dim>
					<dim>128</dim>
				</port>
				<port id="2"/>
			</input>
			<output>
				<port id="3" names="StatefulPartitionedCall/model_1/bert/embeddings/word_embeddings/embedding_lookup/Identity_1:0,StatefulPartitionedCall/model_1/bert/embeddings/word_embeddings/embedding_lookup/Identity:0,StatefulPartitionedCall/model_1/bert/embeddings/word_embeddings/embedding_lookup:0" precision="FP32">
					<dim>1</dim>
					<dim>128</dim>
					<dim>128</dim>
				</port>
			</output>
		</layer>
		<layer id="4" name="StatefulPartitionedCall/model_1/bert/embeddings/batch_normalization/batchnorm/mul/EltwiseUnsqueeze3333_const" type="Const" version="opset1">
			<data element_type="f32" offset="15627272" shape="1,1,128" size="512"/>
			<output>
				<port id="0" names="StatefulPartitionedCall/model_1/bert/embeddings/batch_normalization/batchnorm/mul:0" precision="FP32">
					<dim>1</dim>
					<dim>1</dim>
					<dim>128</dim>
				</port>
			</output>
		</layer>
		<layer id="5" name="StatefulPartitionedCall/model_1/bert/embeddings/batch_normalization/batchnorm/mul_1" type="Multiply" version="opset1">
			<data auto_broadcast="numpy"/>
			<input>
				<port id="0">
					<dim>1</dim>
					<dim>128</dim>
					<dim>128</dim>
				</port>
				<port id="1">
					<dim>1</dim>
					<dim>1</dim>
					<dim>128</dim>
				</port>
			</input>
			<output>
				<port id="2" names="StatefulPartitionedCall/model_1/bert/embeddings/batch_normalization/batchnorm/mul_1:0" precision="FP32">
					<dim>1</dim>
					<dim>128</dim>
					<dim>128</dim>
				</port>
			</output>
		</layer>
		<layer id="6" name="StatefulPartitionedCall/model_1/bert/embeddings/batch_normalization/batchnorm/sub/EltwiseUnsqueeze3337_const" type="Const" version="opset1">
			<data element_type="f32" offset="15627784" shape="1,1,128" size="512"/>
			<output>
				<port id="0" names="StatefulPartitionedCall/model_1/bert/embeddings/batch_normalization/batchnorm/sub:0" precision="FP32">
					<dim>1</dim>
					<dim>1</dim>
					<dim>128</dim>
				</port>
			</output>
		</layer>
		<layer id="7" name="StatefulPartitionedCall/model_1/bert/embeddings/batch_normalization/batchnorm/add_1" type="Add" version="opset1">
			<data auto_broadcast="numpy"/>
			<input>
				<port id="0">
					<dim>1</dim>
					<dim>128</dim>
					<dim>128</dim>
				</port>
				<port id="1">
					<dim>1</dim>
					<dim>1</dim>
					<dim>128</dim>
				</port>
			</input>
			<output>
				<port id="2" names="StatefulPartitionedCall/model_1/bert/embeddings/dropout/Identity:0,StatefulPartitionedCall/model_1/bert/embeddings/batch_normalization/batchnorm/add_1:0" precision="FP32">
					<dim>1</dim>
					<dim>128</dim>
					<dim>128</dim>
				</port>
			</output>
		</layer>
		<layer id="8" name="StatefulPartitionedCall/model_1/bert/encoder/layer_0/attention/self/query/Tensordot/ReadVariableOp/MinusOne5215_const" type="Const" version="opset1">
			<data element_type="i64" offset="15628296" shape="1" size="8"/>
			<output>
				<port id="0" precision="I64">
					<dim>1</dim>
				</port>
			</output>
		</layer>
		<layer id="9" name="StatefulPartitionedCall/model_1/bert/encoder/layer_0/attention/self/query/Tensordot/MatMul/1_port_transpose5037_const" type="Const" version="opset1">
			<data element_type="f32" offset="15628304" shape="128,128" size="65536"/>
			<output>
				<port id="0" names="StatefulPartitionedCall/model_1/bert/encoder/layer_0/attention/self/query/Tensordot/ReadVariableOp:0" precision="FP32">
					<dim>128</dim>
					<dim>128</dim>
				</port>
			</output>
		</layer>
		<layer id="10" name="StatefulPartitionedCall/model_1/bert/encoder/layer_0/attention/self/query/Tensordot/ReadVariableOp/Shape" type="ShapeOf" version="opset3">
			<data output_type="i64"/>
			<input>
				<port id="0">
					<dim>128</dim>
					<dim>128</dim>
				</port>
			</input>
			<output>
				<port id="1" precision="I64">
					<dim>2</dim>
				</port>
			</output>
		</layer>
		<layer id="11" name="StatefulPartitionedCall/model_1/bert/encoder/layer_0/attention/self/query/Tensordot/ReadVariableOp/Shape/Gather/Cast_17911_const" type="Const" version="opset1">
			<data element_type="i32" offset="15693840" shape="1" size="4"/>
			<output>
				<port id="0" precision="I32">
					<dim>1</dim>
				</port>
			</output>
		</layer>
		<layer id="12" name="StatefulPartitionedCall/model_1/bert/encoder/layer_0/attention/self/query/Tensordot/ReadVariableOp/Shape/Gather/Cast_27913_const" type="Const" version="opset1">
			<data element_type="i64" offset="15627264" shape="" size="8"/>
			<output>
				<port id="0" precision="I64"/>
			</output>
		</layer>
		<layer id="13" name="StatefulPartitionedCall/model_1/bert/encoder/layer_0/attention/self/query/Tensordot/ReadVariableOp/Shape/Gather" type="Gather" version="opset1">
			<input>
				<port id="0">
					<dim>2</dim>
				</port>
				<port id="1">
					<dim>1</dim>
				</port>
				<port id="2"/>
			</input>
			<output>
				<port id="3" precision="I64">
					<dim>1</dim>
				</port>
			</output>
		</layer>
		<layer id="14" name="StatefulPartitionedCall/model_1/bert/encoder/layer_0/attention/self/query/Tensordot/ReadVariableOp/MinusOne/shapes_concat" type="Concat" version="opset1">
			<data axis="0"/>
			<input>
				<port id="0">
					<dim>1</dim>
				</port>
				<port id="1">
					<dim>1</dim>
				</port>
			</input>
			<output>
				<port id="2" names="StatefulPartitionedCall/model_1/bert/encoder/layer_0/attention/self/query/Tensordot/Reshape/shape:0" precision="I64">
					<dim>2</dim>
				</port>
			</output>
		</layer>
		<layer id="15" name="StatefulPartitionedCall/model_1/bert/encoder/layer_0/attention/self/query/Tensordot/Reshape" type="Reshape" version="opset1">
			<data special_zero="false"/>
			<input>
				<port id="0">
					<dim>1</dim>
					<dim>128</dim>
					<dim>128</dim>
				</port>
				<port id="1">
					<dim>2</dim>
				</port>
			</input>
			<output>
				<port id="2" names="StatefulPartitionedCall/model_1/bert/encoder/layer_0/attention/self/query/Tensordot/Reshape:0" precision="FP32">
					<dim>128</dim>
					<dim>128</dim>
				</port>
			</output>
		</layer>
		<layer id="16" name="StatefulPartitionedCall/model_1/bert/encoder/layer_0/attention/self/query/Tensordot/MatMul" type="MatMul" version="opset1">
			<data transpose_a="false" transpose_b="true"/>
			<input>
				<port id="0">
					<dim>128</dim>
					<dim>128</dim>
				</port>
				<port id="1">
					<dim>128</dim>
					<dim>128</dim>
				</port>
			</input>
			<output>
				<port id="2" names="StatefulPartitionedCall/model_1/bert/encoder/layer_0/attention/self/query/Tensordot/MatMul:0" precision="FP32">
					<dim>128</dim>
					<dim>128</dim>
				</port>
			</output>
		</layer>
		<layer id="17" name="StatefulPartitionedCall/model_1/bert/encoder/layer_0/attention/self/query/Tensordot/Cast_18009_const" type="Const" version="opset1">
			<data element_type="i64" offset="15693844" shape="3" size="24"/>
			<output>
				<port id="0" names="StatefulPartitionedCall/model_1/bert/encoder/layer_0/attention/self/query/Tensordot/shape:0" precision="I64">
					<dim>3</dim>
				</port>
			</output>
		</layer>
		<layer id="18" name="StatefulPartitionedCall/model_1/bert/encoder/layer_0/attention/self/query/Tensordot" type="Reshape" version="opset1">
			<data special_zero="false"/>
			<input>
				<port id="0">
					<dim>128</dim>
					<dim>128</dim>
				</port>
				<port id="1">
					<dim>3</dim>
				</port>
			</input>
			<output>
				<port id="2" names="StatefulPartitionedCall/model_1/bert/encoder/layer_0/attention/self/query/Tensordot:0" precision="FP32">
					<dim>1</dim>
					<dim>128</dim>
					<dim>128</dim>
				</port>
			</output>
		</layer>
		<layer id="19" name="StatefulPartitionedCall/model_1/bert/encoder/layer_0/attention/self/query/BiasAdd/ReadVariableOp/EltwiseUnsqueeze3349_const" type="Const" version="opset1">
			<data element_type="f32" offset="15693868" shape="1,1,128" size="512"/>
			<output>
				<port id="0" names="StatefulPartitionedCall/model_1/bert/encoder/layer_0/attention/self/query/BiasAdd/ReadVariableOp:0" precision="FP32">
					<dim>1</dim>
					<dim>1</dim>
					<dim>128</dim>
				</port>
			</output>
		</layer>
		<layer id="20" name="StatefulPartitionedCall/model_1/bert/encoder/layer_0/attention/self/query/BiasAdd/Add" type="Add" version="opset1">
			<data auto_broadcast="numpy"/>
			<input>
				<port id="0">
					<dim>1</dim>
					<dim>128</dim>
					<dim>128</dim>
				</port>
				<port id="1">
					<dim>1</dim>
					<dim>1</dim>
					<dim>128</dim>
				</port>
			</input>
			<output>
				<port id="2" names="StatefulPartitionedCall/model_1/bert/encoder/layer_0/attention/self/query/BiasAdd:0" precision="FP32">
					<dim>1</dim>
					<dim>128</dim>
					<dim>128</dim>
				</port>
			</output>
		</layer>
		<layer id="21" name="StatefulPartitionedCall/model_1/bert/encoder/layer_0/attention/self/Reshape/Cast_17929_const" type="Const" version="opset1">
			<data element_type="i64" offset="15694380" shape="4" size="32"/>
			<output>
				<port id="0" names="StatefulPartitionedCall/model_1/bert/encoder/layer_0/attention/self/Reshape/shape:0" precision="I64">
					<dim>4</dim>
				</port>
			</output>
		</layer>
		<layer id="22" name="StatefulPartitionedCall/model_1/bert/encoder/layer_0/attention/self/Reshape" type="Reshape" version="opset1">
			<data special_zero="false"/>
			<input>
				<port id="0">
					<dim>1</dim>
					<dim>128</dim>
					<dim>128</dim>
				</port>
				<port id="1">
					<dim>4</dim>
				</port>
			</input>
			<output>
				<port id="2" names="StatefulPartitionedCall/model_1/bert/encoder/layer_0/attention/self/Reshape:0" precision="FP32">
					<dim>1</dim>
					<dim>128</dim>
					<dim>1</dim>
					<dim>128</dim>
				</port>
			</output>
		</layer>
		<layer id="23" name="StatefulPartitionedCall/model_1/bert/encoder/layer_0/attention/self/transpose/Cast_17871_const" type="Const" version="opset1">
			<data element_type="i64" offset="15694412" shape="4" size="32"/>
			<output>
				<port id="0" names="StatefulPartitionedCall/model_1/bert/encoder/layer_0/attention/self/transpose/perm:0" precision="I64">
					<dim>4</dim>
				</port>
			</output>
		</layer>
		<layer id="24" name="StatefulPartitionedCall/model_1/bert/encoder/layer_0/attention/self/transpose" type="Transpose" version="opset1">
			<input>
				<port id="0">
					<dim>1</dim>
					<dim>128</dim>
					<dim>1</dim>
					<dim>128</dim>
				</port>
				<port id="1">
					<dim>4</dim>
				</port>
			</input>
			<output>
				<port id="2" names="StatefulPartitionedCall/model_1/bert/encoder/layer_0/attention/self/transpose:0" precision="FP32">
					<dim>1</dim>
					<dim>1</dim>
					<dim>128</dim>
					<dim>128</dim>
				</port>
			</output>
		</layer>
		<layer id="25" name="StatefulPartitionedCall/model_1/bert/encoder/layer_0/attention/self/key/Tensordot/ReadVariableOp/MinusOne5227_const" type="Const" version="opset1">
			<data element_type="i64" offset="15628296" shape="1" size="8"/>
			<output>
				<port id="0" precision="I64">
					<dim>1</dim>
				</port>
			</output>
		</layer>
		<layer id="26" name="StatefulPartitionedCall/model_1/bert/encoder/layer_0/attention/self/key/Tensordot/MatMul/1_port_transpose5061_const" type="Const" version="opset1">
			<data element_type="f32" offset="15694444" shape="128,128" size="65536"/>
			<output>
				<port id="0" names="StatefulPartitionedCall/model_1/bert/encoder/layer_0/attention/self/key/Tensordot/ReadVariableOp:0" precision="FP32">
					<dim>128</dim>
					<dim>128</dim>
				</port>
			</output>
		</layer>
		<layer id="27" name="StatefulPartitionedCall/model_1/bert/encoder/layer_0/attention/self/key/Tensordot/ReadVariableOp/Shape" type="ShapeOf" version="opset3">
			<data output_type="i64"/>
			<input>
				<port id="0">
					<dim>128</dim>
					<dim>128</dim>
				</port>
			</input>
			<output>
				<port id="1" precision="I64">
					<dim>2</dim>
				</port>
			</output>
		</layer>
		<layer id="28" name="StatefulPartitionedCall/model_1/bert/encoder/layer_0/attention/self/key/Tensordot/ReadVariableOp/Shape/Gather/Cast_17889_const" type="Const" version="opset1">
			<data element_type="i32" offset="15693840" shape="1" size="4"/>
			<output>
				<port id="0" precision="I32">
					<dim>1</dim>
				</port>
			</output>
		</layer>
		<layer id="29" name="StatefulPartitionedCall/model_1/bert/encoder/layer_0/attention/self/key/Tensordot/ReadVariableOp/Shape/Gather/Cast_27891_const" type="Const" version="opset1">
			<data element_type="i64" offset="15627264" shape="" size="8"/>
			<output>
				<port id="0" precision="I64"/>
			</output>
		</layer>
		<layer id="30" name="StatefulPartitionedCall/model_1/bert/encoder/layer_0/attention/self/key/Tensordot/ReadVariableOp/Shape/Gather" type="Gather" version="opset1">
			<input>
				<port id="0">
					<dim>2</dim>
				</port>
				<port id="1">
					<dim>1</dim>
				</port>
				<port id="2"/>
			</input>
			<output>
				<port id="3" precision="I64">
					<dim>1</dim>
				</port>
			</output>
		</layer>
		<layer id="31" name="StatefulPartitionedCall/model_1/bert/encoder/layer_0/attention/self/key/Tensordot/ReadVariableOp/MinusOne/shapes_concat" type="Concat" version="opset1">
			<data axis="0"/>
			<input>
				<port id="0">
					<dim>1</dim>
				</port>
				<port id="1">
					<dim>1</dim>
				</port>
			</input>
			<output>
				<port id="2" names="StatefulPartitionedCall/model_1/bert/encoder/layer_0/attention/self/key/Tensordot/Reshape/shape:0" precision="I64">
					<dim>2</dim>
				</port>
			</output>
		</layer>
		<layer id="32" name="StatefulPartitionedCall/model_1/bert/encoder/layer_0/attention/self/key/Tensordot/Reshape" type="Reshape" version="opset1">
			<data special_zero="false"/>
			<input>
				<port id="0">
					<dim>1</dim>
					<dim>128</dim>
					<dim>128</dim>
				</port>
				<port id="1">
					<dim>2</dim>
				</port>
			</input>
			<output>
				<port id="2" names="StatefulPartitionedCall/model_1/bert/encoder/layer_0/attention/self/key/Tensordot/Reshape:0" precision="FP32">
					<dim>128</dim>
					<dim>128</dim>
				</port>
			</output>
		</layer>
		<layer id="33" name="StatefulPartitionedCall/model_1/bert/encoder/layer_0/attention/self/key/Tensordot/MatMul" type="MatMul" version="opset1">
			<data transpose_a="false" transpose_b="true"/>
			<input>
				<port id="0">
					<dim>128</dim>
					<dim>128</dim>
				</port>
				<port id="1">
					<dim>128</dim>
					<dim>128</dim>
				</port>
			</input>
			<output>
				<port id="2" names="StatefulPartitionedCall/model_1/bert/encoder/layer_0/attention/self/key/Tensordot/MatMul:0" precision="FP32">
					<dim>128</dim>
					<dim>128</dim>
				</port>
			</output>
		</layer>
		<layer id="34" name="StatefulPartitionedCall/model_1/bert/encoder/layer_0/attention/self/key/Tensordot/Cast_17873_const" type="Const" version="opset1">
			<data element_type="i64" offset="15693844" shape="3" size="24"/>
			<output>
				<port id="0" names="StatefulPartitionedCall/model_1/bert/encoder/layer_0/attention/self/key/Tensordot/shape:0" precision="I64">
					<dim>3</dim>
				</port>
			</output>
		</layer>
		<layer id="35" name="StatefulPartitionedCall/model_1/bert/encoder/layer_0/attention/self/key/Tensordot" type="Reshape" version="opset1">
			<data special_zero="false"/>
			<input>
				<port id="0">
					<dim>128</dim>
					<dim>128</dim>
				</port>
				<port id="1">
					<dim>3</dim>
				</port>
			</input>
			<output>
				<port id="2" names="StatefulPartitionedCall/model_1/bert/encoder/layer_0/attention/self/key/Tensordot:0" precision="FP32">
					<dim>1</dim>
					<dim>128</dim>
					<dim>128</dim>
				</port>
			</output>
		</layer>
		<layer id="36" name="StatefulPartitionedCall/model_1/bert/encoder/layer_0/attention/self/key/BiasAdd/ReadVariableOp/EltwiseUnsqueeze3353_const" type="Const" version="opset1">
			<data element_type="f32" offset="15759980" shape="1,1,128" size="512"/>
			<output>
				<port id="0" names="StatefulPartitionedCall/model_1/bert/encoder/layer_0/attention/self/key/BiasAdd/ReadVariableOp:0" precision="FP32">
					<dim>1</dim>
					<dim>1</dim>
					<dim>128</dim>
				</port>
			</output>
		</layer>
		<layer id="37" name="StatefulPartitionedCall/model_1/bert/encoder/layer_0/attention/self/key/BiasAdd/Add" type="Add" version="opset1">
			<data auto_broadcast="numpy"/>
			<input>
				<port id="0">
					<dim>1</dim>
					<dim>128</dim>
					<dim>128</dim>
				</port>
				<port id="1">
					<dim>1</dim>
					<dim>1</dim>
					<dim>128</dim>
				</port>
			</input>
			<output>
				<port id="2" names="StatefulPartitionedCall/model_1/bert/encoder/layer_0/attention/self/key/BiasAdd:0" precision="FP32">
					<dim>1</dim>
					<dim>128</dim>
					<dim>128</dim>
				</port>
			</output>
		</layer>
		<layer id="38" name="StatefulPartitionedCall/model_1/bert/encoder/layer_0/attention/self/Reshape_1/Cast_17879_const" type="Const" version="opset1">
			<data element_type="i64" offset="15694380" shape="4" size="32"/>
			<output>
				<port id="0" names="StatefulPartitionedCall/model_1/bert/encoder/layer_0/attention/self/Reshape_1/shape:0" precision="I64">
					<dim>4</dim>
				</port>
			</output>
		</layer>
		<layer id="39" name="StatefulPartitionedCall/model_1/bert/encoder/layer_0/attention/self/Reshape_1" type="Reshape" version="opset1">
			<data special_zero="false"/>
			<input>
				<port id="0">
					<dim>1</dim>
					<dim>128</dim>
					<dim>128</dim>
				</port>
				<port id="1">
					<dim>4</dim>
				</port>
			</input>
			<output>
				<port id="2" names="StatefulPartitionedCall/model_1/bert/encoder/layer_0/attention/self/Reshape_1:0" precision="FP32">
					<dim>1</dim>
					<dim>128</dim>
					<dim>1</dim>
					<dim>128</dim>
				</port>
			</output>
		</layer>
		<layer id="40" name="StatefulPartitionedCall/model_1/bert/encoder/layer_0/attention/self/transpose_1/Cast_17907_const" type="Const" version="opset1">
			<data element_type="i64" offset="15694412" shape="4" size="32"/>
			<output>
				<port id="0" names="StatefulPartitionedCall/model_1/bert/encoder/layer_0/attention/self/transpose_1/perm:0" precision="I64">
					<dim>4</dim>
				</port>
			</output>
		</layer>
		<layer id="41" name="StatefulPartitionedCall/model_1/bert/encoder/layer_0/attention/self/transpose_1" type="Transpose" version="opset1">
			<input>
				<port id="0">
					<dim>1</dim>
					<dim>128</dim>
					<dim>1</dim>
					<dim>128</dim>
				</port>
				<port id="1">
					<dim>4</dim>
				</port>
			</input>
			<output>
				<port id="2" precision="FP32">
					<dim>1</dim>
					<dim>1</dim>
					<dim>128</dim>
					<dim>128</dim>
				</port>
			</output>
		</layer>
		<layer id="42" name="StatefulPartitionedCall/model_1/bert/encoder/layer_0/attention/self/truediv_copy/const3494_const" type="Const" version="opset1">
			<data element_type="f32" offset="15760492" shape="1,1,1,1" size="4"/>
			<output>
				<port id="0" precision="FP32">
					<dim>1</dim>
					<dim>1</dim>
					<dim>1</dim>
					<dim>1</dim>
				</port>
			</output>
		</layer>
		<layer id="43" name="StatefulPartitionedCall/model_1/bert/encoder/layer_0/attention/self/truediv_copy" type="Multiply" version="opset1">
			<data auto_broadcast="numpy"/>
			<input>
				<port id="0">
					<dim>1</dim>
					<dim>1</dim>
					<dim>128</dim>
					<dim>128</dim>
				</port>
				<port id="1">
					<dim>1</dim>
					<dim>1</dim>
					<dim>1</dim>
					<dim>1</dim>
				</port>
			</input>
			<output>
				<port id="2" names="StatefulPartitionedCall/model_1/bert/encoder/layer_0/attention/self/transpose_1:0" precision="FP32">
					<dim>1</dim>
					<dim>1</dim>
					<dim>128</dim>
					<dim>128</dim>
				</port>
			</output>
		</layer>
		<layer id="44" name="StatefulPartitionedCall/model_1/bert/encoder/layer_0/attention/self/MatMul" type="MatMul" version="opset1">
			<data transpose_a="false" transpose_b="true"/>
			<input>
				<port id="0">
					<dim>1</dim>
					<dim>1</dim>
					<dim>128</dim>
					<dim>128</dim>
				</port>
				<port id="1">
					<dim>1</dim>
					<dim>1</dim>
					<dim>128</dim>
					<dim>128</dim>
				</port>
			</input>
			<output>
				<port id="2" names="StatefulPartitionedCall/model_1/bert/encoder/layer_0/attention/self/truediv:0" precision="FP32">
					<dim>1</dim>
					<dim>1</dim>
					<dim>128</dim>
					<dim>128</dim>
				</port>
			</output>
		</layer>
		<layer id="45" name="StatefulPartitionedCall/model_1/bert/encoder/layer_0/attention/self/mul_1/Output_0/Data__const" type="Const" version="opset1">
			<data element_type="f32" offset="15760496" shape="1,128,1,128" size="65536"/>
			<output>
				<port id="0" names="StatefulPartitionedCall/model_1/bert/encoder/layer_0/attention/self/mul_1:0" precision="FP32">
					<dim>1</dim>
					<dim>128</dim>
					<dim>1</dim>
					<dim>128</dim>
				</port>
			</output>
		</layer>
		<layer id="46" name="StatefulPartitionedCall/model_1/bert/encoder/layer_0/attention/self/Add" type="Add" version="opset1">
			<data auto_broadcast="numpy"/>
			<input>
				<port id="0">
					<dim>1</dim>
					<dim>1</dim>
					<dim>128</dim>
					<dim>128</dim>
				</port>
				<port id="1">
					<dim>1</dim>
					<dim>128</dim>
					<dim>1</dim>
					<dim>128</dim>
				</port>
			</input>
			<output>
				<port id="2" names="StatefulPartitionedCall/model_1/bert/encoder/layer_0/attention/self/Add:0" precision="FP32">
					<dim>1</dim>
					<dim>1</dim>
					<dim>128</dim>
					<dim>128</dim>
				</port>
			</output>
		</layer>
		<layer id="47" name="StatefulPartitionedCall/model_1/bert/encoder/layer_0/attention/self/Softmax" type="SoftMax" version="opset1">
			<data axis="3"/>
			<input>
				<port id="0">
					<dim>1</dim>
					<dim>1</dim>
					<dim>128</dim>
					<dim>128</dim>
				</port>
			</input>
			<output>
				<port id="1" names="StatefulPartitionedCall/model_1/bert/encoder/layer_0/attention/self/dropout_1/Identity:0,StatefulPartitionedCall/model_1/bert/encoder/layer_0/attention/self/Softmax:0" precision="FP32">
					<dim>1</dim>
					<dim>1</dim>
					<dim>128</dim>
					<dim>128</dim>
				</port>
			</output>
		</layer>
		<layer id="48" name="StatefulPartitionedCall/model_1/bert/encoder/layer_0/attention/self/value/Tensordot/ReadVariableOp/MinusOne5263_const" type="Const" version="opset1">
			<data element_type="i64" offset="15628296" shape="1" size="8"/>
			<output>
				<port id="0" precision="I64">
					<dim>1</dim>
				</port>
			</output>
		</layer>
		<layer id="49" name="StatefulPartitionedCall/model_1/bert/encoder/layer_0/attention/self/value/Tensordot/MatMul/1_port_transpose5029_const" type="Const" version="opset1">
			<data element_type="f32" offset="15826032" shape="128,128" size="65536"/>
			<output>
				<port id="0" names="StatefulPartitionedCall/model_1/bert/encoder/layer_0/attention/self/value/Tensordot/ReadVariableOp:0" precision="FP32">
					<dim>128</dim>
					<dim>128</dim>
				</port>
			</output>
		</layer>
		<layer id="50" name="StatefulPartitionedCall/model_1/bert/encoder/layer_0/attention/self/value/Tensordot/ReadVariableOp/Shape" type="ShapeOf" version="opset3">
			<data output_type="i64"/>
			<input>
				<port id="0">
					<dim>128</dim>
					<dim>128</dim>
				</port>
			</input>
			<output>
				<port id="1" precision="I64">
					<dim>2</dim>
				</port>
			</output>
		</layer>
		<layer id="51" name="StatefulPartitionedCall/model_1/bert/encoder/layer_0/attention/self/value/Tensordot/ReadVariableOp/Shape/Gather/Cast_17959_const" type="Const" version="opset1">
			<data element_type="i32" offset="15693840" shape="1" size="4"/>
			<output>
				<port id="0" precision="I32">
					<dim>1</dim>
				</port>
			</output>
		</layer>
		<layer id="52" name="StatefulPartitionedCall/model_1/bert/encoder/layer_0/attention/self/value/Tensordot/ReadVariableOp/Shape/Gather/Cast_27961_const" type="Const" version="opset1">
			<data element_type="i64" offset="15627264" shape="" size="8"/>
			<output>
				<port id="0" precision="I64"/>
			</output>
		</layer>
		<layer id="53" name="StatefulPartitionedCall/model_1/bert/encoder/layer_0/attention/self/value/Tensordot/ReadVariableOp/Shape/Gather" type="Gather" version="opset1">
			<input>
				<port id="0">
					<dim>2</dim>
				</port>
				<port id="1">
					<dim>1</dim>
				</port>
				<port id="2"/>
			</input>
			<output>
				<port id="3" precision="I64">
					<dim>1</dim>
				</port>
			</output>
		</layer>
		<layer id="54" name="StatefulPartitionedCall/model_1/bert/encoder/layer_0/attention/self/value/Tensordot/ReadVariableOp/MinusOne/shapes_concat" type="Concat" version="opset1">
			<data axis="0"/>
			<input>
				<port id="0">
					<dim>1</dim>
				</port>
				<port id="1">
					<dim>1</dim>
				</port>
			</input>
			<output>
				<port id="2" names="StatefulPartitionedCall/model_1/bert/encoder/layer_0/attention/self/value/Tensordot/Reshape/shape:0" precision="I64">
					<dim>2</dim>
				</port>
			</output>
		</layer>
		<layer id="55" name="StatefulPartitionedCall/model_1/bert/encoder/layer_0/attention/self/value/Tensordot/Reshape" type="Reshape" version="opset1">
			<data special_zero="false"/>
			<input>
				<port id="0">
					<dim>1</dim>
					<dim>128</dim>
					<dim>128</dim>
				</port>
				<port id="1">
					<dim>2</dim>
				</port>
			</input>
			<output>
				<port id="2" names="StatefulPartitionedCall/model_1/bert/encoder/layer_0/attention/self/value/Tensordot/Reshape:0" precision="FP32">
					<dim>128</dim>
					<dim>128</dim>
				</port>
			</output>
		</layer>
		<layer id="56" name="StatefulPartitionedCall/model_1/bert/encoder/layer_0/attention/self/value/Tensordot/MatMul" type="MatMul" version="opset1">
			<data transpose_a="false" transpose_b="true"/>
			<input>
				<port id="0">
					<dim>128</dim>
					<dim>128</dim>
				</port>
				<port id="1">
					<dim>128</dim>
					<dim>128</dim>
				</port>
			</input>
			<output>
				<port id="2" names="StatefulPartitionedCall/model_1/bert/encoder/layer_0/attention/self/value/Tensordot/MatMul:0" precision="FP32">
					<dim>128</dim>
					<dim>128</dim>
				</port>
			</output>
		</layer>
		<layer id="57" name="StatefulPartitionedCall/model_1/bert/encoder/layer_0/attention/self/value/Tensordot/Cast_17877_const" type="Const" version="opset1">
			<data element_type="i64" offset="15693844" shape="3" size="24"/>
			<output>
				<port id="0" names="StatefulPartitionedCall/model_1/bert/encoder/layer_0/attention/self/value/Tensordot/shape:0" precision="I64">
					<dim>3</dim>
				</port>
			</output>
		</layer>
		<layer id="58" name="StatefulPartitionedCall/model_1/bert/encoder/layer_0/attention/self/value/Tensordot" type="Reshape" version="opset1">
			<data special_zero="false"/>
			<input>
				<port id="0">
					<dim>128</dim>
					<dim>128</dim>
				</port>
				<port id="1">
					<dim>3</dim>
				</port>
			</input>
			<output>
				<port id="2" names="StatefulPartitionedCall/model_1/bert/encoder/layer_0/attention/self/value/Tensordot:0" precision="FP32">
					<dim>1</dim>
					<dim>128</dim>
					<dim>128</dim>
				</port>
			</output>
		</layer>
		<layer id="59" name="StatefulPartitionedCall/model_1/bert/encoder/layer_0/attention/self/value/BiasAdd/ReadVariableOp/EltwiseUnsqueeze3365_const" type="Const" version="opset1">
			<data element_type="f32" offset="15891568" shape="1,1,128" size="512"/>
			<output>
				<port id="0" names="StatefulPartitionedCall/model_1/bert/encoder/layer_0/attention/self/value/BiasAdd/ReadVariableOp:0" precision="FP32">
					<dim>1</dim>
					<dim>1</dim>
					<dim>128</dim>
				</port>
			</output>
		</layer>
		<layer id="60" name="StatefulPartitionedCall/model_1/bert/encoder/layer_0/attention/self/value/BiasAdd/Add" type="Add" version="opset1">
			<data auto_broadcast="numpy"/>
			<input>
				<port id="0">
					<dim>1</dim>
					<dim>128</dim>
					<dim>128</dim>
				</port>
				<port id="1">
					<dim>1</dim>
					<dim>1</dim>
					<dim>128</dim>
				</port>
			</input>
			<output>
				<port id="2" names="StatefulPartitionedCall/model_1/bert/encoder/layer_0/attention/self/value/BiasAdd:0" precision="FP32">
					<dim>1</dim>
					<dim>128</dim>
					<dim>128</dim>
				</port>
			</output>
		</layer>
		<layer id="61" name="StatefulPartitionedCall/model_1/bert/encoder/layer_0/attention/self/Reshape_2/Cast_18011_const" type="Const" version="opset1">
			<data element_type="i64" offset="15694380" shape="4" size="32"/>
			<output>
				<port id="0" names="StatefulPartitionedCall/model_1/bert/encoder/layer_0/attention/self/Reshape_2/shape:0" precision="I64">
					<dim>4</dim>
				</port>
			</output>
		</layer>
		<layer id="62" name="StatefulPartitionedCall/model_1/bert/encoder/layer_0/attention/self/Reshape_2" type="Reshape" version="opset1">
			<data special_zero="false"/>
			<input>
				<port id="0">
					<dim>1</dim>
					<dim>128</dim>
					<dim>128</dim>
				</port>
				<port id="1">
					<dim>4</dim>
				</port>
			</input>
			<output>
				<port id="2" names="StatefulPartitionedCall/model_1/bert/encoder/layer_0/attention/self/Reshape_2:0" precision="FP32">
					<dim>1</dim>
					<dim>128</dim>
					<dim>1</dim>
					<dim>128</dim>
				</port>
			</output>
		</layer>
		<layer id="63" name="StatefulPartitionedCall/model_1/bert/encoder/layer_0/attention/self/transpose_2/Cast_17931_const" type="Const" version="opset1">
			<data element_type="i64" offset="15694412" shape="4" size="32"/>
			<output>
				<port id="0" names="StatefulPartitionedCall/model_1/bert/encoder/layer_0/attention/self/transpose_2/perm:0" precision="I64">
					<dim>4</dim>
				</port>
			</output>
		</layer>
		<layer id="64" name="StatefulPartitionedCall/model_1/bert/encoder/layer_0/attention/self/transpose_2" type="Transpose" version="opset1">
			<input>
				<port id="0">
					<dim>1</dim>
					<dim>128</dim>
					<dim>1</dim>
					<dim>128</dim>
				</port>
				<port id="1">
					<dim>4</dim>
				</port>
			</input>
			<output>
				<port id="2" names="StatefulPartitionedCall/model_1/bert/encoder/layer_0/attention/self/transpose_2:0" precision="FP32">
					<dim>1</dim>
					<dim>1</dim>
					<dim>128</dim>
					<dim>128</dim>
				</port>
			</output>
		</layer>
		<layer id="65" name="StatefulPartitionedCall/model_1/bert/encoder/layer_0/attention/self/MatMul_1" type="MatMul" version="opset1">
			<data transpose_a="false" transpose_b="false"/>
			<input>
				<port id="0">
					<dim>1</dim>
					<dim>1</dim>
					<dim>128</dim>
					<dim>128</dim>
				</port>
				<port id="1">
					<dim>1</dim>
					<dim>1</dim>
					<dim>128</dim>
					<dim>128</dim>
				</port>
			</input>
			<output>
				<port id="2" names="StatefulPartitionedCall/model_1/bert/encoder/layer_0/attention/self/MatMul_1:0" precision="FP32">
					<dim>1</dim>
					<dim>1</dim>
					<dim>128</dim>
					<dim>128</dim>
				</port>
			</output>
		</layer>
		<layer id="66" name="StatefulPartitionedCall/model_1/bert/encoder/layer_0/attention/self/transpose_3/Cast_17897_const" type="Const" version="opset1">
			<data element_type="i64" offset="15694412" shape="4" size="32"/>
			<output>
				<port id="0" names="StatefulPartitionedCall/model_1/bert/encoder/layer_0/attention/self/transpose_3/perm:0" precision="I64">
					<dim>4</dim>
				</port>
			</output>
		</layer>
		<layer id="67" name="StatefulPartitionedCall/model_1/bert/encoder/layer_0/attention/self/transpose_3" type="Transpose" version="opset1">
			<input>
				<port id="0">
					<dim>1</dim>
					<dim>1</dim>
					<dim>128</dim>
					<dim>128</dim>
				</port>
				<port id="1">
					<dim>4</dim>
				</port>
			</input>
			<output>
				<port id="2" names="StatefulPartitionedCall/model_1/bert/encoder/layer_0/attention/self/Reshape_3:0,StatefulPartitionedCall/model_1/bert/encoder/layer_0/attention/self/transpose_3:0" precision="FP32">
					<dim>1</dim>
					<dim>128</dim>
					<dim>1</dim>
					<dim>128</dim>
				</port>
			</output>
		</layer>
		<layer id="68" name="StatefulPartitionedCall/model_1/bert/encoder/layer_0/attention/output/dense/Tensordot/ReadVariableOp/MinusOne5179_const" type="Const" version="opset1">
			<data element_type="i64" offset="15628296" shape="1" size="8"/>
			<output>
				<port id="0" precision="I64">
					<dim>1</dim>
				</port>
			</output>
		</layer>
		<layer id="69" name="StatefulPartitionedCall/model_1/bert/encoder/layer_0/attention/output/dense/Tensordot/MatMul/1_port_transpose5053_const" type="Const" version="opset1">
			<data element_type="f32" offset="15892080" shape="128,128" size="65536"/>
			<output>
				<port id="0" names="StatefulPartitionedCall/model_1/bert/encoder/layer_0/attention/output/dense/Tensordot/ReadVariableOp:0" precision="FP32">
					<dim>128</dim>
					<dim>128</dim>
				</port>
			</output>
		</layer>
		<layer id="70" name="StatefulPartitionedCall/model_1/bert/encoder/layer_0/attention/output/dense/Tensordot/ReadVariableOp/Shape" type="ShapeOf" version="opset3">
			<data output_type="i64"/>
			<input>
				<port id="0">
					<dim>128</dim>
					<dim>128</dim>
				</port>
			</input>
			<output>
				<port id="1" precision="I64">
					<dim>2</dim>
				</port>
			</output>
		</layer>
		<layer id="71" name="StatefulPartitionedCall/model_1/bert/encoder/layer_0/attention/output/dense/Tensordot/ReadVariableOp/Shape/Gather/Cast_17885_const" type="Const" version="opset1">
			<data element_type="i32" offset="15693840" shape="1" size="4"/>
			<output>
				<port id="0" precision="I32">
					<dim>1</dim>
				</port>
			</output>
		</layer>
		<layer id="72" name="StatefulPartitionedCall/model_1/bert/encoder/layer_0/attention/output/dense/Tensordot/ReadVariableOp/Shape/Gather/Cast_27887_const" type="Const" version="opset1">
			<data element_type="i64" offset="15627264" shape="" size="8"/>
			<output>
				<port id="0" precision="I64"/>
			</output>
		</layer>
		<layer id="73" name="StatefulPartitionedCall/model_1/bert/encoder/layer_0/attention/output/dense/Tensordot/ReadVariableOp/Shape/Gather" type="Gather" version="opset1">
			<input>
				<port id="0">
					<dim>2</dim>
				</port>
				<port id="1">
					<dim>1</dim>
				</port>
				<port id="2"/>
			</input>
			<output>
				<port id="3" precision="I64">
					<dim>1</dim>
				</port>
			</output>
		</layer>
		<layer id="74" name="StatefulPartitionedCall/model_1/bert/encoder/layer_0/attention/output/dense/Tensordot/ReadVariableOp/MinusOne/shapes_concat" type="Concat" version="opset1">
			<data axis="0"/>
			<input>
				<port id="0">
					<dim>1</dim>
				</port>
				<port id="1">
					<dim>1</dim>
				</port>
			</input>
			<output>
				<port id="2" names="StatefulPartitionedCall/model_1/bert/encoder/layer_0/attention/output/dense/Tensordot/Reshape/shape:0" precision="I64">
					<dim>2</dim>
				</port>
			</output>
		</layer>
		<layer id="75" name="StatefulPartitionedCall/model_1/bert/encoder/layer_0/attention/output/dense/Tensordot/Reshape" type="Reshape" version="opset1">
			<data special_zero="false"/>
			<input>
				<port id="0">
					<dim>1</dim>
					<dim>128</dim>
					<dim>1</dim>
					<dim>128</dim>
				</port>
				<port id="1">
					<dim>2</dim>
				</port>
			</input>
			<output>
				<port id="2" names="StatefulPartitionedCall/model_1/bert/encoder/layer_0/attention/output/dense/Tensordot/Reshape:0" precision="FP32">
					<dim>128</dim>
					<dim>128</dim>
				</port>
			</output>
		</layer>
		<layer id="76" name="StatefulPartitionedCall/model_1/bert/encoder/layer_0/attention/output/dense/Tensordot/MatMul" type="MatMul" version="opset1">
			<data transpose_a="false" transpose_b="true"/>
			<input>
				<port id="0">
					<dim>128</dim>
					<dim>128</dim>
				</port>
				<port id="1">
					<dim>128</dim>
					<dim>128</dim>
				</port>
			</input>
			<output>
				<port id="2" names="StatefulPartitionedCall/model_1/bert/encoder/layer_0/attention/output/dense/Tensordot/MatMul:0" precision="FP32">
					<dim>128</dim>
					<dim>128</dim>
				</port>
			</output>
		</layer>
		<layer id="77" name="StatefulPartitionedCall/model_1/bert/encoder/layer_0/attention/output/dense/Tensordot/Cast_17901_const" type="Const" version="opset1">
			<data element_type="i64" offset="15693844" shape="3" size="24"/>
			<output>
				<port id="0" names="StatefulPartitionedCall/model_1/bert/encoder/layer_0/attention/output/dense/Tensordot/shape:0" precision="I64">
					<dim>3</dim>
				</port>
			</output>
		</layer>
		<layer id="78" name="StatefulPartitionedCall/model_1/bert/encoder/layer_0/attention/output/dense/Tensordot" type="Reshape" version="opset1">
			<data special_zero="false"/>
			<input>
				<port id="0">
					<dim>128</dim>
					<dim>128</dim>
				</port>
				<port id="1">
					<dim>3</dim>
				</port>
			</input>
			<output>
				<port id="2" names="StatefulPartitionedCall/model_1/bert/encoder/layer_0/attention/output/dense/Tensordot:0" precision="FP32">
					<dim>1</dim>
					<dim>128</dim>
					<dim>128</dim>
				</port>
			</output>
		</layer>
		<layer id="79" name="StatefulPartitionedCall/model_1/bert/encoder/layer_0/attention/output/dense/BiasAdd/ReadVariableOp/EltwiseUnsqueeze3377_const" type="Const" version="opset1">
			<data element_type="f32" offset="15957616" shape="1,1,128" size="512"/>
			<output>
				<port id="0" names="StatefulPartitionedCall/model_1/bert/encoder/layer_0/attention/output/dense/BiasAdd/ReadVariableOp:0" precision="FP32">
					<dim>1</dim>
					<dim>1</dim>
					<dim>128</dim>
				</port>
			</output>
		</layer>
		<layer id="80" name="StatefulPartitionedCall/model_1/bert/encoder/layer_0/attention/output/dense/BiasAdd/Add" type="Add" version="opset1">
			<data auto_broadcast="numpy"/>
			<input>
				<port id="0">
					<dim>1</dim>
					<dim>128</dim>
					<dim>128</dim>
				</port>
				<port id="1">
					<dim>1</dim>
					<dim>1</dim>
					<dim>128</dim>
				</port>
			</input>
			<output>
				<port id="2" names="StatefulPartitionedCall/model_1/bert/encoder/layer_0/attention/output/dropout_2/Identity:0,StatefulPartitionedCall/model_1/bert/encoder/layer_0/attention/output/dense/BiasAdd:0" precision="FP32">
					<dim>1</dim>
					<dim>128</dim>
					<dim>128</dim>
				</port>
			</output>
		</layer>
		<layer id="81" name="StatefulPartitionedCall/model_1/bert/encoder/layer_0/intermediate/Tensordot/ReadVariableOp/MinusOne5299_const" type="Const" version="opset1">
			<data element_type="i64" offset="15628296" shape="1" size="8"/>
			<output>
				<port id="0" precision="I64">
					<dim>1</dim>
				</port>
			</output>
		</layer>
		<layer id="82" name="StatefulPartitionedCall/model_1/bert/encoder/layer_0/intermediate/Tensordot/MatMul/1_port_transpose5065_const" type="Const" version="opset1">
			<data element_type="f32" offset="15958128" shape="512,128" size="262144"/>
			<output>
				<port id="0" names="StatefulPartitionedCall/model_1/bert/encoder/layer_0/intermediate/Tensordot/ReadVariableOp:0" precision="FP32">
					<dim>512</dim>
					<dim>128</dim>
				</port>
			</output>
		</layer>
		<layer id="83" name="StatefulPartitionedCall/model_1/bert/encoder/layer_0/intermediate/Tensordot/ReadVariableOp/Shape" type="ShapeOf" version="opset3">
			<data output_type="i64"/>
			<input>
				<port id="0">
					<dim>512</dim>
					<dim>128</dim>
				</port>
			</input>
			<output>
				<port id="1" precision="I64">
					<dim>2</dim>
				</port>
			</output>
		</layer>
		<layer id="84" name="StatefulPartitionedCall/model_1/bert/encoder/layer_0/intermediate/Tensordot/ReadVariableOp/Shape/Gather/Cast_17979_const" type="Const" version="opset1">
			<data element_type="i32" offset="15693840" shape="1" size="4"/>
			<output>
				<port id="0" precision="I32">
					<dim>1</dim>
				</port>
			</output>
		</layer>
		<layer id="85" name="StatefulPartitionedCall/model_1/bert/encoder/layer_0/intermediate/Tensordot/ReadVariableOp/Shape/Gather/Cast_27981_const" type="Const" version="opset1">
			<data element_type="i64" offset="15627264" shape="" size="8"/>
			<output>
				<port id="0" precision="I64"/>
			</output>
		</layer>
		<layer id="86" name="StatefulPartitionedCall/model_1/bert/encoder/layer_0/intermediate/Tensordot/ReadVariableOp/Shape/Gather" type="Gather" version="opset1">
			<input>
				<port id="0">
					<dim>2</dim>
				</port>
				<port id="1">
					<dim>1</dim>
				</port>
				<port id="2"/>
			</input>
			<output>
				<port id="3" precision="I64">
					<dim>1</dim>
				</port>
			</output>
		</layer>
		<layer id="87" name="StatefulPartitionedCall/model_1/bert/encoder/layer_0/intermediate/Tensordot/ReadVariableOp/MinusOne/shapes_concat" type="Concat" version="opset1">
			<data axis="0"/>
			<input>
				<port id="0">
					<dim>1</dim>
				</port>
				<port id="1">
					<dim>1</dim>
				</port>
			</input>
			<output>
				<port id="2" names="StatefulPartitionedCall/model_1/bert/encoder/layer_0/intermediate/Tensordot/Reshape/shape:0" precision="I64">
					<dim>2</dim>
				</port>
			</output>
		</layer>
		<layer id="88" name="StatefulPartitionedCall/model_1/bert/encoder/layer_0/intermediate/Tensordot/Reshape" type="Reshape" version="opset1">
			<data special_zero="false"/>
			<input>
				<port id="0">
					<dim>1</dim>
					<dim>128</dim>
					<dim>128</dim>
				</port>
				<port id="1">
					<dim>2</dim>
				</port>
			</input>
			<output>
				<port id="2" names="StatefulPartitionedCall/model_1/bert/encoder/layer_0/intermediate/Tensordot/Reshape:0" precision="FP32">
					<dim>128</dim>
					<dim>128</dim>
				</port>
			</output>
		</layer>
		<layer id="89" name="StatefulPartitionedCall/model_1/bert/encoder/layer_0/intermediate/Tensordot/MatMul" type="MatMul" version="opset1">
			<data transpose_a="false" transpose_b="true"/>
			<input>
				<port id="0">
					<dim>128</dim>
					<dim>128</dim>
				</port>
				<port id="1">
					<dim>512</dim>
					<dim>128</dim>
				</port>
			</input>
			<output>
				<port id="2" names="StatefulPartitionedCall/model_1/bert/encoder/layer_0/intermediate/Tensordot/MatMul:0" precision="FP32">
					<dim>128</dim>
					<dim>512</dim>
				</port>
			</output>
		</layer>
		<layer id="90" name="StatefulPartitionedCall/model_1/bert/encoder/layer_0/intermediate/Tensordot/Cast_17977_const" type="Const" version="opset1">
			<data element_type="i64" offset="16220272" shape="3" size="24"/>
			<output>
				<port id="0" names="StatefulPartitionedCall/model_1/bert/encoder/layer_0/intermediate/Tensordot/shape:0" precision="I64">
					<dim>3</dim>
				</port>
			</output>
		</layer>
		<layer id="91" name="StatefulPartitionedCall/model_1/bert/encoder/layer_0/intermediate/Tensordot" type="Reshape" version="opset1">
			<data special_zero="false"/>
			<input>
				<port id="0">
					<dim>128</dim>
					<dim>512</dim>
				</port>
				<port id="1">
					<dim>3</dim>
				</port>
			</input>
			<output>
				<port id="2" names="StatefulPartitionedCall/model_1/bert/encoder/layer_0/intermediate/Tensordot:0" precision="FP32">
					<dim>1</dim>
					<dim>128</dim>
					<dim>512</dim>
				</port>
			</output>
		</layer>
		<layer id="92" name="StatefulPartitionedCall/model_1/bert/encoder/layer_0/intermediate/BiasAdd/ReadVariableOp/EltwiseUnsqueeze3385_const" type="Const" version="opset1">
			<data element_type="f32" offset="16220296" shape="1,1,512" size="2048"/>
			<output>
				<port id="0" names="StatefulPartitionedCall/model_1/bert/encoder/layer_0/intermediate/BiasAdd/ReadVariableOp:0" precision="FP32">
					<dim>1</dim>
					<dim>1</dim>
					<dim>512</dim>
				</port>
			</output>
		</layer>
		<layer id="93" name="StatefulPartitionedCall/model_1/bert/encoder/layer_0/intermediate/BiasAdd/Add" type="Add" version="opset1">
			<data auto_broadcast="numpy"/>
			<input>
				<port id="0">
					<dim>1</dim>
					<dim>128</dim>
					<dim>512</dim>
				</port>
				<port id="1">
					<dim>1</dim>
					<dim>1</dim>
					<dim>512</dim>
				</port>
			</input>
			<output>
				<port id="2" names="StatefulPartitionedCall/model_1/bert/encoder/layer_0/intermediate/BiasAdd:0" precision="FP32">
					<dim>1</dim>
					<dim>128</dim>
					<dim>512</dim>
				</port>
			</output>
		</layer>
		<layer id="94" name="StatefulPartitionedCall/model_1/bert/encoder/layer_0/intermediate/BiasAdd/GELU_" type="Gelu" version="opset2">
			<input>
				<port id="0">
					<dim>1</dim>
					<dim>128</dim>
					<dim>512</dim>
				</port>
			</input>
			<output>
				<port id="1" names="StatefulPartitionedCall/model_1/bert/encoder/layer_0/intermediate/mul_3:0" precision="FP32">
					<dim>1</dim>
					<dim>128</dim>
					<dim>512</dim>
				</port>
			</output>
		</layer>
		<layer id="95" name="StatefulPartitionedCall/model_1/bert/encoder/layer_0/output/dense/Tensordot/ReadVariableOp/MinusOne5239_const" type="Const" version="opset1">
			<data element_type="i64" offset="15628296" shape="1" size="8"/>
			<output>
				<port id="0" precision="I64">
					<dim>1</dim>
				</port>
			</output>
		</layer>
		<layer id="96" name="StatefulPartitionedCall/model_1/bert/encoder/layer_0/output/dense/Tensordot/MatMul/1_port_transpose5025_const" type="Const" version="opset1">
			<data element_type="f32" offset="16222344" shape="128,512" size="262144"/>
			<output>
				<port id="0" names="StatefulPartitionedCall/model_1/bert/encoder/layer_0/output/dense/Tensordot/ReadVariableOp:0" precision="FP32">
					<dim>128</dim>
					<dim>512</dim>
				</port>
			</output>
		</layer>
		<layer id="97" name="StatefulPartitionedCall/model_1/bert/encoder/layer_0/output/dense/Tensordot/ReadVariableOp/Shape" type="ShapeOf" version="opset3">
			<data output_type="i64"/>
			<input>
				<port id="0">
					<dim>128</dim>
					<dim>512</dim>
				</port>
			</input>
			<output>
				<port id="1" precision="I64">
					<dim>2</dim>
				</port>
			</output>
		</layer>
		<layer id="98" name="StatefulPartitionedCall/model_1/bert/encoder/layer_0/output/dense/Tensordot/ReadVariableOp/Shape/Gather/Cast_17951_const" type="Const" version="opset1">
			<data element_type="i32" offset="15693840" shape="1" size="4"/>
			<output>
				<port id="0" precision="I32">
					<dim>1</dim>
				</port>
			</output>
		</layer>
		<layer id="99" name="StatefulPartitionedCall/model_1/bert/encoder/layer_0/output/dense/Tensordot/ReadVariableOp/Shape/Gather/Cast_27953_const" type="Const" version="opset1">
			<data element_type="i64" offset="15627264" shape="" size="8"/>
			<output>
				<port id="0" precision="I64"/>
			</output>
		</layer>
		<layer id="100" name="StatefulPartitionedCall/model_1/bert/encoder/layer_0/output/dense/Tensordot/ReadVariableOp/Shape/Gather" type="Gather" version="opset1">
			<input>
				<port id="0">
					<dim>2</dim>
				</port>
				<port id="1">
					<dim>1</dim>
				</port>
				<port id="2"/>
			</input>
			<output>
				<port id="3" precision="I64">
					<dim>1</dim>
				</port>
			</output>
		</layer>
		<layer id="101" name="StatefulPartitionedCall/model_1/bert/encoder/layer_0/output/dense/Tensordot/ReadVariableOp/MinusOne/shapes_concat" type="Concat" version="opset1">
			<data axis="0"/>
			<input>
				<port id="0">
					<dim>1</dim>
				</port>
				<port id="1">
					<dim>1</dim>
				</port>
			</input>
			<output>
				<port id="2" names="StatefulPartitionedCall/model_1/bert/encoder/layer_0/output/dense/Tensordot/Reshape/shape:0" precision="I64">
					<dim>2</dim>
				</port>
			</output>
		</layer>
		<layer id="102" name="StatefulPartitionedCall/model_1/bert/encoder/layer_0/output/dense/Tensordot/Reshape" type="Reshape" version="opset1">
			<data special_zero="false"/>
			<input>
				<port id="0">
					<dim>1</dim>
					<dim>128</dim>
					<dim>512</dim>
				</port>
				<port id="1">
					<dim>2</dim>
				</port>
			</input>
			<output>
				<port id="2" names="StatefulPartitionedCall/model_1/bert/encoder/layer_0/output/dense/Tensordot/Reshape:0" precision="FP32">
					<dim>128</dim>
					<dim>512</dim>
				</port>
			</output>
		</layer>
		<layer id="103" name="StatefulPartitionedCall/model_1/bert/encoder/layer_0/output/dense/Tensordot/MatMul" type="MatMul" version="opset1">
			<data transpose_a="false" transpose_b="true"/>
			<input>
				<port id="0">
					<dim>128</dim>
					<dim>512</dim>
				</port>
				<port id="1">
					<dim>128</dim>
					<dim>512</dim>
				</port>
			</input>
			<output>
				<port id="2" names="StatefulPartitionedCall/model_1/bert/encoder/layer_0/output/dense/Tensordot/MatMul:0" precision="FP32">
					<dim>128</dim>
					<dim>128</dim>
				</port>
			</output>
		</layer>
		<layer id="104" name="StatefulPartitionedCall/model_1/bert/encoder/layer_0/output/dense/Tensordot/Cast_18005_const" type="Const" version="opset1">
			<data element_type="i64" offset="15693844" shape="3" size="24"/>
			<output>
				<port id="0" names="StatefulPartitionedCall/model_1/bert/encoder/layer_0/output/dense/Tensordot/shape:0" precision="I64">
					<dim>3</dim>
				</port>
			</output>
		</layer>
		<layer id="105" name="StatefulPartitionedCall/model_1/bert/encoder/layer_0/output/dense/Tensordot" type="Reshape" version="opset1">
			<data special_zero="false"/>
			<input>
				<port id="0">
					<dim>128</dim>
					<dim>128</dim>
				</port>
				<port id="1">
					<dim>3</dim>
				</port>
			</input>
			<output>
				<port id="2" names="StatefulPartitionedCall/model_1/bert/encoder/layer_0/output/dense/Tensordot:0" precision="FP32">
					<dim>1</dim>
					<dim>128</dim>
					<dim>128</dim>
				</port>
			</output>
		</layer>
		<layer id="106" name="StatefulPartitionedCall/model_1/bert/encoder/layer_0/output/dense/BiasAdd/ReadVariableOp/EltwiseUnsqueeze3361_const" type="Const" version="opset1">
			<data element_type="f32" offset="16484488" shape="1,1,128" size="512"/>
			<output>
				<port id="0" names="StatefulPartitionedCall/model_1/bert/encoder/layer_0/output/dense/BiasAdd/ReadVariableOp:0" precision="FP32">
					<dim>1</dim>
					<dim>1</dim>
					<dim>128</dim>
				</port>
			</output>
		</layer>
		<layer id="107" name="StatefulPartitionedCall/model_1/bert/encoder/layer_0/output/dense/BiasAdd/Add" type="Add" version="opset1">
			<data auto_broadcast="numpy"/>
			<input>
				<port id="0">
					<dim>1</dim>
					<dim>128</dim>
					<dim>128</dim>
				</port>
				<port id="1">
					<dim>1</dim>
					<dim>1</dim>
					<dim>128</dim>
				</port>
			</input>
			<output>
				<port id="2" names="StatefulPartitionedCall/model_1/bert/encoder/layer_0/output/dropout_3/Identity:0,StatefulPartitionedCall/model_1/bert/encoder/layer_0/output/dense/BiasAdd:0" precision="FP32">
					<dim>1</dim>
					<dim>128</dim>
					<dim>128</dim>
				</port>
			</output>
		</layer>
		<layer id="108" name="StatefulPartitionedCall/model_1/bert/encoder/layer_1/attention/self/query/Tensordot/ReadVariableOp/MinusOne5203_const" type="Const" version="opset1">
			<data element_type="i64" offset="15628296" shape="1" size="8"/>
			<output>
				<port id="0" precision="I64">
					<dim>1</dim>
				</port>
			</output>
		</layer>
		<layer id="109" name="StatefulPartitionedCall/model_1/bert/encoder/layer_1/attention/self/query/Tensordot/MatMul/1_port_transpose5021_const" type="Const" version="opset1">
			<data element_type="f32" offset="16485000" shape="128,128" size="65536"/>
			<output>
				<port id="0" names="StatefulPartitionedCall/model_1/bert/encoder/layer_1/attention/self/query/Tensordot/ReadVariableOp:0" precision="FP32">
					<dim>128</dim>
					<dim>128</dim>
				</port>
			</output>
		</layer>
		<layer id="110" name="StatefulPartitionedCall/model_1/bert/encoder/layer_1/attention/self/query/Tensordot/ReadVariableOp/Shape" type="ShapeOf" version="opset3">
			<data output_type="i64"/>
			<input>
				<port id="0">
					<dim>128</dim>
					<dim>128</dim>
				</port>
			</input>
			<output>
				<port id="1" precision="I64">
					<dim>2</dim>
				</port>
			</output>
		</layer>
		<layer id="111" name="StatefulPartitionedCall/model_1/bert/encoder/layer_1/attention/self/query/Tensordot/ReadVariableOp/Shape/Gather/Cast_17945_const" type="Const" version="opset1">
			<data element_type="i32" offset="15693840" shape="1" size="4"/>
			<output>
				<port id="0" precision="I32">
					<dim>1</dim>
				</port>
			</output>
		</layer>
		<layer id="112" name="StatefulPartitionedCall/model_1/bert/encoder/layer_1/attention/self/query/Tensordot/ReadVariableOp/Shape/Gather/Cast_27947_const" type="Const" version="opset1">
			<data element_type="i64" offset="15627264" shape="" size="8"/>
			<output>
				<port id="0" precision="I64"/>
			</output>
		</layer>
		<layer id="113" name="StatefulPartitionedCall/model_1/bert/encoder/layer_1/attention/self/query/Tensordot/ReadVariableOp/Shape/Gather" type="Gather" version="opset1">
			<input>
				<port id="0">
					<dim>2</dim>
				</port>
				<port id="1">
					<dim>1</dim>
				</port>
				<port id="2"/>
			</input>
			<output>
				<port id="3" precision="I64">
					<dim>1</dim>
				</port>
			</output>
		</layer>
		<layer id="114" name="StatefulPartitionedCall/model_1/bert/encoder/layer_1/attention/self/query/Tensordot/ReadVariableOp/MinusOne/shapes_concat" type="Concat" version="opset1">
			<data axis="0"/>
			<input>
				<port id="0">
					<dim>1</dim>
				</port>
				<port id="1">
					<dim>1</dim>
				</port>
			</input>
			<output>
				<port id="2" names="StatefulPartitionedCall/model_1/bert/encoder/layer_1/attention/self/query/Tensordot/Reshape/shape:0" precision="I64">
					<dim>2</dim>
				</port>
			</output>
		</layer>
		<layer id="115" name="StatefulPartitionedCall/model_1/bert/encoder/layer_1/attention/self/query/Tensordot/Reshape" type="Reshape" version="opset1">
			<data special_zero="false"/>
			<input>
				<port id="0">
					<dim>1</dim>
					<dim>128</dim>
					<dim>128</dim>
				</port>
				<port id="1">
					<dim>2</dim>
				</port>
			</input>
			<output>
				<port id="2" names="StatefulPartitionedCall/model_1/bert/encoder/layer_1/attention/self/query/Tensordot/Reshape:0" precision="FP32">
					<dim>128</dim>
					<dim>128</dim>
				</port>
			</output>
		</layer>
		<layer id="116" name="StatefulPartitionedCall/model_1/bert/encoder/layer_1/attention/self/query/Tensordot/MatMul" type="MatMul" version="opset1">
			<data transpose_a="false" transpose_b="true"/>
			<input>
				<port id="0">
					<dim>128</dim>
					<dim>128</dim>
				</port>
				<port id="1">
					<dim>128</dim>
					<dim>128</dim>
				</port>
			</input>
			<output>
				<port id="2" names="StatefulPartitionedCall/model_1/bert/encoder/layer_1/attention/self/query/Tensordot/MatMul:0" precision="FP32">
					<dim>128</dim>
					<dim>128</dim>
				</port>
			</output>
		</layer>
		<layer id="117" name="StatefulPartitionedCall/model_1/bert/encoder/layer_1/attention/self/query/Tensordot/Cast_17899_const" type="Const" version="opset1">
			<data element_type="i64" offset="15693844" shape="3" size="24"/>
			<output>
				<port id="0" names="StatefulPartitionedCall/model_1/bert/encoder/layer_1/attention/self/query/Tensordot/shape:0" precision="I64">
					<dim>3</dim>
				</port>
			</output>
		</layer>
		<layer id="118" name="StatefulPartitionedCall/model_1/bert/encoder/layer_1/attention/self/query/Tensordot" type="Reshape" version="opset1">
			<data special_zero="false"/>
			<input>
				<port id="0">
					<dim>128</dim>
					<dim>128</dim>
				</port>
				<port id="1">
					<dim>3</dim>
				</port>
			</input>
			<output>
				<port id="2" names="StatefulPartitionedCall/model_1/bert/encoder/layer_1/attention/self/query/Tensordot:0" precision="FP32">
					<dim>1</dim>
					<dim>128</dim>
					<dim>128</dim>
				</port>
			</output>
		</layer>
		<layer id="119" name="StatefulPartitionedCall/model_1/bert/encoder/layer_1/attention/self/query/BiasAdd/ReadVariableOp/EltwiseUnsqueeze3357_const" type="Const" version="opset1">
			<data element_type="f32" offset="16550536" shape="1,1,128" size="512"/>
			<output>
				<port id="0" names="StatefulPartitionedCall/model_1/bert/encoder/layer_1/attention/self/query/BiasAdd/ReadVariableOp:0" precision="FP32">
					<dim>1</dim>
					<dim>1</dim>
					<dim>128</dim>
				</port>
			</output>
		</layer>
		<layer id="120" name="StatefulPartitionedCall/model_1/bert/encoder/layer_1/attention/self/query/BiasAdd/Add" type="Add" version="opset1">
			<data auto_broadcast="numpy"/>
			<input>
				<port id="0">
					<dim>1</dim>
					<dim>128</dim>
					<dim>128</dim>
				</port>
				<port id="1">
					<dim>1</dim>
					<dim>1</dim>
					<dim>128</dim>
				</port>
			</input>
			<output>
				<port id="2" names="StatefulPartitionedCall/model_1/bert/encoder/layer_1/attention/self/query/BiasAdd:0" precision="FP32">
					<dim>1</dim>
					<dim>128</dim>
					<dim>128</dim>
				</port>
			</output>
		</layer>
		<layer id="121" name="StatefulPartitionedCall/model_1/bert/encoder/layer_1/attention/self/Reshape/Cast_17973_const" type="Const" version="opset1">
			<data element_type="i64" offset="15694380" shape="4" size="32"/>
			<output>
				<port id="0" names="StatefulPartitionedCall/model_1/bert/encoder/layer_1/attention/self/Reshape/shape:0" precision="I64">
					<dim>4</dim>
				</port>
			</output>
		</layer>
		<layer id="122" name="StatefulPartitionedCall/model_1/bert/encoder/layer_1/attention/self/Reshape" type="Reshape" version="opset1">
			<data special_zero="false"/>
			<input>
				<port id="0">
					<dim>1</dim>
					<dim>128</dim>
					<dim>128</dim>
				</port>
				<port id="1">
					<dim>4</dim>
				</port>
			</input>
			<output>
				<port id="2" names="StatefulPartitionedCall/model_1/bert/encoder/layer_1/attention/self/Reshape:0" precision="FP32">
					<dim>1</dim>
					<dim>128</dim>
					<dim>1</dim>
					<dim>128</dim>
				</port>
			</output>
		</layer>
		<layer id="123" name="StatefulPartitionedCall/model_1/bert/encoder/layer_1/attention/self/transpose/Cast_18007_const" type="Const" version="opset1">
			<data element_type="i64" offset="15694412" shape="4" size="32"/>
			<output>
				<port id="0" names="StatefulPartitionedCall/model_1/bert/encoder/layer_1/attention/self/transpose/perm:0" precision="I64">
					<dim>4</dim>
				</port>
			</output>
		</layer>
		<layer id="124" name="StatefulPartitionedCall/model_1/bert/encoder/layer_1/attention/self/transpose" type="Transpose" version="opset1">
			<input>
				<port id="0">
					<dim>1</dim>
					<dim>128</dim>
					<dim>1</dim>
					<dim>128</dim>
				</port>
				<port id="1">
					<dim>4</dim>
				</port>
			</input>
			<output>
				<port id="2" names="StatefulPartitionedCall/model_1/bert/encoder/layer_1/attention/self/transpose:0" precision="FP32">
					<dim>1</dim>
					<dim>1</dim>
					<dim>128</dim>
					<dim>128</dim>
				</port>
			</output>
		</layer>
		<layer id="125" name="StatefulPartitionedCall/model_1/bert/encoder/layer_1/attention/self/key/Tensordot/ReadVariableOp/MinusOne5287_const" type="Const" version="opset1">
			<data element_type="i64" offset="15628296" shape="1" size="8"/>
			<output>
				<port id="0" precision="I64">
					<dim>1</dim>
				</port>
			</output>
		</layer>
		<layer id="126" name="StatefulPartitionedCall/model_1/bert/encoder/layer_1/attention/self/key/Tensordot/MatMul/1_port_transpose5045_const" type="Const" version="opset1">
			<data element_type="f32" offset="16551048" shape="128,128" size="65536"/>
			<output>
				<port id="0" names="StatefulPartitionedCall/model_1/bert/encoder/layer_1/attention/self/key/Tensordot/ReadVariableOp:0" precision="FP32">
					<dim>128</dim>
					<dim>128</dim>
				</port>
			</output>
		</layer>
		<layer id="127" name="StatefulPartitionedCall/model_1/bert/encoder/layer_1/attention/self/key/Tensordot/ReadVariableOp/Shape" type="ShapeOf" version="opset3">
			<data output_type="i64"/>
			<input>
				<port id="0">
					<dim>128</dim>
					<dim>128</dim>
				</port>
			</input>
			<output>
				<port id="1" precision="I64">
					<dim>2</dim>
				</port>
			</output>
		</layer>
		<layer id="128" name="StatefulPartitionedCall/model_1/bert/encoder/layer_1/attention/self/key/Tensordot/ReadVariableOp/Shape/Gather/Cast_17915_const" type="Const" version="opset1">
			<data element_type="i32" offset="15693840" shape="1" size="4"/>
			<output>
				<port id="0" precision="I32">
					<dim>1</dim>
				</port>
			</output>
		</layer>
		<layer id="129" name="StatefulPartitionedCall/model_1/bert/encoder/layer_1/attention/self/key/Tensordot/ReadVariableOp/Shape/Gather/Cast_27917_const" type="Const" version="opset1">
			<data element_type="i64" offset="15627264" shape="" size="8"/>
			<output>
				<port id="0" precision="I64"/>
			</output>
		</layer>
		<layer id="130" name="StatefulPartitionedCall/model_1/bert/encoder/layer_1/attention/self/key/Tensordot/ReadVariableOp/Shape/Gather" type="Gather" version="opset1">
			<input>
				<port id="0">
					<dim>2</dim>
				</port>
				<port id="1">
					<dim>1</dim>
				</port>
				<port id="2"/>
			</input>
			<output>
				<port id="3" precision="I64">
					<dim>1</dim>
				</port>
			</output>
		</layer>
		<layer id="131" name="StatefulPartitionedCall/model_1/bert/encoder/layer_1/attention/self/key/Tensordot/ReadVariableOp/MinusOne/shapes_concat" type="Concat" version="opset1">
			<data axis="0"/>
			<input>
				<port id="0">
					<dim>1</dim>
				</port>
				<port id="1">
					<dim>1</dim>
				</port>
			</input>
			<output>
				<port id="2" names="StatefulPartitionedCall/model_1/bert/encoder/layer_1/attention/self/key/Tensordot/Reshape/shape:0" precision="I64">
					<dim>2</dim>
				</port>
			</output>
		</layer>
		<layer id="132" name="StatefulPartitionedCall/model_1/bert/encoder/layer_1/attention/self/key/Tensordot/Reshape" type="Reshape" version="opset1">
			<data special_zero="false"/>
			<input>
				<port id="0">
					<dim>1</dim>
					<dim>128</dim>
					<dim>128</dim>
				</port>
				<port id="1">
					<dim>2</dim>
				</port>
			</input>
			<output>
				<port id="2" names="StatefulPartitionedCall/model_1/bert/encoder/layer_1/attention/self/key/Tensordot/Reshape:0" precision="FP32">
					<dim>128</dim>
					<dim>128</dim>
				</port>
			</output>
		</layer>
		<layer id="133" name="StatefulPartitionedCall/model_1/bert/encoder/layer_1/attention/self/key/Tensordot/MatMul" type="MatMul" version="opset1">
			<data transpose_a="false" transpose_b="true"/>
			<input>
				<port id="0">
					<dim>128</dim>
					<dim>128</dim>
				</port>
				<port id="1">
					<dim>128</dim>
					<dim>128</dim>
				</port>
			</input>
			<output>
				<port id="2" names="StatefulPartitionedCall/model_1/bert/encoder/layer_1/attention/self/key/Tensordot/MatMul:0" precision="FP32">
					<dim>128</dim>
					<dim>128</dim>
				</port>
			</output>
		</layer>
		<layer id="134" name="StatefulPartitionedCall/model_1/bert/encoder/layer_1/attention/self/key/Tensordot/Cast_17875_const" type="Const" version="opset1">
			<data element_type="i64" offset="15693844" shape="3" size="24"/>
			<output>
				<port id="0" names="StatefulPartitionedCall/model_1/bert/encoder/layer_1/attention/self/key/Tensordot/shape:0" precision="I64">
					<dim>3</dim>
				</port>
			</output>
		</layer>
		<layer id="135" name="StatefulPartitionedCall/model_1/bert/encoder/layer_1/attention/self/key/Tensordot" type="Reshape" version="opset1">
			<data special_zero="false"/>
			<input>
				<port id="0">
					<dim>128</dim>
					<dim>128</dim>
				</port>
				<port id="1">
					<dim>3</dim>
				</port>
			</input>
			<output>
				<port id="2" names="StatefulPartitionedCall/model_1/bert/encoder/layer_1/attention/self/key/Tensordot:0" precision="FP32">
					<dim>1</dim>
					<dim>128</dim>
					<dim>128</dim>
				</port>
			</output>
		</layer>
		<layer id="136" name="StatefulPartitionedCall/model_1/bert/encoder/layer_1/attention/self/key/BiasAdd/ReadVariableOp/EltwiseUnsqueeze3381_const" type="Const" version="opset1">
			<data element_type="f32" offset="16616584" shape="1,1,128" size="512"/>
			<output>
				<port id="0" names="StatefulPartitionedCall/model_1/bert/encoder/layer_1/attention/self/key/BiasAdd/ReadVariableOp:0" precision="FP32">
					<dim>1</dim>
					<dim>1</dim>
					<dim>128</dim>
				</port>
			</output>
		</layer>
		<layer id="137" name="StatefulPartitionedCall/model_1/bert/encoder/layer_1/attention/self/key/BiasAdd/Add" type="Add" version="opset1">
			<data auto_broadcast="numpy"/>
			<input>
				<port id="0">
					<dim>1</dim>
					<dim>128</dim>
					<dim>128</dim>
				</port>
				<port id="1">
					<dim>1</dim>
					<dim>1</dim>
					<dim>128</dim>
				</port>
			</input>
			<output>
				<port id="2" names="StatefulPartitionedCall/model_1/bert/encoder/layer_1/attention/self/key/BiasAdd:0" precision="FP32">
					<dim>1</dim>
					<dim>128</dim>
					<dim>128</dim>
				</port>
			</output>
		</layer>
		<layer id="138" name="StatefulPartitionedCall/model_1/bert/encoder/layer_1/attention/self/Reshape_1/Cast_17957_const" type="Const" version="opset1">
			<data element_type="i64" offset="15694380" shape="4" size="32"/>
			<output>
				<port id="0" names="StatefulPartitionedCall/model_1/bert/encoder/layer_1/attention/self/Reshape_1/shape:0" precision="I64">
					<dim>4</dim>
				</port>
			</output>
		</layer>
		<layer id="139" name="StatefulPartitionedCall/model_1/bert/encoder/layer_1/attention/self/Reshape_1" type="Reshape" version="opset1">
			<data special_zero="false"/>
			<input>
				<port id="0">
					<dim>1</dim>
					<dim>128</dim>
					<dim>128</dim>
				</port>
				<port id="1">
					<dim>4</dim>
				</port>
			</input>
			<output>
				<port id="2" names="StatefulPartitionedCall/model_1/bert/encoder/layer_1/attention/self/Reshape_1:0" precision="FP32">
					<dim>1</dim>
					<dim>128</dim>
					<dim>1</dim>
					<dim>128</dim>
				</port>
			</output>
		</layer>
		<layer id="140" name="StatefulPartitionedCall/model_1/bert/encoder/layer_1/attention/self/transpose_1/Cast_17955_const" type="Const" version="opset1">
			<data element_type="i64" offset="15694412" shape="4" size="32"/>
			<output>
				<port id="0" names="StatefulPartitionedCall/model_1/bert/encoder/layer_1/attention/self/transpose_1/perm:0" precision="I64">
					<dim>4</dim>
				</port>
			</output>
		</layer>
		<layer id="141" name="StatefulPartitionedCall/model_1/bert/encoder/layer_1/attention/self/transpose_1" type="Transpose" version="opset1">
			<input>
				<port id="0">
					<dim>1</dim>
					<dim>128</dim>
					<dim>1</dim>
					<dim>128</dim>
				</port>
				<port id="1">
					<dim>4</dim>
				</port>
			</input>
			<output>
				<port id="2" precision="FP32">
					<dim>1</dim>
					<dim>1</dim>
					<dim>128</dim>
					<dim>128</dim>
				</port>
			</output>
		</layer>
		<layer id="142" name="StatefulPartitionedCall/model_1/bert/encoder/layer_1/attention/self/truediv_copy/const3498_const" type="Const" version="opset1">
			<data element_type="f32" offset="15760492" shape="1,1,1,1" size="4"/>
			<output>
				<port id="0" precision="FP32">
					<dim>1</dim>
					<dim>1</dim>
					<dim>1</dim>
					<dim>1</dim>
				</port>
			</output>
		</layer>
		<layer id="143" name="StatefulPartitionedCall/model_1/bert/encoder/layer_1/attention/self/truediv_copy" type="Multiply" version="opset1">
			<data auto_broadcast="numpy"/>
			<input>
				<port id="0">
					<dim>1</dim>
					<dim>1</dim>
					<dim>128</dim>
					<dim>128</dim>
				</port>
				<port id="1">
					<dim>1</dim>
					<dim>1</dim>
					<dim>1</dim>
					<dim>1</dim>
				</port>
			</input>
			<output>
				<port id="2" names="StatefulPartitionedCall/model_1/bert/encoder/layer_1/attention/self/transpose_1:0" precision="FP32">
					<dim>1</dim>
					<dim>1</dim>
					<dim>128</dim>
					<dim>128</dim>
				</port>
			</output>
		</layer>
		<layer id="144" name="StatefulPartitionedCall/model_1/bert/encoder/layer_1/attention/self/MatMul" type="MatMul" version="opset1">
			<data transpose_a="false" transpose_b="true"/>
			<input>
				<port id="0">
					<dim>1</dim>
					<dim>1</dim>
					<dim>128</dim>
					<dim>128</dim>
				</port>
				<port id="1">
					<dim>1</dim>
					<dim>1</dim>
					<dim>128</dim>
					<dim>128</dim>
				</port>
			</input>
			<output>
				<port id="2" names="StatefulPartitionedCall/model_1/bert/encoder/layer_1/attention/self/truediv:0" precision="FP32">
					<dim>1</dim>
					<dim>1</dim>
					<dim>128</dim>
					<dim>128</dim>
				</port>
			</output>
		</layer>
		<layer id="145" name="StatefulPartitionedCall/model_1/bert/encoder/layer_1/attention/self/mul_1/Output_0/Data__const" type="Const" version="opset1">
			<data element_type="f32" offset="15760496" shape="1,128,1,128" size="65536"/>
			<output>
				<port id="0" names="StatefulPartitionedCall/model_1/bert/encoder/layer_1/attention/self/mul_1:0" precision="FP32">
					<dim>1</dim>
					<dim>128</dim>
					<dim>1</dim>
					<dim>128</dim>
				</port>
			</output>
		</layer>
		<layer id="146" name="StatefulPartitionedCall/model_1/bert/encoder/layer_1/attention/self/Add" type="Add" version="opset1">
			<data auto_broadcast="numpy"/>
			<input>
				<port id="0">
					<dim>1</dim>
					<dim>1</dim>
					<dim>128</dim>
					<dim>128</dim>
				</port>
				<port id="1">
					<dim>1</dim>
					<dim>128</dim>
					<dim>1</dim>
					<dim>128</dim>
				</port>
			</input>
			<output>
				<port id="2" names="StatefulPartitionedCall/model_1/bert/encoder/layer_1/attention/self/Add:0" precision="FP32">
					<dim>1</dim>
					<dim>1</dim>
					<dim>128</dim>
					<dim>128</dim>
				</port>
			</output>
		</layer>
		<layer id="147" name="StatefulPartitionedCall/model_1/bert/encoder/layer_1/attention/self/Softmax" type="SoftMax" version="opset1">
			<data axis="3"/>
			<input>
				<port id="0">
					<dim>1</dim>
					<dim>1</dim>
					<dim>128</dim>
					<dim>128</dim>
				</port>
			</input>
			<output>
				<port id="1" names="StatefulPartitionedCall/model_1/bert/encoder/layer_1/attention/self/dropout_4/Identity:0,StatefulPartitionedCall/model_1/bert/encoder/layer_1/attention/self/Softmax:0" precision="FP32">
					<dim>1</dim>
					<dim>1</dim>
					<dim>128</dim>
					<dim>128</dim>
				</port>
			</output>
		</layer>
		<layer id="148" name="StatefulPartitionedCall/model_1/bert/encoder/layer_1/attention/self/value/Tensordot/ReadVariableOp/MinusOne5275_const" type="Const" version="opset1">
			<data element_type="i64" offset="15628296" shape="1" size="8"/>
			<output>
				<port id="0" precision="I64">
					<dim>1</dim>
				</port>
			</output>
		</layer>
		<layer id="149" name="StatefulPartitionedCall/model_1/bert/encoder/layer_1/attention/self/value/Tensordot/MatMul/1_port_transpose5041_const" type="Const" version="opset1">
			<data element_type="f32" offset="16617096" shape="128,128" size="65536"/>
			<output>
				<port id="0" names="StatefulPartitionedCall/model_1/bert/encoder/layer_1/attention/self/value/Tensordot/ReadVariableOp:0" precision="FP32">
					<dim>128</dim>
					<dim>128</dim>
				</port>
			</output>
		</layer>
		<layer id="150" name="StatefulPartitionedCall/model_1/bert/encoder/layer_1/attention/self/value/Tensordot/ReadVariableOp/Shape" type="ShapeOf" version="opset3">
			<data output_type="i64"/>
			<input>
				<port id="0">
					<dim>128</dim>
					<dim>128</dim>
				</port>
			</input>
			<output>
				<port id="1" precision="I64">
					<dim>2</dim>
				</port>
			</output>
		</layer>
		<layer id="151" name="StatefulPartitionedCall/model_1/bert/encoder/layer_1/attention/self/value/Tensordot/ReadVariableOp/Shape/Gather/Cast_17987_const" type="Const" version="opset1">
			<data element_type="i32" offset="15693840" shape="1" size="4"/>
			<output>
				<port id="0" precision="I32">
					<dim>1</dim>
				</port>
			</output>
		</layer>
		<layer id="152" name="StatefulPartitionedCall/model_1/bert/encoder/layer_1/attention/self/value/Tensordot/ReadVariableOp/Shape/Gather/Cast_27989_const" type="Const" version="opset1">
			<data element_type="i64" offset="15627264" shape="" size="8"/>
			<output>
				<port id="0" precision="I64"/>
			</output>
		</layer>
		<layer id="153" name="StatefulPartitionedCall/model_1/bert/encoder/layer_1/attention/self/value/Tensordot/ReadVariableOp/Shape/Gather" type="Gather" version="opset1">
			<input>
				<port id="0">
					<dim>2</dim>
				</port>
				<port id="1">
					<dim>1</dim>
				</port>
				<port id="2"/>
			</input>
			<output>
				<port id="3" precision="I64">
					<dim>1</dim>
				</port>
			</output>
		</layer>
		<layer id="154" name="StatefulPartitionedCall/model_1/bert/encoder/layer_1/attention/self/value/Tensordot/ReadVariableOp/MinusOne/shapes_concat" type="Concat" version="opset1">
			<data axis="0"/>
			<input>
				<port id="0">
					<dim>1</dim>
				</port>
				<port id="1">
					<dim>1</dim>
				</port>
			</input>
			<output>
				<port id="2" names="StatefulPartitionedCall/model_1/bert/encoder/layer_1/attention/self/value/Tensordot/Reshape/shape:0" precision="I64">
					<dim>2</dim>
				</port>
			</output>
		</layer>
		<layer id="155" name="StatefulPartitionedCall/model_1/bert/encoder/layer_1/attention/self/value/Tensordot/Reshape" type="Reshape" version="opset1">
			<data special_zero="false"/>
			<input>
				<port id="0">
					<dim>1</dim>
					<dim>128</dim>
					<dim>128</dim>
				</port>
				<port id="1">
					<dim>2</dim>
				</port>
			</input>
			<output>
				<port id="2" names="StatefulPartitionedCall/model_1/bert/encoder/layer_1/attention/self/value/Tensordot/Reshape:0" precision="FP32">
					<dim>128</dim>
					<dim>128</dim>
				</port>
			</output>
		</layer>
		<layer id="156" name="StatefulPartitionedCall/model_1/bert/encoder/layer_1/attention/self/value/Tensordot/MatMul" type="MatMul" version="opset1">
			<data transpose_a="false" transpose_b="true"/>
			<input>
				<port id="0">
					<dim>128</dim>
					<dim>128</dim>
				</port>
				<port id="1">
					<dim>128</dim>
					<dim>128</dim>
				</port>
			</input>
			<output>
				<port id="2" names="StatefulPartitionedCall/model_1/bert/encoder/layer_1/attention/self/value/Tensordot/MatMul:0" precision="FP32">
					<dim>128</dim>
					<dim>128</dim>
				</port>
			</output>
		</layer>
		<layer id="157" name="StatefulPartitionedCall/model_1/bert/encoder/layer_1/attention/self/value/Tensordot/Cast_17975_const" type="Const" version="opset1">
			<data element_type="i64" offset="15693844" shape="3" size="24"/>
			<output>
				<port id="0" names="StatefulPartitionedCall/model_1/bert/encoder/layer_1/attention/self/value/Tensordot/shape:0" precision="I64">
					<dim>3</dim>
				</port>
			</output>
		</layer>
		<layer id="158" name="StatefulPartitionedCall/model_1/bert/encoder/layer_1/attention/self/value/Tensordot" type="Reshape" version="opset1">
			<data special_zero="false"/>
			<input>
				<port id="0">
					<dim>128</dim>
					<dim>128</dim>
				</port>
				<port id="1">
					<dim>3</dim>
				</port>
			</input>
			<output>
				<port id="2" names="StatefulPartitionedCall/model_1/bert/encoder/layer_1/attention/self/value/Tensordot:0" precision="FP32">
					<dim>1</dim>
					<dim>128</dim>
					<dim>128</dim>
				</port>
			</output>
		</layer>
		<layer id="159" name="StatefulPartitionedCall/model_1/bert/encoder/layer_1/attention/self/value/BiasAdd/ReadVariableOp/EltwiseUnsqueeze3373_const" type="Const" version="opset1">
			<data element_type="f32" offset="16682632" shape="1,1,128" size="512"/>
			<output>
				<port id="0" names="StatefulPartitionedCall/model_1/bert/encoder/layer_1/attention/self/value/BiasAdd/ReadVariableOp:0" precision="FP32">
					<dim>1</dim>
					<dim>1</dim>
					<dim>128</dim>
				</port>
			</output>
		</layer>
		<layer id="160" name="StatefulPartitionedCall/model_1/bert/encoder/layer_1/attention/self/value/BiasAdd/Add" type="Add" version="opset1">
			<data auto_broadcast="numpy"/>
			<input>
				<port id="0">
					<dim>1</dim>
					<dim>128</dim>
					<dim>128</dim>
				</port>
				<port id="1">
					<dim>1</dim>
					<dim>1</dim>
					<dim>128</dim>
				</port>
			</input>
			<output>
				<port id="2" names="StatefulPartitionedCall/model_1/bert/encoder/layer_1/attention/self/value/BiasAdd:0" precision="FP32">
					<dim>1</dim>
					<dim>128</dim>
					<dim>128</dim>
				</port>
			</output>
		</layer>
		<layer id="161" name="StatefulPartitionedCall/model_1/bert/encoder/layer_1/attention/self/Reshape_2/Cast_17943_const" type="Const" version="opset1">
			<data element_type="i64" offset="15694380" shape="4" size="32"/>
			<output>
				<port id="0" names="StatefulPartitionedCall/model_1/bert/encoder/layer_1/attention/self/Reshape_2/shape:0" precision="I64">
					<dim>4</dim>
				</port>
			</output>
		</layer>
		<layer id="162" name="StatefulPartitionedCall/model_1/bert/encoder/layer_1/attention/self/Reshape_2" type="Reshape" version="opset1">
			<data special_zero="false"/>
			<input>
				<port id="0">
					<dim>1</dim>
					<dim>128</dim>
					<dim>128</dim>
				</port>
				<port id="1">
					<dim>4</dim>
				</port>
			</input>
			<output>
				<port id="2" names="StatefulPartitionedCall/model_1/bert/encoder/layer_1/attention/self/Reshape_2:0" precision="FP32">
					<dim>1</dim>
					<dim>128</dim>
					<dim>1</dim>
					<dim>128</dim>
				</port>
			</output>
		</layer>
		<layer id="163" name="StatefulPartitionedCall/model_1/bert/encoder/layer_1/attention/self/transpose_2/Cast_17883_const" type="Const" version="opset1">
			<data element_type="i64" offset="15694412" shape="4" size="32"/>
			<output>
				<port id="0" names="StatefulPartitionedCall/model_1/bert/encoder/layer_1/attention/self/transpose_2/perm:0" precision="I64">
					<dim>4</dim>
				</port>
			</output>
		</layer>
		<layer id="164" name="StatefulPartitionedCall/model_1/bert/encoder/layer_1/attention/self/transpose_2" type="Transpose" version="opset1">
			<input>
				<port id="0">
					<dim>1</dim>
					<dim>128</dim>
					<dim>1</dim>
					<dim>128</dim>
				</port>
				<port id="1">
					<dim>4</dim>
				</port>
			</input>
			<output>
				<port id="2" names="StatefulPartitionedCall/model_1/bert/encoder/layer_1/attention/self/transpose_2:0" precision="FP32">
					<dim>1</dim>
					<dim>1</dim>
					<dim>128</dim>
					<dim>128</dim>
				</port>
			</output>
		</layer>
		<layer id="165" name="StatefulPartitionedCall/model_1/bert/encoder/layer_1/attention/self/MatMul_1" type="MatMul" version="opset1">
			<data transpose_a="false" transpose_b="false"/>
			<input>
				<port id="0">
					<dim>1</dim>
					<dim>1</dim>
					<dim>128</dim>
					<dim>128</dim>
				</port>
				<port id="1">
					<dim>1</dim>
					<dim>1</dim>
					<dim>128</dim>
					<dim>128</dim>
				</port>
			</input>
			<output>
				<port id="2" names="StatefulPartitionedCall/model_1/bert/encoder/layer_1/attention/self/MatMul_1:0" precision="FP32">
					<dim>1</dim>
					<dim>1</dim>
					<dim>128</dim>
					<dim>128</dim>
				</port>
			</output>
		</layer>
		<layer id="166" name="StatefulPartitionedCall/model_1/bert/encoder/layer_1/attention/self/transpose_3/Cast_17919_const" type="Const" version="opset1">
			<data element_type="i64" offset="15694412" shape="4" size="32"/>
			<output>
				<port id="0" names="StatefulPartitionedCall/model_1/bert/encoder/layer_1/attention/self/transpose_3/perm:0" precision="I64">
					<dim>4</dim>
				</port>
			</output>
		</layer>
		<layer id="167" name="StatefulPartitionedCall/model_1/bert/encoder/layer_1/attention/self/transpose_3" type="Transpose" version="opset1">
			<input>
				<port id="0">
					<dim>1</dim>
					<dim>1</dim>
					<dim>128</dim>
					<dim>128</dim>
				</port>
				<port id="1">
					<dim>4</dim>
				</port>
			</input>
			<output>
				<port id="2" names="StatefulPartitionedCall/model_1/bert/encoder/layer_1/attention/self/Reshape_3:0,StatefulPartitionedCall/model_1/bert/encoder/layer_1/attention/self/transpose_3:0" precision="FP32">
					<dim>1</dim>
					<dim>128</dim>
					<dim>1</dim>
					<dim>128</dim>
				</port>
			</output>
		</layer>
		<layer id="168" name="StatefulPartitionedCall/model_1/bert/encoder/layer_1/attention/output/dense/Tensordot/ReadVariableOp/MinusOne5167_const" type="Const" version="opset1">
			<data element_type="i64" offset="15628296" shape="1" size="8"/>
			<output>
				<port id="0" precision="I64">
					<dim>1</dim>
				</port>
			</output>
		</layer>
		<layer id="169" name="StatefulPartitionedCall/model_1/bert/encoder/layer_1/attention/output/dense/Tensordot/MatMul/1_port_transpose5049_const" type="Const" version="opset1">
			<data element_type="f32" offset="16683144" shape="128,128" size="65536"/>
			<output>
				<port id="0" names="StatefulPartitionedCall/model_1/bert/encoder/layer_1/attention/output/dense/Tensordot/ReadVariableOp:0" precision="FP32">
					<dim>128</dim>
					<dim>128</dim>
				</port>
			</output>
		</layer>
		<layer id="170" name="StatefulPartitionedCall/model_1/bert/encoder/layer_1/attention/output/dense/Tensordot/ReadVariableOp/Shape" type="ShapeOf" version="opset3">
			<data output_type="i64"/>
			<input>
				<port id="0">
					<dim>128</dim>
					<dim>128</dim>
				</port>
			</input>
			<output>
				<port id="1" precision="I64">
					<dim>2</dim>
				</port>
			</output>
		</layer>
		<layer id="171" name="StatefulPartitionedCall/model_1/bert/encoder/layer_1/attention/output/dense/Tensordot/ReadVariableOp/Shape/Gather/Cast_17963_const" type="Const" version="opset1">
			<data element_type="i32" offset="15693840" shape="1" size="4"/>
			<output>
				<port id="0" precision="I32">
					<dim>1</dim>
				</port>
			</output>
		</layer>
		<layer id="172" name="StatefulPartitionedCall/model_1/bert/encoder/layer_1/attention/output/dense/Tensordot/ReadVariableOp/Shape/Gather/Cast_27965_const" type="Const" version="opset1">
			<data element_type="i64" offset="15627264" shape="" size="8"/>
			<output>
				<port id="0" precision="I64"/>
			</output>
		</layer>
		<layer id="173" name="StatefulPartitionedCall/model_1/bert/encoder/layer_1/attention/output/dense/Tensordot/ReadVariableOp/Shape/Gather" type="Gather" version="opset1">
			<input>
				<port id="0">
					<dim>2</dim>
				</port>
				<port id="1">
					<dim>1</dim>
				</port>
				<port id="2"/>
			</input>
			<output>
				<port id="3" precision="I64">
					<dim>1</dim>
				</port>
			</output>
		</layer>
		<layer id="174" name="StatefulPartitionedCall/model_1/bert/encoder/layer_1/attention/output/dense/Tensordot/ReadVariableOp/MinusOne/shapes_concat" type="Concat" version="opset1">
			<data axis="0"/>
			<input>
				<port id="0">
					<dim>1</dim>
				</port>
				<port id="1">
					<dim>1</dim>
				</port>
			</input>
			<output>
				<port id="2" names="StatefulPartitionedCall/model_1/bert/encoder/layer_1/attention/output/dense/Tensordot/Reshape/shape:0" precision="I64">
					<dim>2</dim>
				</port>
			</output>
		</layer>
		<layer id="175" name="StatefulPartitionedCall/model_1/bert/encoder/layer_1/attention/output/dense/Tensordot/Reshape" type="Reshape" version="opset1">
			<data special_zero="false"/>
			<input>
				<port id="0">
					<dim>1</dim>
					<dim>128</dim>
					<dim>1</dim>
					<dim>128</dim>
				</port>
				<port id="1">
					<dim>2</dim>
				</port>
			</input>
			<output>
				<port id="2" names="StatefulPartitionedCall/model_1/bert/encoder/layer_1/attention/output/dense/Tensordot/Reshape:0" precision="FP32">
					<dim>128</dim>
					<dim>128</dim>
				</port>
			</output>
		</layer>
		<layer id="176" name="StatefulPartitionedCall/model_1/bert/encoder/layer_1/attention/output/dense/Tensordot/MatMul" type="MatMul" version="opset1">
			<data transpose_a="false" transpose_b="true"/>
			<input>
				<port id="0">
					<dim>128</dim>
					<dim>128</dim>
				</port>
				<port id="1">
					<dim>128</dim>
					<dim>128</dim>
				</port>
			</input>
			<output>
				<port id="2" names="StatefulPartitionedCall/model_1/bert/encoder/layer_1/attention/output/dense/Tensordot/MatMul:0" precision="FP32">
					<dim>128</dim>
					<dim>128</dim>
				</port>
			</output>
		</layer>
		<layer id="177" name="StatefulPartitionedCall/model_1/bert/encoder/layer_1/attention/output/dense/Tensordot/Cast_17991_const" type="Const" version="opset1">
			<data element_type="i64" offset="15693844" shape="3" size="24"/>
			<output>
				<port id="0" names="StatefulPartitionedCall/model_1/bert/encoder/layer_1/attention/output/dense/Tensordot/shape:0" precision="I64">
					<dim>3</dim>
				</port>
			</output>
		</layer>
		<layer id="178" name="StatefulPartitionedCall/model_1/bert/encoder/layer_1/attention/output/dense/Tensordot" type="Reshape" version="opset1">
			<data special_zero="false"/>
			<input>
				<port id="0">
					<dim>128</dim>
					<dim>128</dim>
				</port>
				<port id="1">
					<dim>3</dim>
				</port>
			</input>
			<output>
				<port id="2" names="StatefulPartitionedCall/model_1/bert/encoder/layer_1/attention/output/dense/Tensordot:0" precision="FP32">
					<dim>1</dim>
					<dim>128</dim>
					<dim>128</dim>
				</port>
			</output>
		</layer>
		<layer id="179" name="StatefulPartitionedCall/model_1/bert/encoder/layer_1/attention/output/dense/BiasAdd/ReadVariableOp/EltwiseUnsqueeze3389_const" type="Const" version="opset1">
			<data element_type="f32" offset="16748680" shape="1,1,128" size="512"/>
			<output>
				<port id="0" names="StatefulPartitionedCall/model_1/bert/encoder/layer_1/attention/output/dense/BiasAdd/ReadVariableOp:0" precision="FP32">
					<dim>1</dim>
					<dim>1</dim>
					<dim>128</dim>
				</port>
			</output>
		</layer>
		<layer id="180" name="StatefulPartitionedCall/model_1/bert/encoder/layer_1/attention/output/dense/BiasAdd/Add" type="Add" version="opset1">
			<data auto_broadcast="numpy"/>
			<input>
				<port id="0">
					<dim>1</dim>
					<dim>128</dim>
					<dim>128</dim>
				</port>
				<port id="1">
					<dim>1</dim>
					<dim>1</dim>
					<dim>128</dim>
				</port>
			</input>
			<output>
				<port id="2" names="StatefulPartitionedCall/model_1/bert/encoder/layer_1/attention/output/dropout_5/Identity:0,StatefulPartitionedCall/model_1/bert/encoder/layer_1/attention/output/dense/BiasAdd:0" precision="FP32">
					<dim>1</dim>
					<dim>128</dim>
					<dim>128</dim>
				</port>
			</output>
		</layer>
		<layer id="181" name="StatefulPartitionedCall/model_1/bert/encoder/layer_1/intermediate/Tensordot/ReadVariableOp/MinusOne5191_const" type="Const" version="opset1">
			<data element_type="i64" offset="15628296" shape="1" size="8"/>
			<output>
				<port id="0" precision="I64">
					<dim>1</dim>
				</port>
			</output>
		</layer>
		<layer id="182" name="StatefulPartitionedCall/model_1/bert/encoder/layer_1/intermediate/Tensordot/MatMul/1_port_transpose5017_const" type="Const" version="opset1">
			<data element_type="f32" offset="16749192" shape="512,128" size="262144"/>
			<output>
				<port id="0" names="StatefulPartitionedCall/model_1/bert/encoder/layer_1/intermediate/Tensordot/ReadVariableOp:0" precision="FP32">
					<dim>512</dim>
					<dim>128</dim>
				</port>
			</output>
		</layer>
		<layer id="183" name="StatefulPartitionedCall/model_1/bert/encoder/layer_1/intermediate/Tensordot/ReadVariableOp/Shape" type="ShapeOf" version="opset3">
			<data output_type="i64"/>
			<input>
				<port id="0">
					<dim>512</dim>
					<dim>128</dim>
				</port>
			</input>
			<output>
				<port id="1" precision="I64">
					<dim>2</dim>
				</port>
			</output>
		</layer>
		<layer id="184" name="StatefulPartitionedCall/model_1/bert/encoder/layer_1/intermediate/Tensordot/ReadVariableOp/Shape/Gather/Cast_18001_const" type="Const" version="opset1">
			<data element_type="i32" offset="15693840" shape="1" size="4"/>
			<output>
				<port id="0" precision="I32">
					<dim>1</dim>
				</port>
			</output>
		</layer>
		<layer id="185" name="StatefulPartitionedCall/model_1/bert/encoder/layer_1/intermediate/Tensordot/ReadVariableOp/Shape/Gather/Cast_28003_const" type="Const" version="opset1">
			<data element_type="i64" offset="15627264" shape="" size="8"/>
			<output>
				<port id="0" precision="I64"/>
			</output>
		</layer>
		<layer id="186" name="StatefulPartitionedCall/model_1/bert/encoder/layer_1/intermediate/Tensordot/ReadVariableOp/Shape/Gather" type="Gather" version="opset1">
			<input>
				<port id="0">
					<dim>2</dim>
				</port>
				<port id="1">
					<dim>1</dim>
				</port>
				<port id="2"/>
			</input>
			<output>
				<port id="3" precision="I64">
					<dim>1</dim>
				</port>
			</output>
		</layer>
		<layer id="187" name="StatefulPartitionedCall/model_1/bert/encoder/layer_1/intermediate/Tensordot/ReadVariableOp/MinusOne/shapes_concat" type="Concat" version="opset1">
			<data axis="0"/>
			<input>
				<port id="0">
					<dim>1</dim>
				</port>
				<port id="1">
					<dim>1</dim>
				</port>
			</input>
			<output>
				<port id="2" names="StatefulPartitionedCall/model_1/bert/encoder/layer_1/intermediate/Tensordot/Reshape/shape:0" precision="I64">
					<dim>2</dim>
				</port>
			</output>
		</layer>
		<layer id="188" name="StatefulPartitionedCall/model_1/bert/encoder/layer_1/intermediate/Tensordot/Reshape" type="Reshape" version="opset1">
			<data special_zero="false"/>
			<input>
				<port id="0">
					<dim>1</dim>
					<dim>128</dim>
					<dim>128</dim>
				</port>
				<port id="1">
					<dim>2</dim>
				</port>
			</input>
			<output>
				<port id="2" names="StatefulPartitionedCall/model_1/bert/encoder/layer_1/intermediate/Tensordot/Reshape:0" precision="FP32">
					<dim>128</dim>
					<dim>128</dim>
				</port>
			</output>
		</layer>
		<layer id="189" name="StatefulPartitionedCall/model_1/bert/encoder/layer_1/intermediate/Tensordot/MatMul" type="MatMul" version="opset1">
			<data transpose_a="false" transpose_b="true"/>
			<input>
				<port id="0">
					<dim>128</dim>
					<dim>128</dim>
				</port>
				<port id="1">
					<dim>512</dim>
					<dim>128</dim>
				</port>
			</input>
			<output>
				<port id="2" names="StatefulPartitionedCall/model_1/bert/encoder/layer_1/intermediate/Tensordot/MatMul:0" precision="FP32">
					<dim>128</dim>
					<dim>512</dim>
				</port>
			</output>
		</layer>
		<layer id="190" name="StatefulPartitionedCall/model_1/bert/encoder/layer_1/intermediate/Tensordot/Cast_17993_const" type="Const" version="opset1">
			<data element_type="i64" offset="16220272" shape="3" size="24"/>
			<output>
				<port id="0" names="StatefulPartitionedCall/model_1/bert/encoder/layer_1/intermediate/Tensordot/shape:0" precision="I64">
					<dim>3</dim>
				</port>
			</output>
		</layer>
		<layer id="191" name="StatefulPartitionedCall/model_1/bert/encoder/layer_1/intermediate/Tensordot" type="Reshape" version="opset1">
			<data special_zero="false"/>
			<input>
				<port id="0">
					<dim>128</dim>
					<dim>512</dim>
				</port>
				<port id="1">
					<dim>3</dim>
				</port>
			</input>
			<output>
				<port id="2" names="StatefulPartitionedCall/model_1/bert/encoder/layer_1/intermediate/Tensordot:0" precision="FP32">
					<dim>1</dim>
					<dim>128</dim>
					<dim>512</dim>
				</port>
			</output>
		</layer>
		<layer id="192" name="StatefulPartitionedCall/model_1/bert/encoder/layer_1/intermediate/BiasAdd/ReadVariableOp/EltwiseUnsqueeze3369_const" type="Const" version="opset1">
			<data element_type="f32" offset="17011336" shape="1,1,512" size="2048"/>
			<output>
				<port id="0" names="StatefulPartitionedCall/model_1/bert/encoder/layer_1/intermediate/BiasAdd/ReadVariableOp:0" precision="FP32">
					<dim>1</dim>
					<dim>1</dim>
					<dim>512</dim>
				</port>
			</output>
		</layer>
		<layer id="193" name="StatefulPartitionedCall/model_1/bert/encoder/layer_1/intermediate/BiasAdd/Add" type="Add" version="opset1">
			<data auto_broadcast="numpy"/>
			<input>
				<port id="0">
					<dim>1</dim>
					<dim>128</dim>
					<dim>512</dim>
				</port>
				<port id="1">
					<dim>1</dim>
					<dim>1</dim>
					<dim>512</dim>
				</port>
			</input>
			<output>
				<port id="2" names="StatefulPartitionedCall/model_1/bert/encoder/layer_1/intermediate/BiasAdd:0" precision="FP32">
					<dim>1</dim>
					<dim>128</dim>
					<dim>512</dim>
				</port>
			</output>
		</layer>
		<layer id="194" name="StatefulPartitionedCall/model_1/bert/encoder/layer_1/intermediate/BiasAdd/GELU_" type="Gelu" version="opset2">
			<input>
				<port id="0">
					<dim>1</dim>
					<dim>128</dim>
					<dim>512</dim>
				</port>
			</input>
			<output>
				<port id="1" names="StatefulPartitionedCall/model_1/bert/encoder/layer_1/intermediate/mul_3:0" precision="FP32">
					<dim>1</dim>
					<dim>128</dim>
					<dim>512</dim>
				</port>
			</output>
		</layer>
		<layer id="195" name="StatefulPartitionedCall/model_1/bert/encoder/layer_1/output/dense/Tensordot/ReadVariableOp/MinusOne5251_const" type="Const" version="opset1">
			<data element_type="i64" offset="15628296" shape="1" size="8"/>
			<output>
				<port id="0" precision="I64">
					<dim>1</dim>
				</port>
			</output>
		</layer>
		<layer id="196" name="StatefulPartitionedCall/model_1/bert/encoder/layer_1/output/dense/Tensordot/MatMul/1_port_transpose5057_const" type="Const" version="opset1">
			<data element_type="f32" offset="17013384" shape="128,512" size="262144"/>
			<output>
				<port id="0" names="StatefulPartitionedCall/model_1/bert/encoder/layer_1/output/dense/Tensordot/ReadVariableOp:0" precision="FP32">
					<dim>128</dim>
					<dim>512</dim>
				</port>
			</output>
		</layer>
		<layer id="197" name="StatefulPartitionedCall/model_1/bert/encoder/layer_1/output/dense/Tensordot/ReadVariableOp/Shape" type="ShapeOf" version="opset3">
			<data output_type="i64"/>
			<input>
				<port id="0">
					<dim>128</dim>
					<dim>512</dim>
				</port>
			</input>
			<output>
				<port id="1" precision="I64">
					<dim>2</dim>
				</port>
			</output>
		</layer>
		<layer id="198" name="StatefulPartitionedCall/model_1/bert/encoder/layer_1/output/dense/Tensordot/ReadVariableOp/Shape/Gather/Cast_17923_const" type="Const" version="opset1">
			<data element_type="i32" offset="15693840" shape="1" size="4"/>
			<output>
				<port id="0" precision="I32">
					<dim>1</dim>
				</port>
			</output>
		</layer>
		<layer id="199" name="StatefulPartitionedCall/model_1/bert/encoder/layer_1/output/dense/Tensordot/ReadVariableOp/Shape/Gather/Cast_27925_const" type="Const" version="opset1">
			<data element_type="i64" offset="15627264" shape="" size="8"/>
			<output>
				<port id="0" precision="I64"/>
			</output>
		</layer>
		<layer id="200" name="StatefulPartitionedCall/model_1/bert/encoder/layer_1/output/dense/Tensordot/ReadVariableOp/Shape/Gather" type="Gather" version="opset1">
			<input>
				<port id="0">
					<dim>2</dim>
				</port>
				<port id="1">
					<dim>1</dim>
				</port>
				<port id="2"/>
			</input>
			<output>
				<port id="3" precision="I64">
					<dim>1</dim>
				</port>
			</output>
		</layer>
		<layer id="201" name="StatefulPartitionedCall/model_1/bert/encoder/layer_1/output/dense/Tensordot/ReadVariableOp/MinusOne/shapes_concat" type="Concat" version="opset1">
			<data axis="0"/>
			<input>
				<port id="0">
					<dim>1</dim>
				</port>
				<port id="1">
					<dim>1</dim>
				</port>
			</input>
			<output>
				<port id="2" names="StatefulPartitionedCall/model_1/bert/encoder/layer_1/output/dense/Tensordot/Reshape/shape:0" precision="I64">
					<dim>2</dim>
				</port>
			</output>
		</layer>
		<layer id="202" name="StatefulPartitionedCall/model_1/bert/encoder/layer_1/output/dense/Tensordot/Reshape" type="Reshape" version="opset1">
			<data special_zero="false"/>
			<input>
				<port id="0">
					<dim>1</dim>
					<dim>128</dim>
					<dim>512</dim>
				</port>
				<port id="1">
					<dim>2</dim>
				</port>
			</input>
			<output>
				<port id="2" names="StatefulPartitionedCall/model_1/bert/encoder/layer_1/output/dense/Tensordot/Reshape:0" precision="FP32">
					<dim>128</dim>
					<dim>512</dim>
				</port>
			</output>
		</layer>
		<layer id="203" name="StatefulPartitionedCall/model_1/bert/encoder/layer_1/output/dense/Tensordot/MatMul" type="MatMul" version="opset1">
			<data transpose_a="false" transpose_b="true"/>
			<input>
				<port id="0">
					<dim>128</dim>
					<dim>512</dim>
				</port>
				<port id="1">
					<dim>128</dim>
					<dim>512</dim>
				</port>
			</input>
			<output>
				<port id="2" names="StatefulPartitionedCall/model_1/bert/encoder/layer_1/output/dense/Tensordot/MatMul:0" precision="FP32">
					<dim>128</dim>
					<dim>128</dim>
				</port>
			</output>
		</layer>
		<layer id="204" name="StatefulPartitionedCall/model_1/bert/encoder/layer_1/output/dense/Tensordot/Cast_17983_const" type="Const" version="opset1">
			<data element_type="i64" offset="15693844" shape="3" size="24"/>
			<output>
				<port id="0" names="StatefulPartitionedCall/model_1/bert/encoder/layer_1/output/dense/Tensordot/shape:0" precision="I64">
					<dim>3</dim>
				</port>
			</output>
		</layer>
		<layer id="205" name="StatefulPartitionedCall/model_1/bert/encoder/layer_1/output/dense/Tensordot" type="Reshape" version="opset1">
			<data special_zero="false"/>
			<input>
				<port id="0">
					<dim>128</dim>
					<dim>128</dim>
				</port>
				<port id="1">
					<dim>3</dim>
				</port>
			</input>
			<output>
				<port id="2" names="StatefulPartitionedCall/model_1/bert/encoder/layer_1/output/dense/Tensordot:0" precision="FP32">
					<dim>1</dim>
					<dim>128</dim>
					<dim>128</dim>
				</port>
			</output>
		</layer>
		<layer id="206" name="StatefulPartitionedCall/model_1/bert/encoder/layer_1/output/dense/BiasAdd/ReadVariableOp/EltwiseUnsqueeze3345_const" type="Const" version="opset1">
			<data element_type="f32" offset="17275528" shape="1,1,128" size="512"/>
			<output>
				<port id="0" names="StatefulPartitionedCall/model_1/bert/encoder/layer_1/output/dense/BiasAdd/ReadVariableOp:0" precision="FP32">
					<dim>1</dim>
					<dim>1</dim>
					<dim>128</dim>
				</port>
			</output>
		</layer>
		<layer id="207" name="StatefulPartitionedCall/model_1/bert/encoder/layer_1/output/dense/BiasAdd/Add" type="Add" version="opset1">
			<data auto_broadcast="numpy"/>
			<input>
				<port id="0">
					<dim>1</dim>
					<dim>128</dim>
					<dim>128</dim>
				</port>
				<port id="1">
					<dim>1</dim>
					<dim>1</dim>
					<dim>128</dim>
				</port>
			</input>
			<output>
				<port id="2" names="StatefulPartitionedCall/model_1/bert/encoder/layer_1/output/dropout_6/Identity:0,StatefulPartitionedCall/model_1/bert/encoder/layer_1/output/dense/BiasAdd:0" precision="FP32">
					<dim>1</dim>
					<dim>128</dim>
					<dim>128</dim>
				</port>
			</output>
		</layer>
		<layer id="208" name="StatefulPartitionedCall/model_1/lambda_1/transpose/Cast_17999_const" type="Const" version="opset1">
			<data element_type="i64" offset="17276040" shape="3" size="24"/>
			<output>
				<port id="0" names="StatefulPartitionedCall/model_1/lambda_1/transpose/perm:0" precision="I64">
					<dim>3</dim>
				</port>
			</output>
		</layer>
		<layer id="209" name="StatefulPartitionedCall/model_1/lambda_1/transpose" type="Transpose" version="opset1">
			<input>
				<port id="0">
					<dim>1</dim>
					<dim>128</dim>
					<dim>128</dim>
				</port>
				<port id="1">
					<dim>3</dim>
				</port>
			</input>
			<output>
				<port id="2" names="StatefulPartitionedCall/model_1/lambda_1/transpose:0" precision="FP32">
					<dim>1</dim>
					<dim>128</dim>
					<dim>128</dim>
				</port>
			</output>
		</layer>
		<layer id="210" name="StatefulPartitionedCall/model_1/tf.slice_1/Slice/Cast_17933_const" type="Const" version="opset1">
			<data element_type="i64" offset="17276064" shape="3" size="24"/>
			<output>
				<port id="0" precision="I64">
					<dim>3</dim>
				</port>
			</output>
		</layer>
		<layer id="211" name="StatefulPartitionedCall/model_1/tf.slice_1/Slice/where_max_ends_is_needed/Output_0/Data__const" type="Const" version="opset1">
			<data element_type="boolean" offset="17276088" shape="3" size="3"/>
			<output>
				<port id="0" precision="BOOL">
					<dim>3</dim>
				</port>
			</output>
		</layer>
		<layer id="212" name="StatefulPartitionedCall/model_1/tf.slice_1/Slice/ShapeOf" type="ShapeOf" version="opset3">
			<data output_type="i64"/>
			<input>
				<port id="0">
					<dim>1</dim>
					<dim>128</dim>
					<dim>128</dim>
				</port>
			</input>
			<output>
				<port id="1" precision="I64">
					<dim>3</dim>
				</port>
			</output>
		</layer>
		<layer id="213" name="StatefulPartitionedCall/model_1/tf.slice_1/Slice/CastToI64/Output_0/Data__const" type="Const" version="opset1">
			<data element_type="i64" offset="17276091" shape="3" size="24"/>
			<output>
				<port id="0" precision="I64">
					<dim>3</dim>
				</port>
			</output>
		</layer>
		<layer id="214" name="StatefulPartitionedCall/model_1/tf.slice_1/Slice/chosen_ends" type="Select" version="opset1">
			<data auto_broadcast="numpy"/>
			<input>
				<port id="0">
					<dim>3</dim>
				</port>
				<port id="1">
					<dim>3</dim>
				</port>
				<port id="2">
					<dim>3</dim>
				</port>
			</input>
			<output>
				<port id="3" precision="I64">
					<dim>3</dim>
				</port>
			</output>
		</layer>
		<layer id="215" name="StatefulPartitionedCall/model_1/tf.slice_1/Slice/Clamp2267" type="Clamp" version="opset1">
			<data max="2147483647" min="-2147483648"/>
			<input>
				<port id="0">
					<dim>3</dim>
				</port>
			</input>
			<output>
				<port id="1" precision="I64">
					<dim>3</dim>
				</port>
			</output>
		</layer>
		<layer id="216" name="StatefulPartitionedCall/model_1/tf.slice_1/Slice/Gather2275/Cast_17995_const" type="Const" version="opset1">
			<data element_type="i32" offset="17276115" shape="1" size="4"/>
			<output>
				<port id="0" precision="I32">
					<dim>1</dim>
				</port>
			</output>
		</layer>
		<layer id="217" name="StatefulPartitionedCall/model_1/tf.slice_1/Slice/Gather2275/Cast_27997_const" type="Const" version="opset1">
			<data element_type="i64" offset="15627264" shape="" size="8"/>
			<output>
				<port id="0" precision="I64"/>
			</output>
		</layer>
		<layer id="218" name="StatefulPartitionedCall/model_1/tf.slice_1/Slice/Gather2275" type="Gather" version="opset1">
			<input>
				<port id="0">
					<dim>3</dim>
				</port>
				<port id="1">
					<dim>1</dim>
				</port>
				<port id="2"/>
			</input>
			<output>
				<port id="3" precision="I64">
					<dim>1</dim>
				</port>
			</output>
		</layer>
		<layer id="219" name="StatefulPartitionedCall/model_1/tf.slice_1/Slice/Gather2282/Cast_17939_const" type="Const" version="opset1">
			<data element_type="i32" offset="15693840" shape="1" size="4"/>
			<output>
				<port id="0" precision="I32">
					<dim>1</dim>
				</port>
			</output>
		</layer>
		<layer id="220" name="StatefulPartitionedCall/model_1/tf.slice_1/Slice/Gather2282/Cast_27941_const" type="Const" version="opset1">
			<data element_type="i64" offset="15627264" shape="" size="8"/>
			<output>
				<port id="0" precision="I64"/>
			</output>
		</layer>
		<layer id="221" name="StatefulPartitionedCall/model_1/tf.slice_1/Slice/Gather2282" type="Gather" version="opset1">
			<input>
				<port id="0">
					<dim>3</dim>
				</port>
				<port id="1">
					<dim>1</dim>
				</port>
				<port id="2"/>
			</input>
			<output>
				<port id="3" precision="I64">
					<dim>1</dim>
				</port>
			</output>
		</layer>
		<layer id="222" name="StatefulPartitionedCall/model_1/tf.slice_1/Slice/Gather2288/Cast_17865_const" type="Const" version="opset1">
			<data element_type="i32" offset="17276119" shape="1" size="4"/>
			<output>
				<port id="0" precision="I32">
					<dim>1</dim>
				</port>
			</output>
		</layer>
		<layer id="223" name="StatefulPartitionedCall/model_1/tf.slice_1/Slice/Gather2288/Cast_27867_const" type="Const" version="opset1">
			<data element_type="i64" offset="15627264" shape="" size="8"/>
			<output>
				<port id="0" precision="I64"/>
			</output>
		</layer>
		<layer id="224" name="StatefulPartitionedCall/model_1/tf.slice_1/Slice/Gather2288" type="Gather" version="opset1">
			<input>
				<port id="0">
					<dim>3</dim>
				</port>
				<port id="1">
					<dim>1</dim>
				</port>
				<port id="2"/>
			</input>
			<output>
				<port id="3" precision="I64">
					<dim>1</dim>
				</port>
			</output>
		</layer>
		<layer id="225" name="StatefulPartitionedCall/model_1/tf.slice_1/Slice/End" type="Concat" version="opset1">
			<data axis="0"/>
			<input>
				<port id="0">
					<dim>1</dim>
				</port>
				<port id="1">
					<dim>1</dim>
				</port>
				<port id="2">
					<dim>1</dim>
				</port>
			</input>
			<output>
				<port id="3" precision="I64">
					<dim>3</dim>
				</port>
			</output>
		</layer>
		<layer id="226" name="StatefulPartitionedCall/model_1/tf.slice_1/Slice/Cast_37937_const" type="Const" version="opset1">
			<data element_type="i64" offset="17276123" shape="3" size="24"/>
			<output>
				<port id="0" precision="I64">
					<dim>3</dim>
				</port>
			</output>
		</layer>
		<layer id="227" name="StatefulPartitionedCall/model_1/tf.slice_1/Slice" type="StridedSlice" version="opset1">
			<data begin_mask="0,0,0" ellipsis_mask="0,0,0" end_mask="0,0,0" new_axis_mask="0,0,0" shrink_axis_mask="0,0,0"/>
			<input>
				<port id="0">
					<dim>1</dim>
					<dim>128</dim>
					<dim>128</dim>
				</port>
				<port id="1">
					<dim>3</dim>
				</port>
				<port id="2">
					<dim>3</dim>
				</port>
				<port id="3">
					<dim>3</dim>
				</port>
			</input>
			<output>
				<port id="4" names="StatefulPartitionedCall/model_1/tf.slice_1/Slice:0" precision="FP32">
					<dim>1</dim>
					<dim>128</dim>
					<dim>1</dim>
				</port>
			</output>
		</layer>
		<layer id="228" name="StatefulPartitionedCall/model_1/tf.compat.v1.squeeze_1/Squeeze/Dims/Output_0/Data__const" type="Const" version="opset1">
			<data element_type="i64" offset="17276147" shape="1" size="8"/>
			<output>
				<port id="0" precision="I64">
					<dim>1</dim>
				</port>
			</output>
		</layer>
		<layer id="229" name="StatefulPartitionedCall/model_1/tf.compat.v1.squeeze_1/Squeeze" type="Squeeze" version="opset1">
			<input>
				<port id="0">
					<dim>1</dim>
					<dim>128</dim>
					<dim>1</dim>
				</port>
				<port id="1">
					<dim>1</dim>
				</port>
			</input>
			<output>
				<port id="2" names="StatefulPartitionedCall/model_1/dropout_2/Identity:0,StatefulPartitionedCall/model_1/tf.compat.v1.squeeze_1/Squeeze:0" precision="FP32">
					<dim>1</dim>
					<dim>128</dim>
				</port>
			</output>
		</layer>
		<layer id="230" name="StatefulPartitionedCall/model_1/dense_2/MatMul/1_port_transpose5033_const" type="Const" version="opset1">
			<data element_type="f32" offset="17276155" shape="768,128" size="393216"/>
			<output>
				<port id="0" names="StatefulPartitionedCall/model_1/dense_2/MatMul/ReadVariableOp:0" precision="FP32">
					<dim>768</dim>
					<dim>128</dim>
				</port>
			</output>
		</layer>
		<layer id="231" name="StatefulPartitionedCall/model_1/dense_2/MatMul" type="MatMul" version="opset1">
			<data transpose_a="false" transpose_b="true"/>
			<input>
				<port id="0">
					<dim>1</dim>
					<dim>128</dim>
				</port>
				<port id="1">
					<dim>768</dim>
					<dim>128</dim>
				</port>
			</input>
			<output>
				<port id="2" names="StatefulPartitionedCall/model_1/dense_2/MatMul:0" precision="FP32">
					<dim>1</dim>
					<dim>768</dim>
				</port>
			</output>
		</layer>
		<layer id="232" name="StatefulPartitionedCall/model_1/dense_2/BiasAdd/ReadVariableOp/EltwiseUnsqueeze3341_const" type="Const" version="opset1">
			<data element_type="f32" offset="17669371" shape="1,768" size="3072"/>
			<output>
				<port id="0" names="StatefulPartitionedCall/model_1/dense_2/BiasAdd/ReadVariableOp:0" precision="FP32">
					<dim>1</dim>
					<dim>768</dim>
				</port>
			</output>
		</layer>
		<layer id="233" name="StatefulPartitionedCall/model_1/dense_2/BiasAdd/Add" type="Add" version="opset1">
			<data auto_broadcast="numpy"/>
			<input>
				<port id="0">
					<dim>1</dim>
					<dim>768</dim>
				</port>
				<port id="1">
					<dim>1</dim>
					<dim>768</dim>
				</port>
			</input>
			<output>
				<port id="2" names="StatefulPartitionedCall/model_1/dense_2/BiasAdd:0" precision="FP32">
					<dim>1</dim>
					<dim>768</dim>
				</port>
			</output>
		</layer>
		<layer id="234" name="StatefulPartitionedCall/model_1/dense_2/Relu" type="ReLU" version="opset1">
			<input>
				<port id="0">
					<dim>1</dim>
					<dim>768</dim>
				</port>
			</input>
			<output>
				<port id="1" names="StatefulPartitionedCall/model_1/dropout_3/Identity:0,StatefulPartitionedCall/model_1/dense_2/Relu:0" precision="FP32">
					<dim>1</dim>
					<dim>768</dim>
				</port>
			</output>
		</layer>
		<layer id="235" name="StatefulPartitionedCall/model_1/dense_3/MatMul/1_port_transpose5069_const" type="Const" version="opset1">
			<data element_type="f32" offset="17672443" shape="2,768" size="6144"/>
			<output>
				<port id="0" names="StatefulPartitionedCall/model_1/dense_3/MatMul/ReadVariableOp:0" precision="FP32">
					<dim>2</dim>
					<dim>768</dim>
				</port>
			</output>
		</layer>
		<layer id="236" name="StatefulPartitionedCall/model_1/dense_3/MatMul" type="MatMul" version="opset1">
			<data transpose_a="false" transpose_b="true"/>
			<input>
				<port id="0">
					<dim>1</dim>
					<dim>768</dim>
				</port>
				<port id="1">
					<dim>2</dim>
					<dim>768</dim>
				</port>
			</input>
			<output>
				<port id="2" names="StatefulPartitionedCall/model_1/dense_3/MatMul:0" precision="FP32">
					<dim>1</dim>
					<dim>2</dim>
				</port>
			</output>
		</layer>
		<layer id="237" name="StatefulPartitionedCall/model_1/dense_3/BiasAdd/ReadVariableOp/EltwiseUnsqueeze3393_const" type="Const" version="opset1">
			<data element_type="f32" offset="17678587" shape="1,2" size="8"/>
			<output>
				<port id="0" names="StatefulPartitionedCall/model_1/dense_3/BiasAdd/ReadVariableOp:0" precision="FP32">
					<dim>1</dim>
					<dim>2</dim>
				</port>
			</output>
		</layer>
		<layer id="238" name="StatefulPartitionedCall/model_1/dense_3/BiasAdd/Add" type="Add" version="opset1">
			<data auto_broadcast="numpy"/>
			<input>
				<port id="0">
					<dim>1</dim>
					<dim>2</dim>
				</port>
				<port id="1">
					<dim>1</dim>
					<dim>2</dim>
				</port>
			</input>
			<output>
				<port id="2" names="StatefulPartitionedCall/model_1/dense_3/BiasAdd:0" precision="FP32">
					<dim>1</dim>
					<dim>2</dim>
				</port>
			</output>
		</layer>
		<layer id="239" name="StatefulPartitionedCall/model_1/dense_3/Relu" type="ReLU" version="opset1">
			<input>
				<port id="0">
					<dim>1</dim>
					<dim>2</dim>
				</port>
			</input>
			<output>
				<port id="1" names="Func/StatefulPartitionedCall/output/_34:0,StatefulPartitionedCall/Identity:0,StatefulPartitionedCall/model_1/dense_3/Relu:0" precision="FP32">
					<dim>1</dim>
					<dim>2</dim>
				</port>
			</output>
		</layer>
		<layer id="240" name="Func/StatefulPartitionedCall/output/_34:0" type="Result" version="opset1">
			<input>
				<port id="0">
					<dim>1</dim>
					<dim>2</dim>
				</port>
			</input>
		</layer>
	</layers>
	<edges>
		<edge from-layer="0" from-port="0" to-layer="3" to-port="0"/>
		<edge from-layer="1" from-port="0" to-layer="3" to-port="1"/>
		<edge from-layer="2" from-port="0" to-layer="3" to-port="2"/>
		<edge from-layer="3" from-port="3" to-layer="5" to-port="0"/>
		<edge from-layer="4" from-port="0" to-layer="5" to-port="1"/>
		<edge from-layer="5" from-port="2" to-layer="7" to-port="0"/>
		<edge from-layer="6" from-port="0" to-layer="7" to-port="1"/>
		<edge from-layer="9" from-port="0" to-layer="10" to-port="0"/>
		<edge from-layer="10" from-port="1" to-layer="13" to-port="0"/>
		<edge from-layer="11" from-port="0" to-layer="13" to-port="1"/>
		<edge from-layer="12" from-port="0" to-layer="13" to-port="2"/>
		<edge from-layer="8" from-port="0" to-layer="14" to-port="0"/>
		<edge from-layer="13" from-port="3" to-layer="14" to-port="1"/>
		<edge from-layer="7" from-port="2" to-layer="15" to-port="0"/>
		<edge from-layer="14" from-port="2" to-layer="15" to-port="1"/>
		<edge from-layer="15" from-port="2" to-layer="16" to-port="0"/>
		<edge from-layer="9" from-port="0" to-layer="16" to-port="1"/>
		<edge from-layer="16" from-port="2" to-layer="18" to-port="0"/>
		<edge from-layer="17" from-port="0" to-layer="18" to-port="1"/>
		<edge from-layer="18" from-port="2" to-layer="20" to-port="0"/>
		<edge from-layer="19" from-port="0" to-layer="20" to-port="1"/>
		<edge from-layer="20" from-port="2" to-layer="22" to-port="0"/>
		<edge from-layer="21" from-port="0" to-layer="22" to-port="1"/>
		<edge from-layer="22" from-port="2" to-layer="24" to-port="0"/>
		<edge from-layer="23" from-port="0" to-layer="24" to-port="1"/>
		<edge from-layer="26" from-port="0" to-layer="27" to-port="0"/>
		<edge from-layer="27" from-port="1" to-layer="30" to-port="0"/>
		<edge from-layer="28" from-port="0" to-layer="30" to-port="1"/>
		<edge from-layer="29" from-port="0" to-layer="30" to-port="2"/>
		<edge from-layer="25" from-port="0" to-layer="31" to-port="0"/>
		<edge from-layer="30" from-port="3" to-layer="31" to-port="1"/>
		<edge from-layer="7" from-port="2" to-layer="32" to-port="0"/>
		<edge from-layer="31" from-port="2" to-layer="32" to-port="1"/>
		<edge from-layer="32" from-port="2" to-layer="33" to-port="0"/>
		<edge from-layer="26" from-port="0" to-layer="33" to-port="1"/>
		<edge from-layer="33" from-port="2" to-layer="35" to-port="0"/>
		<edge from-layer="34" from-port="0" to-layer="35" to-port="1"/>
		<edge from-layer="35" from-port="2" to-layer="37" to-port="0"/>
		<edge from-layer="36" from-port="0" to-layer="37" to-port="1"/>
		<edge from-layer="37" from-port="2" to-layer="39" to-port="0"/>
		<edge from-layer="38" from-port="0" to-layer="39" to-port="1"/>
		<edge from-layer="39" from-port="2" to-layer="41" to-port="0"/>
		<edge from-layer="40" from-port="0" to-layer="41" to-port="1"/>
		<edge from-layer="41" from-port="2" to-layer="43" to-port="0"/>
		<edge from-layer="42" from-port="0" to-layer="43" to-port="1"/>
		<edge from-layer="24" from-port="2" to-layer="44" to-port="0"/>
		<edge from-layer="43" from-port="2" to-layer="44" to-port="1"/>
		<edge from-layer="44" from-port="2" to-layer="46" to-port="0"/>
		<edge from-layer="45" from-port="0" to-layer="46" to-port="1"/>
		<edge from-layer="46" from-port="2" to-layer="47" to-port="0"/>
		<edge from-layer="49" from-port="0" to-layer="50" to-port="0"/>
		<edge from-layer="50" from-port="1" to-layer="53" to-port="0"/>
		<edge from-layer="51" from-port="0" to-layer="53" to-port="1"/>
		<edge from-layer="52" from-port="0" to-layer="53" to-port="2"/>
		<edge from-layer="48" from-port="0" to-layer="54" to-port="0"/>
		<edge from-layer="53" from-port="3" to-layer="54" to-port="1"/>
		<edge from-layer="7" from-port="2" to-layer="55" to-port="0"/>
		<edge from-layer="54" from-port="2" to-layer="55" to-port="1"/>
		<edge from-layer="55" from-port="2" to-layer="56" to-port="0"/>
		<edge from-layer="49" from-port="0" to-layer="56" to-port="1"/>
		<edge from-layer="56" from-port="2" to-layer="58" to-port="0"/>
		<edge from-layer="57" from-port="0" to-layer="58" to-port="1"/>
		<edge from-layer="58" from-port="2" to-layer="60" to-port="0"/>
		<edge from-layer="59" from-port="0" to-layer="60" to-port="1"/>
		<edge from-layer="60" from-port="2" to-layer="62" to-port="0"/>
		<edge from-layer="61" from-port="0" to-layer="62" to-port="1"/>
		<edge from-layer="62" from-port="2" to-layer="64" to-port="0"/>
		<edge from-layer="63" from-port="0" to-layer="64" to-port="1"/>
		<edge from-layer="47" from-port="1" to-layer="65" to-port="0"/>
		<edge from-layer="64" from-port="2" to-layer="65" to-port="1"/>
		<edge from-layer="65" from-port="2" to-layer="67" to-port="0"/>
		<edge from-layer="66" from-port="0" to-layer="67" to-port="1"/>
		<edge from-layer="69" from-port="0" to-layer="70" to-port="0"/>
		<edge from-layer="70" from-port="1" to-layer="73" to-port="0"/>
		<edge from-layer="71" from-port="0" to-layer="73" to-port="1"/>
		<edge from-layer="72" from-port="0" to-layer="73" to-port="2"/>
		<edge from-layer="68" from-port="0" to-layer="74" to-port="0"/>
		<edge from-layer="73" from-port="3" to-layer="74" to-port="1"/>
		<edge from-layer="67" from-port="2" to-layer="75" to-port="0"/>
		<edge from-layer="74" from-port="2" to-layer="75" to-port="1"/>
		<edge from-layer="75" from-port="2" to-layer="76" to-port="0"/>
		<edge from-layer="69" from-port="0" to-layer="76" to-port="1"/>
		<edge from-layer="76" from-port="2" to-layer="78" to-port="0"/>
		<edge from-layer="77" from-port="0" to-layer="78" to-port="1"/>
		<edge from-layer="78" from-port="2" to-layer="80" to-port="0"/>
		<edge from-layer="79" from-port="0" to-layer="80" to-port="1"/>
		<edge from-layer="82" from-port="0" to-layer="83" to-port="0"/>
		<edge from-layer="83" from-port="1" to-layer="86" to-port="0"/>
		<edge from-layer="84" from-port="0" to-layer="86" to-port="1"/>
		<edge from-layer="85" from-port="0" to-layer="86" to-port="2"/>
		<edge from-layer="81" from-port="0" to-layer="87" to-port="0"/>
		<edge from-layer="86" from-port="3" to-layer="87" to-port="1"/>
		<edge from-layer="80" from-port="2" to-layer="88" to-port="0"/>
		<edge from-layer="87" from-port="2" to-layer="88" to-port="1"/>
		<edge from-layer="88" from-port="2" to-layer="89" to-port="0"/>
		<edge from-layer="82" from-port="0" to-layer="89" to-port="1"/>
		<edge from-layer="89" from-port="2" to-layer="91" to-port="0"/>
		<edge from-layer="90" from-port="0" to-layer="91" to-port="1"/>
		<edge from-layer="91" from-port="2" to-layer="93" to-port="0"/>
		<edge from-layer="92" from-port="0" to-layer="93" to-port="1"/>
		<edge from-layer="93" from-port="2" to-layer="94" to-port="0"/>
		<edge from-layer="96" from-port="0" to-layer="97" to-port="0"/>
		<edge from-layer="97" from-port="1" to-layer="100" to-port="0"/>
		<edge from-layer="98" from-port="0" to-layer="100" to-port="1"/>
		<edge from-layer="99" from-port="0" to-layer="100" to-port="2"/>
		<edge from-layer="95" from-port="0" to-layer="101" to-port="0"/>
		<edge from-layer="100" from-port="3" to-layer="101" to-port="1"/>
		<edge from-layer="94" from-port="1" to-layer="102" to-port="0"/>
		<edge from-layer="101" from-port="2" to-layer="102" to-port="1"/>
		<edge from-layer="102" from-port="2" to-layer="103" to-port="0"/>
		<edge from-layer="96" from-port="0" to-layer="103" to-port="1"/>
		<edge from-layer="103" from-port="2" to-layer="105" to-port="0"/>
		<edge from-layer="104" from-port="0" to-layer="105" to-port="1"/>
		<edge from-layer="105" from-port="2" to-layer="107" to-port="0"/>
		<edge from-layer="106" from-port="0" to-layer="107" to-port="1"/>
		<edge from-layer="109" from-port="0" to-layer="110" to-port="0"/>
		<edge from-layer="110" from-port="1" to-layer="113" to-port="0"/>
		<edge from-layer="111" from-port="0" to-layer="113" to-port="1"/>
		<edge from-layer="112" from-port="0" to-layer="113" to-port="2"/>
		<edge from-layer="108" from-port="0" to-layer="114" to-port="0"/>
		<edge from-layer="113" from-port="3" to-layer="114" to-port="1"/>
		<edge from-layer="107" from-port="2" to-layer="115" to-port="0"/>
		<edge from-layer="114" from-port="2" to-layer="115" to-port="1"/>
		<edge from-layer="115" from-port="2" to-layer="116" to-port="0"/>
		<edge from-layer="109" from-port="0" to-layer="116" to-port="1"/>
		<edge from-layer="116" from-port="2" to-layer="118" to-port="0"/>
		<edge from-layer="117" from-port="0" to-layer="118" to-port="1"/>
		<edge from-layer="118" from-port="2" to-layer="120" to-port="0"/>
		<edge from-layer="119" from-port="0" to-layer="120" to-port="1"/>
		<edge from-layer="120" from-port="2" to-layer="122" to-port="0"/>
		<edge from-layer="121" from-port="0" to-layer="122" to-port="1"/>
		<edge from-layer="122" from-port="2" to-layer="124" to-port="0"/>
		<edge from-layer="123" from-port="0" to-layer="124" to-port="1"/>
		<edge from-layer="126" from-port="0" to-layer="127" to-port="0"/>
		<edge from-layer="127" from-port="1" to-layer="130" to-port="0"/>
		<edge from-layer="128" from-port="0" to-layer="130" to-port="1"/>
		<edge from-layer="129" from-port="0" to-layer="130" to-port="2"/>
		<edge from-layer="125" from-port="0" to-layer="131" to-port="0"/>
		<edge from-layer="130" from-port="3" to-layer="131" to-port="1"/>
		<edge from-layer="107" from-port="2" to-layer="132" to-port="0"/>
		<edge from-layer="131" from-port="2" to-layer="132" to-port="1"/>
		<edge from-layer="132" from-port="2" to-layer="133" to-port="0"/>
		<edge from-layer="126" from-port="0" to-layer="133" to-port="1"/>
		<edge from-layer="133" from-port="2" to-layer="135" to-port="0"/>
		<edge from-layer="134" from-port="0" to-layer="135" to-port="1"/>
		<edge from-layer="135" from-port="2" to-layer="137" to-port="0"/>
		<edge from-layer="136" from-port="0" to-layer="137" to-port="1"/>
		<edge from-layer="137" from-port="2" to-layer="139" to-port="0"/>
		<edge from-layer="138" from-port="0" to-layer="139" to-port="1"/>
		<edge from-layer="139" from-port="2" to-layer="141" to-port="0"/>
		<edge from-layer="140" from-port="0" to-layer="141" to-port="1"/>
		<edge from-layer="141" from-port="2" to-layer="143" to-port="0"/>
		<edge from-layer="142" from-port="0" to-layer="143" to-port="1"/>
		<edge from-layer="124" from-port="2" to-layer="144" to-port="0"/>
		<edge from-layer="143" from-port="2" to-layer="144" to-port="1"/>
		<edge from-layer="144" from-port="2" to-layer="146" to-port="0"/>
		<edge from-layer="145" from-port="0" to-layer="146" to-port="1"/>
		<edge from-layer="146" from-port="2" to-layer="147" to-port="0"/>
		<edge from-layer="149" from-port="0" to-layer="150" to-port="0"/>
		<edge from-layer="150" from-port="1" to-layer="153" to-port="0"/>
		<edge from-layer="151" from-port="0" to-layer="153" to-port="1"/>
		<edge from-layer="152" from-port="0" to-layer="153" to-port="2"/>
		<edge from-layer="148" from-port="0" to-layer="154" to-port="0"/>
		<edge from-layer="153" from-port="3" to-layer="154" to-port="1"/>
		<edge from-layer="107" from-port="2" to-layer="155" to-port="0"/>
		<edge from-layer="154" from-port="2" to-layer="155" to-port="1"/>
		<edge from-layer="155" from-port="2" to-layer="156" to-port="0"/>
		<edge from-layer="149" from-port="0" to-layer="156" to-port="1"/>
		<edge from-layer="156" from-port="2" to-layer="158" to-port="0"/>
		<edge from-layer="157" from-port="0" to-layer="158" to-port="1"/>
		<edge from-layer="158" from-port="2" to-layer="160" to-port="0"/>
		<edge from-layer="159" from-port="0" to-layer="160" to-port="1"/>
		<edge from-layer="160" from-port="2" to-layer="162" to-port="0"/>
		<edge from-layer="161" from-port="0" to-layer="162" to-port="1"/>
		<edge from-layer="162" from-port="2" to-layer="164" to-port="0"/>
		<edge from-layer="163" from-port="0" to-layer="164" to-port="1"/>
		<edge from-layer="147" from-port="1" to-layer="165" to-port="0"/>
		<edge from-layer="164" from-port="2" to-layer="165" to-port="1"/>
		<edge from-layer="165" from-port="2" to-layer="167" to-port="0"/>
		<edge from-layer="166" from-port="0" to-layer="167" to-port="1"/>
		<edge from-layer="169" from-port="0" to-layer="170" to-port="0"/>
		<edge from-layer="170" from-port="1" to-layer="173" to-port="0"/>
		<edge from-layer="171" from-port="0" to-layer="173" to-port="1"/>
		<edge from-layer="172" from-port="0" to-layer="173" to-port="2"/>
		<edge from-layer="168" from-port="0" to-layer="174" to-port="0"/>
		<edge from-layer="173" from-port="3" to-layer="174" to-port="1"/>
		<edge from-layer="167" from-port="2" to-layer="175" to-port="0"/>
		<edge from-layer="174" from-port="2" to-layer="175" to-port="1"/>
		<edge from-layer="175" from-port="2" to-layer="176" to-port="0"/>
		<edge from-layer="169" from-port="0" to-layer="176" to-port="1"/>
		<edge from-layer="176" from-port="2" to-layer="178" to-port="0"/>
		<edge from-layer="177" from-port="0" to-layer="178" to-port="1"/>
		<edge from-layer="178" from-port="2" to-layer="180" to-port="0"/>
		<edge from-layer="179" from-port="0" to-layer="180" to-port="1"/>
		<edge from-layer="182" from-port="0" to-layer="183" to-port="0"/>
		<edge from-layer="183" from-port="1" to-layer="186" to-port="0"/>
		<edge from-layer="184" from-port="0" to-layer="186" to-port="1"/>
		<edge from-layer="185" from-port="0" to-layer="186" to-port="2"/>
		<edge from-layer="181" from-port="0" to-layer="187" to-port="0"/>
		<edge from-layer="186" from-port="3" to-layer="187" to-port="1"/>
		<edge from-layer="180" from-port="2" to-layer="188" to-port="0"/>
		<edge from-layer="187" from-port="2" to-layer="188" to-port="1"/>
		<edge from-layer="188" from-port="2" to-layer="189" to-port="0"/>
		<edge from-layer="182" from-port="0" to-layer="189" to-port="1"/>
		<edge from-layer="189" from-port="2" to-layer="191" to-port="0"/>
		<edge from-layer="190" from-port="0" to-layer="191" to-port="1"/>
		<edge from-layer="191" from-port="2" to-layer="193" to-port="0"/>
		<edge from-layer="192" from-port="0" to-layer="193" to-port="1"/>
		<edge from-layer="193" from-port="2" to-layer="194" to-port="0"/>
		<edge from-layer="196" from-port="0" to-layer="197" to-port="0"/>
		<edge from-layer="197" from-port="1" to-layer="200" to-port="0"/>
		<edge from-layer="198" from-port="0" to-layer="200" to-port="1"/>
		<edge from-layer="199" from-port="0" to-layer="200" to-port="2"/>
		<edge from-layer="195" from-port="0" to-layer="201" to-port="0"/>
		<edge from-layer="200" from-port="3" to-layer="201" to-port="1"/>
		<edge from-layer="194" from-port="1" to-layer="202" to-port="0"/>
		<edge from-layer="201" from-port="2" to-layer="202" to-port="1"/>
		<edge from-layer="202" from-port="2" to-layer="203" to-port="0"/>
		<edge from-layer="196" from-port="0" to-layer="203" to-port="1"/>
		<edge from-layer="203" from-port="2" to-layer="205" to-port="0"/>
		<edge from-layer="204" from-port="0" to-layer="205" to-port="1"/>
		<edge from-layer="205" from-port="2" to-layer="207" to-port="0"/>
		<edge from-layer="206" from-port="0" to-layer="207" to-port="1"/>
		<edge from-layer="207" from-port="2" to-layer="209" to-port="0"/>
		<edge from-layer="208" from-port="0" to-layer="209" to-port="1"/>
		<edge from-layer="209" from-port="2" to-layer="212" to-port="0"/>
		<edge from-layer="211" from-port="0" to-layer="214" to-port="0"/>
		<edge from-layer="212" from-port="1" to-layer="214" to-port="1"/>
		<edge from-layer="213" from-port="0" to-layer="214" to-port="2"/>
		<edge from-layer="214" from-port="3" to-layer="215" to-port="0"/>
		<edge from-layer="215" from-port="1" to-layer="218" to-port="0"/>
		<edge from-layer="216" from-port="0" to-layer="218" to-port="1"/>
		<edge from-layer="217" from-port="0" to-layer="218" to-port="2"/>
		<edge from-layer="215" from-port="1" to-layer="221" to-port="0"/>
		<edge from-layer="219" from-port="0" to-layer="221" to-port="1"/>
		<edge from-layer="220" from-port="0" to-layer="221" to-port="2"/>
		<edge from-layer="215" from-port="1" to-layer="224" to-port="0"/>
		<edge from-layer="222" from-port="0" to-layer="224" to-port="1"/>
		<edge from-layer="223" from-port="0" to-layer="224" to-port="2"/>
		<edge from-layer="218" from-port="3" to-layer="225" to-port="0"/>
		<edge from-layer="221" from-port="3" to-layer="225" to-port="1"/>
		<edge from-layer="224" from-port="3" to-layer="225" to-port="2"/>
		<edge from-layer="209" from-port="2" to-layer="227" to-port="0"/>
		<edge from-layer="210" from-port="0" to-layer="227" to-port="1"/>
		<edge from-layer="225" from-port="3" to-layer="227" to-port="2"/>
		<edge from-layer="226" from-port="0" to-layer="227" to-port="3"/>
		<edge from-layer="227" from-port="4" to-layer="229" to-port="0"/>
		<edge from-layer="228" from-port="0" to-layer="229" to-port="1"/>
		<edge from-layer="229" from-port="2" to-layer="231" to-port="0"/>
		<edge from-layer="230" from-port="0" to-layer="231" to-port="1"/>
		<edge from-layer="231" from-port="2" to-layer="233" to-port="0"/>
		<edge from-layer="232" from-port="0" to-layer="233" to-port="1"/>
		<edge from-layer="233" from-port="2" to-layer="234" to-port="0"/>
		<edge from-layer="234" from-port="1" to-layer="236" to-port="0"/>
		<edge from-layer="235" from-port="0" to-layer="236" to-port="1"/>
		<edge from-layer="236" from-port="2" to-layer="238" to-port="0"/>
		<edge from-layer="237" from-port="0" to-layer="238" to-port="1"/>
		<edge from-layer="238" from-port="2" to-layer="239" to-port="0"/>
		<edge from-layer="239" from-port="1" to-layer="240" to-port="0"/>
	</edges>
	<meta_data>
		<MO_version value="2021.3.0-2787-60059f2c755-releases/2021/3"/>
		<cli_parameters>
			<data_type value="float"/>
			<disable_nhwc_to_nchw value="False"/>
			<disable_resnet_optimization value="False"/>
			<disable_weights_compression value="False"/>
			<enable_concat_optimization value="False"/>
			<extensions value="DIR"/>
			<framework value="tf"/>
			<freeze_placeholder_with_value value="{}"/>
			<generate_deprecated_IR_V7 value="False"/>
			<input_model_is_text value="False"/>
			<keep_shape_ops value="True"/>
			<log_level value="ERROR"/>
			<mean_scale_values value="{}"/>
			<mean_values value="()"/>
			<model_name value="saved_model"/>
			<output_dir value="DIR"/>
			<placeholder_data_types value="{}"/>
			<progress value="False"/>
			<reverse_input_channels value="False"/>
			<saved_model_dir value="DIR"/>
			<scale_values value="()"/>
			<silent value="False"/>
			<static_shape value="False"/>
			<stream_output value="False"/>
			<unset unset_cli_parameters="batch, disable_fusing, disable_gfusing, finegrain_fusing, input, input_checkpoint, input_meta_graph, input_model, input_shape, move_to_preprocess, output, placeholder_shapes, saved_model_tags, scale, tensorboard_logdir, tensorflow_custom_layer_libraries, tensorflow_custom_operations_config_update, tensorflow_object_detection_api_pipeline_config, tensorflow_use_custom_operations_config, transformations_config"/>
		</cli_parameters>
	</meta_data>
</net>
