<?xml version="1.0" ?>
<net name="saved_model" version="10">
	<layers>
		<layer id="0" name="Func/StatefulPartitionedCall/input/_71/Output_0/Data__const" type="Const" version="opset1">
			<data element_type="f32" offset="0" shape="27730,128" size="14197760"/>
			<output>
				<port id="0" names="Func/StatefulPartitionedCall/input/_71:0" precision="FP32">
					<dim>27730</dim>
					<dim>128</dim>
				</port>
			</output>
		</layer>
		<layer id="1" name="input_2" type="Parameter" version="opset1">
			<data element_type="i32" shape="1,55"/>
			<output>
				<port id="0" names="Func/StatefulPartitionedCall/input/_1:0,input_2:0" precision="I32">
					<dim>1</dim>
					<dim>55</dim>
				</port>
			</output>
		</layer>
		<layer id="2" name="StatefulPartitionedCall/model/embedding_1/embedding_lookup/Cast_240198_const" type="Const" version="opset1">
			<data element_type="i64" offset="14197760" shape="" size="8"/>
			<output>
				<port id="0" names="StatefulPartitionedCall/model/embedding_1/embedding_lookup/axis:0" precision="I64"/>
			</output>
		</layer>
		<layer id="3" name="StatefulPartitionedCall/model/embedding_1/embedding_lookup" type="Gather" version="opset1">
			<input>
				<port id="0">
					<dim>27730</dim>
					<dim>128</dim>
				</port>
				<port id="1">
					<dim>1</dim>
					<dim>55</dim>
				</port>
				<port id="2"/>
			</input>
			<output>
				<port id="3" names="StatefulPartitionedCall/model/embedding_1/embedding_lookup/Identity_1:0,StatefulPartitionedCall/model/embedding_1/embedding_lookup/Identity:0,StatefulPartitionedCall/model/embedding_1/embedding_lookup:0" precision="FP32">
					<dim>1</dim>
					<dim>55</dim>
					<dim>128</dim>
				</port>
			</output>
		</layer>
		<layer id="4" name="Func/StatefulPartitionedCall/input/_72/EltwiseUnsqueeze17218_const" type="Const" version="opset1">
			<data element_type="f32" offset="14197768" shape="1,1,1" size="4"/>
			<output>
				<port id="0" names="Func/StatefulPartitionedCall/input/_72:0" precision="FP32">
					<dim>1</dim>
					<dim>1</dim>
					<dim>1</dim>
				</port>
			</output>
		</layer>
		<layer id="5" name="StatefulPartitionedCall/model/tf.math.multiply_5/Mul" type="Multiply" version="opset1">
			<data auto_broadcast="numpy"/>
			<input>
				<port id="0">
					<dim>1</dim>
					<dim>55</dim>
					<dim>128</dim>
				</port>
				<port id="1">
					<dim>1</dim>
					<dim>1</dim>
					<dim>1</dim>
				</port>
			</input>
			<output>
				<port id="2" names="StatefulPartitionedCall/model/tf.math.multiply_5/Mul:0" precision="FP32">
					<dim>1</dim>
					<dim>55</dim>
					<dim>128</dim>
				</port>
			</output>
		</layer>
		<layer id="6" name="StatefulPartitionedCall/model/tf.strided_slice_1/StridedSlice/Output_0/Data__const" type="Const" version="opset1">
			<data element_type="f32" offset="14197772" shape="1,55,128" size="28160"/>
			<output>
				<port id="0" names="StatefulPartitionedCall/model/tf.strided_slice_1/StridedSlice:0" precision="FP32">
					<dim>1</dim>
					<dim>55</dim>
					<dim>128</dim>
				</port>
			</output>
		</layer>
		<layer id="7" name="StatefulPartitionedCall/model/tf.__operators__.add_13/AddV2" type="Add" version="opset1">
			<data auto_broadcast="numpy"/>
			<input>
				<port id="0">
					<dim>1</dim>
					<dim>55</dim>
					<dim>128</dim>
				</port>
				<port id="1">
					<dim>1</dim>
					<dim>55</dim>
					<dim>128</dim>
				</port>
			</input>
			<output>
				<port id="2" names="StatefulPartitionedCall/model/dropout_9/Identity:0,StatefulPartitionedCall/model/tf.__operators__.add_13/AddV2:0" precision="FP32">
					<dim>1</dim>
					<dim>55</dim>
					<dim>128</dim>
				</port>
			</output>
		</layer>
		<layer id="8" name="StatefulPartitionedCall/model/dense_34/Tensordot/ReadVariableOp/MinusOne26457_const" type="Const" version="opset1">
			<data element_type="i64" offset="14225932" shape="1" size="8"/>
			<output>
				<port id="0" precision="I64">
					<dim>1</dim>
				</port>
			</output>
		</layer>
		<layer id="9" name="StatefulPartitionedCall/model/dense_34/Tensordot/MatMul/1_port_transpose25918_const" type="Const" version="opset1">
			<data element_type="f32" offset="14225940" shape="128,128" size="65536"/>
			<output>
				<port id="0" names="StatefulPartitionedCall/model/dense_34/Tensordot/ReadVariableOp:0" precision="FP32">
					<dim>128</dim>
					<dim>128</dim>
				</port>
			</output>
		</layer>
		<layer id="10" name="StatefulPartitionedCall/model/dense_34/Tensordot/ReadVariableOp/Shape" type="ShapeOf" version="opset3">
			<data output_type="i64"/>
			<input>
				<port id="0">
					<dim>128</dim>
					<dim>128</dim>
				</port>
			</input>
			<output>
				<port id="1" precision="I64">
					<dim>2</dim>
				</port>
			</output>
		</layer>
		<layer id="11" name="StatefulPartitionedCall/model/dense_34/Tensordot/ReadVariableOp/Shape/Gather/Cast_140468_const" type="Const" version="opset1">
			<data element_type="i32" offset="14291476" shape="1" size="4"/>
			<output>
				<port id="0" precision="I32">
					<dim>1</dim>
				</port>
			</output>
		</layer>
		<layer id="12" name="StatefulPartitionedCall/model/dense_34/Tensordot/ReadVariableOp/Shape/Gather/Cast_240470_const" type="Const" version="opset1">
			<data element_type="i64" offset="14197760" shape="" size="8"/>
			<output>
				<port id="0" precision="I64"/>
			</output>
		</layer>
		<layer id="13" name="StatefulPartitionedCall/model/dense_34/Tensordot/ReadVariableOp/Shape/Gather" type="Gather" version="opset1">
			<input>
				<port id="0">
					<dim>2</dim>
				</port>
				<port id="1">
					<dim>1</dim>
				</port>
				<port id="2"/>
			</input>
			<output>
				<port id="3" precision="I64">
					<dim>1</dim>
				</port>
			</output>
		</layer>
		<layer id="14" name="StatefulPartitionedCall/model/dense_34/Tensordot/ReadVariableOp/MinusOne/shapes_concat" type="Concat" version="opset1">
			<data axis="0"/>
			<input>
				<port id="0">
					<dim>1</dim>
				</port>
				<port id="1">
					<dim>1</dim>
				</port>
			</input>
			<output>
				<port id="2" names="StatefulPartitionedCall/model/dense_34/Tensordot/Reshape/shape:0" precision="I64">
					<dim>2</dim>
				</port>
			</output>
		</layer>
		<layer id="15" name="StatefulPartitionedCall/model/dense_34/Tensordot/Reshape" type="Reshape" version="opset1">
			<data special_zero="false"/>
			<input>
				<port id="0">
					<dim>1</dim>
					<dim>55</dim>
					<dim>128</dim>
				</port>
				<port id="1">
					<dim>2</dim>
				</port>
			</input>
			<output>
				<port id="2" names="StatefulPartitionedCall/model/dense_34/Tensordot/Reshape:0" precision="FP32">
					<dim>55</dim>
					<dim>128</dim>
				</port>
			</output>
		</layer>
		<layer id="16" name="StatefulPartitionedCall/model/dense_34/Tensordot/MatMul" type="MatMul" version="opset1">
			<data transpose_a="false" transpose_b="true"/>
			<input>
				<port id="0">
					<dim>55</dim>
					<dim>128</dim>
				</port>
				<port id="1">
					<dim>128</dim>
					<dim>128</dim>
				</port>
			</input>
			<output>
				<port id="2" names="StatefulPartitionedCall/model/dense_34/Tensordot/MatMul:0" precision="FP32">
					<dim>55</dim>
					<dim>128</dim>
				</port>
			</output>
		</layer>
		<layer id="17" name="StatefulPartitionedCall/model/dense_34/Tensordot/Cast_140260_const" type="Const" version="opset1">
			<data element_type="i64" offset="14291480" shape="3" size="24"/>
			<output>
				<port id="0" names="StatefulPartitionedCall/model/dense_34/Tensordot/shape:0" precision="I64">
					<dim>3</dim>
				</port>
			</output>
		</layer>
		<layer id="18" name="StatefulPartitionedCall/model/dense_34/Tensordot" type="Reshape" version="opset1">
			<data special_zero="false"/>
			<input>
				<port id="0">
					<dim>55</dim>
					<dim>128</dim>
				</port>
				<port id="1">
					<dim>3</dim>
				</port>
			</input>
			<output>
				<port id="2" names="StatefulPartitionedCall/model/dense_34/Tensordot:0" precision="FP32">
					<dim>1</dim>
					<dim>55</dim>
					<dim>128</dim>
				</port>
			</output>
		</layer>
		<layer id="19" name="StatefulPartitionedCall/model/dense_34/BiasAdd/ReadVariableOp/EltwiseUnsqueeze17550_const" type="Const" version="opset1">
			<data element_type="f32" offset="14291504" shape="1,1,128" size="512"/>
			<output>
				<port id="0" names="StatefulPartitionedCall/model/dense_34/BiasAdd/ReadVariableOp:0" precision="FP32">
					<dim>1</dim>
					<dim>1</dim>
					<dim>128</dim>
				</port>
			</output>
		</layer>
		<layer id="20" name="StatefulPartitionedCall/model/dense_34/BiasAdd/Add" type="Add" version="opset1">
			<data auto_broadcast="numpy"/>
			<input>
				<port id="0">
					<dim>1</dim>
					<dim>55</dim>
					<dim>128</dim>
				</port>
				<port id="1">
					<dim>1</dim>
					<dim>1</dim>
					<dim>128</dim>
				</port>
			</input>
			<output>
				<port id="2" names="StatefulPartitionedCall/model/dense_34/BiasAdd:0" precision="FP32">
					<dim>1</dim>
					<dim>55</dim>
					<dim>128</dim>
				</port>
			</output>
		</layer>
		<layer id="21" name="StatefulPartitionedCall/model/tf.reshape_16/Reshape/Cast_140142_const" type="Const" version="opset1">
			<data element_type="i64" offset="14292016" shape="4" size="32"/>
			<output>
				<port id="0" names="StatefulPartitionedCall/model/tf.reshape_16/Reshape/shape:0" precision="I64">
					<dim>4</dim>
				</port>
			</output>
		</layer>
		<layer id="22" name="StatefulPartitionedCall/model/tf.reshape_16/Reshape" type="Reshape" version="opset1">
			<data special_zero="false"/>
			<input>
				<port id="0">
					<dim>1</dim>
					<dim>55</dim>
					<dim>128</dim>
				</port>
				<port id="1">
					<dim>4</dim>
				</port>
			</input>
			<output>
				<port id="2" names="StatefulPartitionedCall/model/tf.reshape_16/Reshape:0" precision="FP32">
					<dim>1</dim>
					<dim>55</dim>
					<dim>1</dim>
					<dim>128</dim>
				</port>
			</output>
		</layer>
		<layer id="23" name="StatefulPartitionedCall/model/tf.compat.v1.transpose_16/transpose/Cast_140170_const" type="Const" version="opset1">
			<data element_type="i64" offset="14292048" shape="4" size="32"/>
			<output>
				<port id="0" names="StatefulPartitionedCall/model/tf.compat.v1.transpose_16/transpose/perm:0" precision="I64">
					<dim>4</dim>
				</port>
			</output>
		</layer>
		<layer id="24" name="StatefulPartitionedCall/model/tf.compat.v1.transpose_16/transpose" type="Transpose" version="opset1">
			<input>
				<port id="0">
					<dim>1</dim>
					<dim>55</dim>
					<dim>1</dim>
					<dim>128</dim>
				</port>
				<port id="1">
					<dim>4</dim>
				</port>
			</input>
			<output>
				<port id="2" names="StatefulPartitionedCall/model/tf.compat.v1.transpose_16/transpose:0" precision="FP32">
					<dim>1</dim>
					<dim>1</dim>
					<dim>55</dim>
					<dim>128</dim>
				</port>
			</output>
		</layer>
		<layer id="25" name="StatefulPartitionedCall/model/dense_35/Tensordot/ReadVariableOp/MinusOne26625_const" type="Const" version="opset1">
			<data element_type="i64" offset="14225932" shape="1" size="8"/>
			<output>
				<port id="0" precision="I64">
					<dim>1</dim>
				</port>
			</output>
		</layer>
		<layer id="26" name="StatefulPartitionedCall/model/dense_35/Tensordot/MatMul/1_port_transpose25934_const" type="Const" version="opset1">
			<data element_type="f32" offset="14292080" shape="128,128" size="65536"/>
			<output>
				<port id="0" names="StatefulPartitionedCall/model/dense_35/Tensordot/ReadVariableOp:0" precision="FP32">
					<dim>128</dim>
					<dim>128</dim>
				</port>
			</output>
		</layer>
		<layer id="27" name="StatefulPartitionedCall/model/dense_35/Tensordot/ReadVariableOp/Shape" type="ShapeOf" version="opset3">
			<data output_type="i64"/>
			<input>
				<port id="0">
					<dim>128</dim>
					<dim>128</dim>
				</port>
			</input>
			<output>
				<port id="1" precision="I64">
					<dim>2</dim>
				</port>
			</output>
		</layer>
		<layer id="28" name="StatefulPartitionedCall/model/dense_35/Tensordot/ReadVariableOp/Shape/Gather/Cast_140334_const" type="Const" version="opset1">
			<data element_type="i32" offset="14291476" shape="1" size="4"/>
			<output>
				<port id="0" precision="I32">
					<dim>1</dim>
				</port>
			</output>
		</layer>
		<layer id="29" name="StatefulPartitionedCall/model/dense_35/Tensordot/ReadVariableOp/Shape/Gather/Cast_240336_const" type="Const" version="opset1">
			<data element_type="i64" offset="14197760" shape="" size="8"/>
			<output>
				<port id="0" precision="I64"/>
			</output>
		</layer>
		<layer id="30" name="StatefulPartitionedCall/model/dense_35/Tensordot/ReadVariableOp/Shape/Gather" type="Gather" version="opset1">
			<input>
				<port id="0">
					<dim>2</dim>
				</port>
				<port id="1">
					<dim>1</dim>
				</port>
				<port id="2"/>
			</input>
			<output>
				<port id="3" precision="I64">
					<dim>1</dim>
				</port>
			</output>
		</layer>
		<layer id="31" name="StatefulPartitionedCall/model/dense_35/Tensordot/ReadVariableOp/MinusOne/shapes_concat" type="Concat" version="opset1">
			<data axis="0"/>
			<input>
				<port id="0">
					<dim>1</dim>
				</port>
				<port id="1">
					<dim>1</dim>
				</port>
			</input>
			<output>
				<port id="2" names="StatefulPartitionedCall/model/dense_35/Tensordot/Reshape/shape:0" precision="I64">
					<dim>2</dim>
				</port>
			</output>
		</layer>
		<layer id="32" name="StatefulPartitionedCall/model/dense_35/Tensordot/Reshape" type="Reshape" version="opset1">
			<data special_zero="false"/>
			<input>
				<port id="0">
					<dim>1</dim>
					<dim>55</dim>
					<dim>128</dim>
				</port>
				<port id="1">
					<dim>2</dim>
				</port>
			</input>
			<output>
				<port id="2" names="StatefulPartitionedCall/model/dense_35/Tensordot/Reshape:0" precision="FP32">
					<dim>55</dim>
					<dim>128</dim>
				</port>
			</output>
		</layer>
		<layer id="33" name="StatefulPartitionedCall/model/dense_35/Tensordot/MatMul" type="MatMul" version="opset1">
			<data transpose_a="false" transpose_b="true"/>
			<input>
				<port id="0">
					<dim>55</dim>
					<dim>128</dim>
				</port>
				<port id="1">
					<dim>128</dim>
					<dim>128</dim>
				</port>
			</input>
			<output>
				<port id="2" names="StatefulPartitionedCall/model/dense_35/Tensordot/MatMul:0" precision="FP32">
					<dim>55</dim>
					<dim>128</dim>
				</port>
			</output>
		</layer>
		<layer id="34" name="StatefulPartitionedCall/model/dense_35/Tensordot/Cast_140392_const" type="Const" version="opset1">
			<data element_type="i64" offset="14291480" shape="3" size="24"/>
			<output>
				<port id="0" names="StatefulPartitionedCall/model/dense_35/Tensordot/shape:0" precision="I64">
					<dim>3</dim>
				</port>
			</output>
		</layer>
		<layer id="35" name="StatefulPartitionedCall/model/dense_35/Tensordot" type="Reshape" version="opset1">
			<data special_zero="false"/>
			<input>
				<port id="0">
					<dim>55</dim>
					<dim>128</dim>
				</port>
				<port id="1">
					<dim>3</dim>
				</port>
			</input>
			<output>
				<port id="2" names="StatefulPartitionedCall/model/dense_35/Tensordot:0" precision="FP32">
					<dim>1</dim>
					<dim>55</dim>
					<dim>128</dim>
				</port>
			</output>
		</layer>
		<layer id="36" name="StatefulPartitionedCall/model/dense_35/BiasAdd/ReadVariableOp/EltwiseUnsqueeze17614_const" type="Const" version="opset1">
			<data element_type="f32" offset="14357616" shape="1,1,128" size="512"/>
			<output>
				<port id="0" names="StatefulPartitionedCall/model/dense_35/BiasAdd/ReadVariableOp:0" precision="FP32">
					<dim>1</dim>
					<dim>1</dim>
					<dim>128</dim>
				</port>
			</output>
		</layer>
		<layer id="37" name="StatefulPartitionedCall/model/dense_35/BiasAdd/Add" type="Add" version="opset1">
			<data auto_broadcast="numpy"/>
			<input>
				<port id="0">
					<dim>1</dim>
					<dim>55</dim>
					<dim>128</dim>
				</port>
				<port id="1">
					<dim>1</dim>
					<dim>1</dim>
					<dim>128</dim>
				</port>
			</input>
			<output>
				<port id="2" names="StatefulPartitionedCall/model/dense_35/BiasAdd:0" precision="FP32">
					<dim>1</dim>
					<dim>55</dim>
					<dim>128</dim>
				</port>
			</output>
		</layer>
		<layer id="38" name="StatefulPartitionedCall/model/tf.reshape_17/Reshape/Cast_140228_const" type="Const" version="opset1">
			<data element_type="i64" offset="14292016" shape="4" size="32"/>
			<output>
				<port id="0" names="StatefulPartitionedCall/model/tf.reshape_17/Reshape/shape:0" precision="I64">
					<dim>4</dim>
				</port>
			</output>
		</layer>
		<layer id="39" name="StatefulPartitionedCall/model/tf.reshape_17/Reshape" type="Reshape" version="opset1">
			<data special_zero="false"/>
			<input>
				<port id="0">
					<dim>1</dim>
					<dim>55</dim>
					<dim>128</dim>
				</port>
				<port id="1">
					<dim>4</dim>
				</port>
			</input>
			<output>
				<port id="2" names="StatefulPartitionedCall/model/tf.reshape_17/Reshape:0" precision="FP32">
					<dim>1</dim>
					<dim>55</dim>
					<dim>1</dim>
					<dim>128</dim>
				</port>
			</output>
		</layer>
		<layer id="40" name="StatefulPartitionedCall/model/tf.compat.v1.transpose_17/transpose/Cast_140314_const" type="Const" version="opset1">
			<data element_type="i64" offset="14292048" shape="4" size="32"/>
			<output>
				<port id="0" names="StatefulPartitionedCall/model/tf.compat.v1.transpose_17/transpose/perm:0" precision="I64">
					<dim>4</dim>
				</port>
			</output>
		</layer>
		<layer id="41" name="StatefulPartitionedCall/model/tf.compat.v1.transpose_17/transpose" type="Transpose" version="opset1">
			<input>
				<port id="0">
					<dim>1</dim>
					<dim>55</dim>
					<dim>1</dim>
					<dim>128</dim>
				</port>
				<port id="1">
					<dim>4</dim>
				</port>
			</input>
			<output>
				<port id="2" precision="FP32">
					<dim>1</dim>
					<dim>1</dim>
					<dim>55</dim>
					<dim>128</dim>
				</port>
			</output>
		</layer>
		<layer id="42" name="StatefulPartitionedCall/model/tf.math.truediv_4/truediv_copy/const18198_const" type="Const" version="opset1">
			<data element_type="f32" offset="14358128" shape="1,1,1,1" size="4"/>
			<output>
				<port id="0" precision="FP32">
					<dim>1</dim>
					<dim>1</dim>
					<dim>1</dim>
					<dim>1</dim>
				</port>
			</output>
		</layer>
		<layer id="43" name="StatefulPartitionedCall/model/tf.math.truediv_4/truediv_copy" type="Multiply" version="opset1">
			<data auto_broadcast="numpy"/>
			<input>
				<port id="0">
					<dim>1</dim>
					<dim>1</dim>
					<dim>55</dim>
					<dim>128</dim>
				</port>
				<port id="1">
					<dim>1</dim>
					<dim>1</dim>
					<dim>1</dim>
					<dim>1</dim>
				</port>
			</input>
			<output>
				<port id="2" names="StatefulPartitionedCall/model/tf.compat.v1.transpose_17/transpose:0" precision="FP32">
					<dim>1</dim>
					<dim>1</dim>
					<dim>55</dim>
					<dim>128</dim>
				</port>
			</output>
		</layer>
		<layer id="44" name="StatefulPartitionedCall/model/tf.linalg.matmul_8/MatMul" type="MatMul" version="opset1">
			<data transpose_a="false" transpose_b="true"/>
			<input>
				<port id="0">
					<dim>1</dim>
					<dim>1</dim>
					<dim>55</dim>
					<dim>128</dim>
				</port>
				<port id="1">
					<dim>1</dim>
					<dim>1</dim>
					<dim>55</dim>
					<dim>128</dim>
				</port>
			</input>
			<output>
				<port id="2" names="StatefulPartitionedCall/model/tf.math.truediv_4/truediv:0" precision="FP32">
					<dim>1</dim>
					<dim>1</dim>
					<dim>55</dim>
					<dim>55</dim>
				</port>
			</output>
		</layer>
		<layer id="45" name="StatefulPartitionedCall/model/tf.math.equal_2/Equal/y/EltwiseUnsqueeze17222_const" type="Const" version="opset1">
			<data element_type="i32" offset="14358132" shape="1,1" size="4"/>
			<output>
				<port id="0" names="StatefulPartitionedCall/model/tf.math.equal_2/Equal/y:0" precision="I32">
					<dim>1</dim>
					<dim>1</dim>
				</port>
			</output>
		</layer>
		<layer id="46" name="StatefulPartitionedCall/model/tf.math.equal_2/Equal" type="Equal" version="opset1">
			<data auto_broadcast="numpy"/>
			<input>
				<port id="0">
					<dim>1</dim>
					<dim>55</dim>
				</port>
				<port id="1">
					<dim>1</dim>
					<dim>1</dim>
				</port>
			</input>
			<output>
				<port id="2" names="StatefulPartitionedCall/model/tf.math.equal_2/Equal:0" precision="BOOL">
					<dim>1</dim>
					<dim>55</dim>
				</port>
			</output>
		</layer>
		<layer id="47" name="StatefulPartitionedCall/model/tf.cast_2/Cast" type="Convert" version="opset1">
			<data destination_type="f32"/>
			<input>
				<port id="0">
					<dim>1</dim>
					<dim>55</dim>
				</port>
			</input>
			<output>
				<port id="1" names="StatefulPartitionedCall/model/tf.cast_2/Cast:0" precision="FP32">
					<dim>1</dim>
					<dim>55</dim>
				</port>
			</output>
		</layer>
		<layer id="48" name="StatefulPartitionedCall/model/tf.__operators__.getitem_3/strided_slice/Cast_140376_const" type="Const" version="opset1">
			<data element_type="i64" offset="14358136" shape="4" size="32"/>
			<output>
				<port id="0" precision="I64">
					<dim>4</dim>
				</port>
			</output>
		</layer>
		<layer id="49" name="StatefulPartitionedCall/model/tf.__operators__.getitem_3/strided_slice/Cast_240378_const" type="Const" version="opset1">
			<data element_type="i64" offset="14358136" shape="4" size="32"/>
			<output>
				<port id="0" precision="I64">
					<dim>4</dim>
				</port>
			</output>
		</layer>
		<layer id="50" name="StatefulPartitionedCall/model/tf.__operators__.getitem_3/strided_slice/Cast_340380_const" type="Const" version="opset1">
			<data element_type="i64" offset="14358168" shape="4" size="32"/>
			<output>
				<port id="0" precision="I64">
					<dim>4</dim>
				</port>
			</output>
		</layer>
		<layer id="51" name="StatefulPartitionedCall/model/tf.__operators__.getitem_3/strided_slice" type="StridedSlice" version="opset1">
			<data begin_mask="1,1,0,0" ellipsis_mask="0,0,0,0" end_mask="1,1,0,0" new_axis_mask="0,0,1,1" shrink_axis_mask="0,0,0,0"/>
			<input>
				<port id="0">
					<dim>1</dim>
					<dim>55</dim>
				</port>
				<port id="1">
					<dim>4</dim>
				</port>
				<port id="2">
					<dim>4</dim>
				</port>
				<port id="3">
					<dim>4</dim>
				</port>
			</input>
			<output>
				<port id="4" names="StatefulPartitionedCall/model/tf.__operators__.getitem_3/strided_slice:0" precision="FP32">
					<dim>1</dim>
					<dim>55</dim>
					<dim>1</dim>
					<dim>1</dim>
				</port>
			</output>
		</layer>
		<layer id="52" name="StatefulPartitionedCall/model/tf.expand_dims/ExpandDims/EltwiseUnsqueeze17226_const" type="Const" version="opset1">
			<data element_type="f32" offset="14358200" shape="1,55,1,55" size="12100"/>
			<output>
				<port id="0" names="StatefulPartitionedCall/model/tf.expand_dims/ExpandDims:0" precision="FP32">
					<dim>1</dim>
					<dim>55</dim>
					<dim>1</dim>
					<dim>55</dim>
				</port>
			</output>
		</layer>
		<layer id="53" name="StatefulPartitionedCall/model/tf.math.maximum/Maximum" type="Maximum" version="opset1">
			<data auto_broadcast="numpy"/>
			<input>
				<port id="0">
					<dim>1</dim>
					<dim>55</dim>
					<dim>1</dim>
					<dim>1</dim>
				</port>
				<port id="1">
					<dim>1</dim>
					<dim>55</dim>
					<dim>1</dim>
					<dim>55</dim>
				</port>
			</input>
			<output>
				<port id="2" names="StatefulPartitionedCall/model/tf.math.maximum/Maximum:0" precision="FP32">
					<dim>1</dim>
					<dim>55</dim>
					<dim>1</dim>
					<dim>55</dim>
				</port>
			</output>
		</layer>
		<layer id="54" name="StatefulPartitionedCall/model/tf.math.multiply_6/Mul/y/EltwiseUnsqueeze17230_const" type="Const" version="opset1">
			<data element_type="f32" offset="14370300" shape="1,1,1,1" size="4"/>
			<output>
				<port id="0" names="StatefulPartitionedCall/model/tf.math.multiply_6/Mul/y:0" precision="FP32">
					<dim>1</dim>
					<dim>1</dim>
					<dim>1</dim>
					<dim>1</dim>
				</port>
			</output>
		</layer>
		<layer id="55" name="StatefulPartitionedCall/model/tf.math.multiply_6/Mul" type="Multiply" version="opset1">
			<data auto_broadcast="numpy"/>
			<input>
				<port id="0">
					<dim>1</dim>
					<dim>55</dim>
					<dim>1</dim>
					<dim>55</dim>
				</port>
				<port id="1">
					<dim>1</dim>
					<dim>1</dim>
					<dim>1</dim>
					<dim>1</dim>
				</port>
			</input>
			<output>
				<port id="2" names="StatefulPartitionedCall/model/tf.math.multiply_6/Mul:0" precision="FP32">
					<dim>1</dim>
					<dim>55</dim>
					<dim>1</dim>
					<dim>55</dim>
				</port>
			</output>
		</layer>
		<layer id="56" name="StatefulPartitionedCall/model/tf.__operators__.add_14/AddV2" type="Add" version="opset1">
			<data auto_broadcast="numpy"/>
			<input>
				<port id="0">
					<dim>1</dim>
					<dim>1</dim>
					<dim>55</dim>
					<dim>55</dim>
				</port>
				<port id="1">
					<dim>1</dim>
					<dim>55</dim>
					<dim>1</dim>
					<dim>55</dim>
				</port>
			</input>
			<output>
				<port id="2" names="StatefulPartitionedCall/model/tf.__operators__.add_14/AddV2:0" precision="FP32">
					<dim>1</dim>
					<dim>1</dim>
					<dim>55</dim>
					<dim>55</dim>
				</port>
			</output>
		</layer>
		<layer id="57" name="StatefulPartitionedCall/model/tf.nn.softmax_4/Softmax" type="SoftMax" version="opset1">
			<data axis="3"/>
			<input>
				<port id="0">
					<dim>1</dim>
					<dim>1</dim>
					<dim>55</dim>
					<dim>55</dim>
				</port>
			</input>
			<output>
				<port id="1" names="StatefulPartitionedCall/model/tf.nn.softmax_4/Softmax:0" precision="FP32">
					<dim>1</dim>
					<dim>1</dim>
					<dim>55</dim>
					<dim>55</dim>
				</port>
			</output>
		</layer>
		<layer id="58" name="StatefulPartitionedCall/model/dense_36/Tensordot/ReadVariableOp/MinusOne26733_const" type="Const" version="opset1">
			<data element_type="i64" offset="14225932" shape="1" size="8"/>
			<output>
				<port id="0" precision="I64">
					<dim>1</dim>
				</port>
			</output>
		</layer>
		<layer id="59" name="StatefulPartitionedCall/model/dense_36/Tensordot/MatMul/1_port_transpose25746_const" type="Const" version="opset1">
			<data element_type="f32" offset="14370304" shape="128,128" size="65536"/>
			<output>
				<port id="0" names="StatefulPartitionedCall/model/dense_36/Tensordot/ReadVariableOp:0" precision="FP32">
					<dim>128</dim>
					<dim>128</dim>
				</port>
			</output>
		</layer>
		<layer id="60" name="StatefulPartitionedCall/model/dense_36/Tensordot/ReadVariableOp/Shape" type="ShapeOf" version="opset3">
			<data output_type="i64"/>
			<input>
				<port id="0">
					<dim>128</dim>
					<dim>128</dim>
				</port>
			</input>
			<output>
				<port id="1" precision="I64">
					<dim>2</dim>
				</port>
			</output>
		</layer>
		<layer id="61" name="StatefulPartitionedCall/model/dense_36/Tensordot/ReadVariableOp/Shape/Gather/Cast_140114_const" type="Const" version="opset1">
			<data element_type="i32" offset="14291476" shape="1" size="4"/>
			<output>
				<port id="0" precision="I32">
					<dim>1</dim>
				</port>
			</output>
		</layer>
		<layer id="62" name="StatefulPartitionedCall/model/dense_36/Tensordot/ReadVariableOp/Shape/Gather/Cast_240116_const" type="Const" version="opset1">
			<data element_type="i64" offset="14197760" shape="" size="8"/>
			<output>
				<port id="0" precision="I64"/>
			</output>
		</layer>
		<layer id="63" name="StatefulPartitionedCall/model/dense_36/Tensordot/ReadVariableOp/Shape/Gather" type="Gather" version="opset1">
			<input>
				<port id="0">
					<dim>2</dim>
				</port>
				<port id="1">
					<dim>1</dim>
				</port>
				<port id="2"/>
			</input>
			<output>
				<port id="3" precision="I64">
					<dim>1</dim>
				</port>
			</output>
		</layer>
		<layer id="64" name="StatefulPartitionedCall/model/dense_36/Tensordot/ReadVariableOp/MinusOne/shapes_concat" type="Concat" version="opset1">
			<data axis="0"/>
			<input>
				<port id="0">
					<dim>1</dim>
				</port>
				<port id="1">
					<dim>1</dim>
				</port>
			</input>
			<output>
				<port id="2" names="StatefulPartitionedCall/model/dense_36/Tensordot/Reshape/shape:0" precision="I64">
					<dim>2</dim>
				</port>
			</output>
		</layer>
		<layer id="65" name="StatefulPartitionedCall/model/dense_36/Tensordot/Reshape" type="Reshape" version="opset1">
			<data special_zero="false"/>
			<input>
				<port id="0">
					<dim>1</dim>
					<dim>55</dim>
					<dim>128</dim>
				</port>
				<port id="1">
					<dim>2</dim>
				</port>
			</input>
			<output>
				<port id="2" names="StatefulPartitionedCall/model/dense_36/Tensordot/Reshape:0" precision="FP32">
					<dim>55</dim>
					<dim>128</dim>
				</port>
			</output>
		</layer>
		<layer id="66" name="StatefulPartitionedCall/model/dense_36/Tensordot/MatMul" type="MatMul" version="opset1">
			<data transpose_a="false" transpose_b="true"/>
			<input>
				<port id="0">
					<dim>55</dim>
					<dim>128</dim>
				</port>
				<port id="1">
					<dim>128</dim>
					<dim>128</dim>
				</port>
			</input>
			<output>
				<port id="2" names="StatefulPartitionedCall/model/dense_36/Tensordot/MatMul:0" precision="FP32">
					<dim>55</dim>
					<dim>128</dim>
				</port>
			</output>
		</layer>
		<layer id="67" name="StatefulPartitionedCall/model/dense_36/Tensordot/Cast_140136_const" type="Const" version="opset1">
			<data element_type="i64" offset="14291480" shape="3" size="24"/>
			<output>
				<port id="0" names="StatefulPartitionedCall/model/dense_36/Tensordot/shape:0" precision="I64">
					<dim>3</dim>
				</port>
			</output>
		</layer>
		<layer id="68" name="StatefulPartitionedCall/model/dense_36/Tensordot" type="Reshape" version="opset1">
			<data special_zero="false"/>
			<input>
				<port id="0">
					<dim>55</dim>
					<dim>128</dim>
				</port>
				<port id="1">
					<dim>3</dim>
				</port>
			</input>
			<output>
				<port id="2" names="StatefulPartitionedCall/model/dense_36/Tensordot:0" precision="FP32">
					<dim>1</dim>
					<dim>55</dim>
					<dim>128</dim>
				</port>
			</output>
		</layer>
		<layer id="69" name="StatefulPartitionedCall/model/dense_36/BiasAdd/ReadVariableOp/EltwiseUnsqueeze17538_const" type="Const" version="opset1">
			<data element_type="f32" offset="14435840" shape="1,1,128" size="512"/>
			<output>
				<port id="0" names="StatefulPartitionedCall/model/dense_36/BiasAdd/ReadVariableOp:0" precision="FP32">
					<dim>1</dim>
					<dim>1</dim>
					<dim>128</dim>
				</port>
			</output>
		</layer>
		<layer id="70" name="StatefulPartitionedCall/model/dense_36/BiasAdd/Add" type="Add" version="opset1">
			<data auto_broadcast="numpy"/>
			<input>
				<port id="0">
					<dim>1</dim>
					<dim>55</dim>
					<dim>128</dim>
				</port>
				<port id="1">
					<dim>1</dim>
					<dim>1</dim>
					<dim>128</dim>
				</port>
			</input>
			<output>
				<port id="2" names="StatefulPartitionedCall/model/dense_36/BiasAdd:0" precision="FP32">
					<dim>1</dim>
					<dim>55</dim>
					<dim>128</dim>
				</port>
			</output>
		</layer>
		<layer id="71" name="StatefulPartitionedCall/model/tf.reshape_18/Reshape/Cast_140602_const" type="Const" version="opset1">
			<data element_type="i64" offset="14292016" shape="4" size="32"/>
			<output>
				<port id="0" names="StatefulPartitionedCall/model/tf.reshape_18/Reshape/shape:0" precision="I64">
					<dim>4</dim>
				</port>
			</output>
		</layer>
		<layer id="72" name="StatefulPartitionedCall/model/tf.reshape_18/Reshape" type="Reshape" version="opset1">
			<data special_zero="false"/>
			<input>
				<port id="0">
					<dim>1</dim>
					<dim>55</dim>
					<dim>128</dim>
				</port>
				<port id="1">
					<dim>4</dim>
				</port>
			</input>
			<output>
				<port id="2" names="StatefulPartitionedCall/model/tf.reshape_18/Reshape:0" precision="FP32">
					<dim>1</dim>
					<dim>55</dim>
					<dim>1</dim>
					<dim>128</dim>
				</port>
			</output>
		</layer>
		<layer id="73" name="StatefulPartitionedCall/model/tf.compat.v1.transpose_18/transpose/Cast_140230_const" type="Const" version="opset1">
			<data element_type="i64" offset="14292048" shape="4" size="32"/>
			<output>
				<port id="0" names="StatefulPartitionedCall/model/tf.compat.v1.transpose_18/transpose/perm:0" precision="I64">
					<dim>4</dim>
				</port>
			</output>
		</layer>
		<layer id="74" name="StatefulPartitionedCall/model/tf.compat.v1.transpose_18/transpose" type="Transpose" version="opset1">
			<input>
				<port id="0">
					<dim>1</dim>
					<dim>55</dim>
					<dim>1</dim>
					<dim>128</dim>
				</port>
				<port id="1">
					<dim>4</dim>
				</port>
			</input>
			<output>
				<port id="2" names="StatefulPartitionedCall/model/tf.compat.v1.transpose_18/transpose:0" precision="FP32">
					<dim>1</dim>
					<dim>1</dim>
					<dim>55</dim>
					<dim>128</dim>
				</port>
			</output>
		</layer>
		<layer id="75" name="StatefulPartitionedCall/model/tf.linalg.matmul_9/MatMul" type="MatMul" version="opset1">
			<data transpose_a="false" transpose_b="false"/>
			<input>
				<port id="0">
					<dim>1</dim>
					<dim>1</dim>
					<dim>55</dim>
					<dim>55</dim>
				</port>
				<port id="1">
					<dim>1</dim>
					<dim>1</dim>
					<dim>55</dim>
					<dim>128</dim>
				</port>
			</input>
			<output>
				<port id="2" names="StatefulPartitionedCall/model/tf.linalg.matmul_9/MatMul:0" precision="FP32">
					<dim>1</dim>
					<dim>1</dim>
					<dim>55</dim>
					<dim>128</dim>
				</port>
			</output>
		</layer>
		<layer id="76" name="StatefulPartitionedCall/model/tf.compat.v1.transpose_19/transpose/Cast_140474_const" type="Const" version="opset1">
			<data element_type="i64" offset="14292048" shape="4" size="32"/>
			<output>
				<port id="0" names="StatefulPartitionedCall/model/tf.compat.v1.transpose_19/transpose/perm:0" precision="I64">
					<dim>4</dim>
				</port>
			</output>
		</layer>
		<layer id="77" name="StatefulPartitionedCall/model/tf.compat.v1.transpose_19/transpose" type="Transpose" version="opset1">
			<input>
				<port id="0">
					<dim>1</dim>
					<dim>1</dim>
					<dim>55</dim>
					<dim>128</dim>
				</port>
				<port id="1">
					<dim>4</dim>
				</port>
			</input>
			<output>
				<port id="2" names="StatefulPartitionedCall/model/tf.reshape_19/Reshape:0,StatefulPartitionedCall/model/tf.compat.v1.transpose_19/transpose:0" precision="FP32">
					<dim>1</dim>
					<dim>55</dim>
					<dim>1</dim>
					<dim>128</dim>
				</port>
			</output>
		</layer>
		<layer id="78" name="StatefulPartitionedCall/model/dense_37/Tensordot/ReadVariableOp/MinusOne26817_const" type="Const" version="opset1">
			<data element_type="i64" offset="14225932" shape="1" size="8"/>
			<output>
				<port id="0" precision="I64">
					<dim>1</dim>
				</port>
			</output>
		</layer>
		<layer id="79" name="StatefulPartitionedCall/model/dense_37/Tensordot/MatMul/1_port_transpose25714_const" type="Const" version="opset1">
			<data element_type="f32" offset="14436352" shape="128,128" size="65536"/>
			<output>
				<port id="0" names="StatefulPartitionedCall/model/dense_37/Tensordot/ReadVariableOp:0" precision="FP32">
					<dim>128</dim>
					<dim>128</dim>
				</port>
			</output>
		</layer>
		<layer id="80" name="StatefulPartitionedCall/model/dense_37/Tensordot/ReadVariableOp/Shape" type="ShapeOf" version="opset3">
			<data output_type="i64"/>
			<input>
				<port id="0">
					<dim>128</dim>
					<dim>128</dim>
				</port>
			</input>
			<output>
				<port id="1" precision="I64">
					<dim>2</dim>
				</port>
			</output>
		</layer>
		<layer id="81" name="StatefulPartitionedCall/model/dense_37/Tensordot/ReadVariableOp/Shape/Gather/Cast_140726_const" type="Const" version="opset1">
			<data element_type="i32" offset="14291476" shape="1" size="4"/>
			<output>
				<port id="0" precision="I32">
					<dim>1</dim>
				</port>
			</output>
		</layer>
		<layer id="82" name="StatefulPartitionedCall/model/dense_37/Tensordot/ReadVariableOp/Shape/Gather/Cast_240728_const" type="Const" version="opset1">
			<data element_type="i64" offset="14197760" shape="" size="8"/>
			<output>
				<port id="0" precision="I64"/>
			</output>
		</layer>
		<layer id="83" name="StatefulPartitionedCall/model/dense_37/Tensordot/ReadVariableOp/Shape/Gather" type="Gather" version="opset1">
			<input>
				<port id="0">
					<dim>2</dim>
				</port>
				<port id="1">
					<dim>1</dim>
				</port>
				<port id="2"/>
			</input>
			<output>
				<port id="3" precision="I64">
					<dim>1</dim>
				</port>
			</output>
		</layer>
		<layer id="84" name="StatefulPartitionedCall/model/dense_37/Tensordot/ReadVariableOp/MinusOne/shapes_concat" type="Concat" version="opset1">
			<data axis="0"/>
			<input>
				<port id="0">
					<dim>1</dim>
				</port>
				<port id="1">
					<dim>1</dim>
				</port>
			</input>
			<output>
				<port id="2" names="StatefulPartitionedCall/model/dense_37/Tensordot/Reshape/shape:0" precision="I64">
					<dim>2</dim>
				</port>
			</output>
		</layer>
		<layer id="85" name="StatefulPartitionedCall/model/dense_37/Tensordot/Reshape" type="Reshape" version="opset1">
			<data special_zero="false"/>
			<input>
				<port id="0">
					<dim>1</dim>
					<dim>55</dim>
					<dim>1</dim>
					<dim>128</dim>
				</port>
				<port id="1">
					<dim>2</dim>
				</port>
			</input>
			<output>
				<port id="2" names="StatefulPartitionedCall/model/dense_37/Tensordot/Reshape:0" precision="FP32">
					<dim>55</dim>
					<dim>128</dim>
				</port>
			</output>
		</layer>
		<layer id="86" name="StatefulPartitionedCall/model/dense_37/Tensordot/MatMul" type="MatMul" version="opset1">
			<data transpose_a="false" transpose_b="true"/>
			<input>
				<port id="0">
					<dim>55</dim>
					<dim>128</dim>
				</port>
				<port id="1">
					<dim>128</dim>
					<dim>128</dim>
				</port>
			</input>
			<output>
				<port id="2" names="StatefulPartitionedCall/model/dense_37/Tensordot/MatMul:0" precision="FP32">
					<dim>55</dim>
					<dim>128</dim>
				</port>
			</output>
		</layer>
		<layer id="87" name="StatefulPartitionedCall/model/dense_37/Tensordot/Cast_140414_const" type="Const" version="opset1">
			<data element_type="i64" offset="14291480" shape="3" size="24"/>
			<output>
				<port id="0" names="StatefulPartitionedCall/model/dense_37/Tensordot/shape:0" precision="I64">
					<dim>3</dim>
				</port>
			</output>
		</layer>
		<layer id="88" name="StatefulPartitionedCall/model/dense_37/Tensordot" type="Reshape" version="opset1">
			<data special_zero="false"/>
			<input>
				<port id="0">
					<dim>55</dim>
					<dim>128</dim>
				</port>
				<port id="1">
					<dim>3</dim>
				</port>
			</input>
			<output>
				<port id="2" names="StatefulPartitionedCall/model/dense_37/Tensordot:0" precision="FP32">
					<dim>1</dim>
					<dim>55</dim>
					<dim>128</dim>
				</port>
			</output>
		</layer>
		<layer id="89" name="StatefulPartitionedCall/model/dense_37/BiasAdd/ReadVariableOp/EltwiseUnsqueeze17574_const" type="Const" version="opset1">
			<data element_type="f32" offset="14501888" shape="1,1,128" size="512"/>
			<output>
				<port id="0" names="StatefulPartitionedCall/model/dense_37/BiasAdd/ReadVariableOp:0" precision="FP32">
					<dim>1</dim>
					<dim>1</dim>
					<dim>128</dim>
				</port>
			</output>
		</layer>
		<layer id="90" name="StatefulPartitionedCall/model/dense_37/BiasAdd/Add" type="Add" version="opset1">
			<data auto_broadcast="numpy"/>
			<input>
				<port id="0">
					<dim>1</dim>
					<dim>55</dim>
					<dim>128</dim>
				</port>
				<port id="1">
					<dim>1</dim>
					<dim>1</dim>
					<dim>128</dim>
				</port>
			</input>
			<output>
				<port id="2" names="StatefulPartitionedCall/model/dropout_10/Identity:0,StatefulPartitionedCall/model/dense_37/BiasAdd:0" precision="FP32">
					<dim>1</dim>
					<dim>55</dim>
					<dim>128</dim>
				</port>
			</output>
		</layer>
		<layer id="91" name="StatefulPartitionedCall/model/tf.__operators__.add_15/AddV2" type="Add" version="opset1">
			<data auto_broadcast="numpy"/>
			<input>
				<port id="0">
					<dim>1</dim>
					<dim>55</dim>
					<dim>128</dim>
				</port>
				<port id="1">
					<dim>1</dim>
					<dim>55</dim>
					<dim>128</dim>
				</port>
			</input>
			<output>
				<port id="2" names="StatefulPartitionedCall/model/tf.__operators__.add_15/AddV2:0" precision="FP32">
					<dim>1</dim>
					<dim>55</dim>
					<dim>128</dim>
				</port>
			</output>
		</layer>
		<layer id="92" name="StatefulPartitionedCall/model/batch_normalization_8/batchnorm/mul/EltwiseUnsqueeze17234_const" type="Const" version="opset1">
			<data element_type="f32" offset="14502400" shape="1,1,128" size="512"/>
			<output>
				<port id="0" names="StatefulPartitionedCall/model/batch_normalization_8/batchnorm/mul:0" precision="FP32">
					<dim>1</dim>
					<dim>1</dim>
					<dim>128</dim>
				</port>
			</output>
		</layer>
		<layer id="93" name="StatefulPartitionedCall/model/batch_normalization_8/batchnorm/mul_1" type="Multiply" version="opset1">
			<data auto_broadcast="numpy"/>
			<input>
				<port id="0">
					<dim>1</dim>
					<dim>55</dim>
					<dim>128</dim>
				</port>
				<port id="1">
					<dim>1</dim>
					<dim>1</dim>
					<dim>128</dim>
				</port>
			</input>
			<output>
				<port id="2" names="StatefulPartitionedCall/model/batch_normalization_8/batchnorm/mul_1:0" precision="FP32">
					<dim>1</dim>
					<dim>55</dim>
					<dim>128</dim>
				</port>
			</output>
		</layer>
		<layer id="94" name="StatefulPartitionedCall/model/batch_normalization_8/batchnorm/sub/EltwiseUnsqueeze17238_const" type="Const" version="opset1">
			<data element_type="f32" offset="14502912" shape="1,1,128" size="512"/>
			<output>
				<port id="0" names="StatefulPartitionedCall/model/batch_normalization_8/batchnorm/sub:0" precision="FP32">
					<dim>1</dim>
					<dim>1</dim>
					<dim>128</dim>
				</port>
			</output>
		</layer>
		<layer id="95" name="StatefulPartitionedCall/model/batch_normalization_8/batchnorm/add_1" type="Add" version="opset1">
			<data auto_broadcast="numpy"/>
			<input>
				<port id="0">
					<dim>1</dim>
					<dim>55</dim>
					<dim>128</dim>
				</port>
				<port id="1">
					<dim>1</dim>
					<dim>1</dim>
					<dim>128</dim>
				</port>
			</input>
			<output>
				<port id="2" names="StatefulPartitionedCall/model/batch_normalization_8/batchnorm/add_1:0" precision="FP32">
					<dim>1</dim>
					<dim>55</dim>
					<dim>128</dim>
				</port>
			</output>
		</layer>
		<layer id="96" name="StatefulPartitionedCall/model/dense_40/Tensordot/ReadVariableOp/MinusOne26637_const" type="Const" version="opset1">
			<data element_type="i64" offset="14225932" shape="1" size="8"/>
			<output>
				<port id="0" precision="I64">
					<dim>1</dim>
				</port>
			</output>
		</layer>
		<layer id="97" name="StatefulPartitionedCall/model/dense_40/Tensordot/MatMul/1_port_transpose25902_const" type="Const" version="opset1">
			<data element_type="f32" offset="14503424" shape="128,128" size="65536"/>
			<output>
				<port id="0" names="StatefulPartitionedCall/model/dense_40/Tensordot/ReadVariableOp:0" precision="FP32">
					<dim>128</dim>
					<dim>128</dim>
				</port>
			</output>
		</layer>
		<layer id="98" name="StatefulPartitionedCall/model/dense_40/Tensordot/ReadVariableOp/Shape" type="ShapeOf" version="opset3">
			<data output_type="i64"/>
			<input>
				<port id="0">
					<dim>128</dim>
					<dim>128</dim>
				</port>
			</input>
			<output>
				<port id="1" precision="I64">
					<dim>2</dim>
				</port>
			</output>
		</layer>
		<layer id="99" name="StatefulPartitionedCall/model/dense_40/Tensordot/ReadVariableOp/Shape/Gather/Cast_140426_const" type="Const" version="opset1">
			<data element_type="i32" offset="14291476" shape="1" size="4"/>
			<output>
				<port id="0" precision="I32">
					<dim>1</dim>
				</port>
			</output>
		</layer>
		<layer id="100" name="StatefulPartitionedCall/model/dense_40/Tensordot/ReadVariableOp/Shape/Gather/Cast_240428_const" type="Const" version="opset1">
			<data element_type="i64" offset="14197760" shape="" size="8"/>
			<output>
				<port id="0" precision="I64"/>
			</output>
		</layer>
		<layer id="101" name="StatefulPartitionedCall/model/dense_40/Tensordot/ReadVariableOp/Shape/Gather" type="Gather" version="opset1">
			<input>
				<port id="0">
					<dim>2</dim>
				</port>
				<port id="1">
					<dim>1</dim>
				</port>
				<port id="2"/>
			</input>
			<output>
				<port id="3" precision="I64">
					<dim>1</dim>
				</port>
			</output>
		</layer>
		<layer id="102" name="StatefulPartitionedCall/model/dense_40/Tensordot/ReadVariableOp/MinusOne/shapes_concat" type="Concat" version="opset1">
			<data axis="0"/>
			<input>
				<port id="0">
					<dim>1</dim>
				</port>
				<port id="1">
					<dim>1</dim>
				</port>
			</input>
			<output>
				<port id="2" names="StatefulPartitionedCall/model/dense_40/Tensordot/Reshape/shape:0" precision="I64">
					<dim>2</dim>
				</port>
			</output>
		</layer>
		<layer id="103" name="StatefulPartitionedCall/model/dense_40/Tensordot/Reshape" type="Reshape" version="opset1">
			<data special_zero="false"/>
			<input>
				<port id="0">
					<dim>1</dim>
					<dim>55</dim>
					<dim>128</dim>
				</port>
				<port id="1">
					<dim>2</dim>
				</port>
			</input>
			<output>
				<port id="2" names="StatefulPartitionedCall/model/dense_40/Tensordot/Reshape:0" precision="FP32">
					<dim>55</dim>
					<dim>128</dim>
				</port>
			</output>
		</layer>
		<layer id="104" name="StatefulPartitionedCall/model/dense_40/Tensordot/MatMul" type="MatMul" version="opset1">
			<data transpose_a="false" transpose_b="true"/>
			<input>
				<port id="0">
					<dim>55</dim>
					<dim>128</dim>
				</port>
				<port id="1">
					<dim>128</dim>
					<dim>128</dim>
				</port>
			</input>
			<output>
				<port id="2" names="StatefulPartitionedCall/model/dense_40/Tensordot/MatMul:0" precision="FP32">
					<dim>55</dim>
					<dim>128</dim>
				</port>
			</output>
		</layer>
		<layer id="105" name="StatefulPartitionedCall/model/dense_40/Tensordot/Cast_140618_const" type="Const" version="opset1">
			<data element_type="i64" offset="14291480" shape="3" size="24"/>
			<output>
				<port id="0" names="StatefulPartitionedCall/model/dense_40/Tensordot/shape:0" precision="I64">
					<dim>3</dim>
				</port>
			</output>
		</layer>
		<layer id="106" name="StatefulPartitionedCall/model/dense_40/Tensordot" type="Reshape" version="opset1">
			<data special_zero="false"/>
			<input>
				<port id="0">
					<dim>55</dim>
					<dim>128</dim>
				</port>
				<port id="1">
					<dim>3</dim>
				</port>
			</input>
			<output>
				<port id="2" names="StatefulPartitionedCall/model/dense_40/Tensordot:0" precision="FP32">
					<dim>1</dim>
					<dim>55</dim>
					<dim>128</dim>
				</port>
			</output>
		</layer>
		<layer id="107" name="StatefulPartitionedCall/model/dense_40/BiasAdd/ReadVariableOp/EltwiseUnsqueeze17470_const" type="Const" version="opset1">
			<data element_type="f32" offset="14568960" shape="1,1,128" size="512"/>
			<output>
				<port id="0" names="StatefulPartitionedCall/model/dense_40/BiasAdd/ReadVariableOp:0" precision="FP32">
					<dim>1</dim>
					<dim>1</dim>
					<dim>128</dim>
				</port>
			</output>
		</layer>
		<layer id="108" name="StatefulPartitionedCall/model/dense_40/BiasAdd/Add" type="Add" version="opset1">
			<data auto_broadcast="numpy"/>
			<input>
				<port id="0">
					<dim>1</dim>
					<dim>55</dim>
					<dim>128</dim>
				</port>
				<port id="1">
					<dim>1</dim>
					<dim>1</dim>
					<dim>128</dim>
				</port>
			</input>
			<output>
				<port id="2" names="StatefulPartitionedCall/model/dense_40/BiasAdd:0" precision="FP32">
					<dim>1</dim>
					<dim>55</dim>
					<dim>128</dim>
				</port>
			</output>
		</layer>
		<layer id="109" name="StatefulPartitionedCall/model/tf.reshape_20/Reshape/Cast_140070_const" type="Const" version="opset1">
			<data element_type="i64" offset="14292016" shape="4" size="32"/>
			<output>
				<port id="0" names="StatefulPartitionedCall/model/tf.reshape_20/Reshape/shape:0" precision="I64">
					<dim>4</dim>
				</port>
			</output>
		</layer>
		<layer id="110" name="StatefulPartitionedCall/model/tf.reshape_20/Reshape" type="Reshape" version="opset1">
			<data special_zero="false"/>
			<input>
				<port id="0">
					<dim>1</dim>
					<dim>55</dim>
					<dim>128</dim>
				</port>
				<port id="1">
					<dim>4</dim>
				</port>
			</input>
			<output>
				<port id="2" names="StatefulPartitionedCall/model/tf.reshape_20/Reshape:0" precision="FP32">
					<dim>1</dim>
					<dim>55</dim>
					<dim>1</dim>
					<dim>128</dim>
				</port>
			</output>
		</layer>
		<layer id="111" name="StatefulPartitionedCall/model/tf.compat.v1.transpose_20/transpose/Cast_140718_const" type="Const" version="opset1">
			<data element_type="i64" offset="14292048" shape="4" size="32"/>
			<output>
				<port id="0" names="StatefulPartitionedCall/model/tf.compat.v1.transpose_20/transpose/perm:0" precision="I64">
					<dim>4</dim>
				</port>
			</output>
		</layer>
		<layer id="112" name="StatefulPartitionedCall/model/tf.compat.v1.transpose_20/transpose" type="Transpose" version="opset1">
			<input>
				<port id="0">
					<dim>1</dim>
					<dim>55</dim>
					<dim>1</dim>
					<dim>128</dim>
				</port>
				<port id="1">
					<dim>4</dim>
				</port>
			</input>
			<output>
				<port id="2" names="StatefulPartitionedCall/model/tf.compat.v1.transpose_20/transpose:0" precision="FP32">
					<dim>1</dim>
					<dim>1</dim>
					<dim>55</dim>
					<dim>128</dim>
				</port>
			</output>
		</layer>
		<layer id="113" name="Func/StatefulPartitionedCall/input/_4/Output_0/Data__const" type="Const" version="opset1">
			<data element_type="f32" offset="14569472" shape="14214,128" size="7277568"/>
			<output>
				<port id="0" names="Func/StatefulPartitionedCall/input/_4:0" precision="FP32">
					<dim>14214</dim>
					<dim>128</dim>
				</port>
			</output>
		</layer>
		<layer id="114" name="input_1" type="Parameter" version="opset1">
			<data element_type="i32" shape="1,49"/>
			<output>
				<port id="0" names="Func/StatefulPartitionedCall/input/_0:0,input_1:0" precision="I32">
					<dim>1</dim>
					<dim>49</dim>
				</port>
			</output>
		</layer>
		<layer id="115" name="StatefulPartitionedCall/model/embedding/embedding_lookup/Cast_240128_const" type="Const" version="opset1">
			<data element_type="i64" offset="14197760" shape="" size="8"/>
			<output>
				<port id="0" names="StatefulPartitionedCall/model/embedding/embedding_lookup/axis:0" precision="I64"/>
			</output>
		</layer>
		<layer id="116" name="StatefulPartitionedCall/model/embedding/embedding_lookup" type="Gather" version="opset1">
			<input>
				<port id="0">
					<dim>14214</dim>
					<dim>128</dim>
				</port>
				<port id="1">
					<dim>1</dim>
					<dim>49</dim>
				</port>
				<port id="2"/>
			</input>
			<output>
				<port id="3" names="StatefulPartitionedCall/model/embedding/embedding_lookup/Identity_1:0,StatefulPartitionedCall/model/embedding/embedding_lookup/Identity:0,StatefulPartitionedCall/model/embedding/embedding_lookup:0" precision="FP32">
					<dim>1</dim>
					<dim>49</dim>
					<dim>128</dim>
				</port>
			</output>
		</layer>
		<layer id="117" name="Func/StatefulPartitionedCall/input/_5/EltwiseUnsqueeze17242_const" type="Const" version="opset1">
			<data element_type="f32" offset="14197768" shape="1,1,1" size="4"/>
			<output>
				<port id="0" names="Func/StatefulPartitionedCall/input/_5:0" precision="FP32">
					<dim>1</dim>
					<dim>1</dim>
					<dim>1</dim>
				</port>
			</output>
		</layer>
		<layer id="118" name="StatefulPartitionedCall/model/tf.math.multiply/Mul" type="Multiply" version="opset1">
			<data auto_broadcast="numpy"/>
			<input>
				<port id="0">
					<dim>1</dim>
					<dim>49</dim>
					<dim>128</dim>
				</port>
				<port id="1">
					<dim>1</dim>
					<dim>1</dim>
					<dim>1</dim>
				</port>
			</input>
			<output>
				<port id="2" names="StatefulPartitionedCall/model/tf.math.multiply/Mul:0" precision="FP32">
					<dim>1</dim>
					<dim>49</dim>
					<dim>128</dim>
				</port>
			</output>
		</layer>
		<layer id="119" name="StatefulPartitionedCall/model/tf.strided_slice/StridedSlice/Output_0/Data__const" type="Const" version="opset1">
			<data element_type="f32" offset="21847040" shape="1,49,128" size="25088"/>
			<output>
				<port id="0" names="StatefulPartitionedCall/model/tf.strided_slice/StridedSlice:0" precision="FP32">
					<dim>1</dim>
					<dim>49</dim>
					<dim>128</dim>
				</port>
			</output>
		</layer>
		<layer id="120" name="StatefulPartitionedCall/model/tf.__operators__.add/AddV2" type="Add" version="opset1">
			<data auto_broadcast="numpy"/>
			<input>
				<port id="0">
					<dim>1</dim>
					<dim>49</dim>
					<dim>128</dim>
				</port>
				<port id="1">
					<dim>1</dim>
					<dim>49</dim>
					<dim>128</dim>
				</port>
			</input>
			<output>
				<port id="2" names="StatefulPartitionedCall/model/dropout/Identity:0,StatefulPartitionedCall/model/tf.__operators__.add/AddV2:0" precision="FP32">
					<dim>1</dim>
					<dim>49</dim>
					<dim>128</dim>
				</port>
			</output>
		</layer>
		<layer id="121" name="StatefulPartitionedCall/model/dense_2/Tensordot/ReadVariableOp/MinusOne26589_const" type="Const" version="opset1">
			<data element_type="i64" offset="14225932" shape="1" size="8"/>
			<output>
				<port id="0" precision="I64">
					<dim>1</dim>
				</port>
			</output>
		</layer>
		<layer id="122" name="StatefulPartitionedCall/model/dense_2/Tensordot/MatMul/1_port_transpose25906_const" type="Const" version="opset1">
			<data element_type="f32" offset="21872128" shape="128,128" size="65536"/>
			<output>
				<port id="0" names="StatefulPartitionedCall/model/dense_2/Tensordot/ReadVariableOp:0" precision="FP32">
					<dim>128</dim>
					<dim>128</dim>
				</port>
			</output>
		</layer>
		<layer id="123" name="StatefulPartitionedCall/model/dense_2/Tensordot/ReadVariableOp/Shape" type="ShapeOf" version="opset3">
			<data output_type="i64"/>
			<input>
				<port id="0">
					<dim>128</dim>
					<dim>128</dim>
				</port>
			</input>
			<output>
				<port id="1" precision="I64">
					<dim>2</dim>
				</port>
			</output>
		</layer>
		<layer id="124" name="StatefulPartitionedCall/model/dense_2/Tensordot/ReadVariableOp/Shape/Gather/Cast_140282_const" type="Const" version="opset1">
			<data element_type="i32" offset="14291476" shape="1" size="4"/>
			<output>
				<port id="0" precision="I32">
					<dim>1</dim>
				</port>
			</output>
		</layer>
		<layer id="125" name="StatefulPartitionedCall/model/dense_2/Tensordot/ReadVariableOp/Shape/Gather/Cast_240284_const" type="Const" version="opset1">
			<data element_type="i64" offset="14197760" shape="" size="8"/>
			<output>
				<port id="0" precision="I64"/>
			</output>
		</layer>
		<layer id="126" name="StatefulPartitionedCall/model/dense_2/Tensordot/ReadVariableOp/Shape/Gather" type="Gather" version="opset1">
			<input>
				<port id="0">
					<dim>2</dim>
				</port>
				<port id="1">
					<dim>1</dim>
				</port>
				<port id="2"/>
			</input>
			<output>
				<port id="3" precision="I64">
					<dim>1</dim>
				</port>
			</output>
		</layer>
		<layer id="127" name="StatefulPartitionedCall/model/dense_2/Tensordot/ReadVariableOp/MinusOne/shapes_concat" type="Concat" version="opset1">
			<data axis="0"/>
			<input>
				<port id="0">
					<dim>1</dim>
				</port>
				<port id="1">
					<dim>1</dim>
				</port>
			</input>
			<output>
				<port id="2" names="StatefulPartitionedCall/model/dense_2/Tensordot/Reshape/shape:0" precision="I64">
					<dim>2</dim>
				</port>
			</output>
		</layer>
		<layer id="128" name="StatefulPartitionedCall/model/dense_2/Tensordot/Reshape" type="Reshape" version="opset1">
			<data special_zero="false"/>
			<input>
				<port id="0">
					<dim>1</dim>
					<dim>49</dim>
					<dim>128</dim>
				</port>
				<port id="1">
					<dim>2</dim>
				</port>
			</input>
			<output>
				<port id="2" names="StatefulPartitionedCall/model/dense_2/Tensordot/Reshape:0" precision="FP32">
					<dim>49</dim>
					<dim>128</dim>
				</port>
			</output>
		</layer>
		<layer id="129" name="StatefulPartitionedCall/model/dense_2/Tensordot/MatMul" type="MatMul" version="opset1">
			<data transpose_a="false" transpose_b="true"/>
			<input>
				<port id="0">
					<dim>49</dim>
					<dim>128</dim>
				</port>
				<port id="1">
					<dim>128</dim>
					<dim>128</dim>
				</port>
			</input>
			<output>
				<port id="2" names="StatefulPartitionedCall/model/dense_2/Tensordot/MatMul:0" precision="FP32">
					<dim>49</dim>
					<dim>128</dim>
				</port>
			</output>
		</layer>
		<layer id="130" name="StatefulPartitionedCall/model/dense_2/Tensordot/Cast_140422_const" type="Const" version="opset1">
			<data element_type="i64" offset="21937664" shape="3" size="24"/>
			<output>
				<port id="0" names="StatefulPartitionedCall/model/dense_2/Tensordot/shape:0" precision="I64">
					<dim>3</dim>
				</port>
			</output>
		</layer>
		<layer id="131" name="StatefulPartitionedCall/model/dense_2/Tensordot" type="Reshape" version="opset1">
			<data special_zero="false"/>
			<input>
				<port id="0">
					<dim>49</dim>
					<dim>128</dim>
				</port>
				<port id="1">
					<dim>3</dim>
				</port>
			</input>
			<output>
				<port id="2" names="StatefulPartitionedCall/model/dense_2/Tensordot:0" precision="FP32">
					<dim>1</dim>
					<dim>49</dim>
					<dim>128</dim>
				</port>
			</output>
		</layer>
		<layer id="132" name="StatefulPartitionedCall/model/dense_2/BiasAdd/ReadVariableOp/EltwiseUnsqueeze17494_const" type="Const" version="opset1">
			<data element_type="f32" offset="21937688" shape="1,1,128" size="512"/>
			<output>
				<port id="0" names="StatefulPartitionedCall/model/dense_2/BiasAdd/ReadVariableOp:0" precision="FP32">
					<dim>1</dim>
					<dim>1</dim>
					<dim>128</dim>
				</port>
			</output>
		</layer>
		<layer id="133" name="StatefulPartitionedCall/model/dense_2/BiasAdd/Add" type="Add" version="opset1">
			<data auto_broadcast="numpy"/>
			<input>
				<port id="0">
					<dim>1</dim>
					<dim>49</dim>
					<dim>128</dim>
				</port>
				<port id="1">
					<dim>1</dim>
					<dim>1</dim>
					<dim>128</dim>
				</port>
			</input>
			<output>
				<port id="2" names="StatefulPartitionedCall/model/dense_2/BiasAdd:0" precision="FP32">
					<dim>1</dim>
					<dim>49</dim>
					<dim>128</dim>
				</port>
			</output>
		</layer>
		<layer id="134" name="StatefulPartitionedCall/model/tf.reshape/Reshape/Cast_140372_const" type="Const" version="opset1">
			<data element_type="i64" offset="14292016" shape="4" size="32"/>
			<output>
				<port id="0" names="StatefulPartitionedCall/model/tf.reshape/Reshape/shape:0" precision="I64">
					<dim>4</dim>
				</port>
			</output>
		</layer>
		<layer id="135" name="StatefulPartitionedCall/model/tf.reshape/Reshape" type="Reshape" version="opset1">
			<data special_zero="false"/>
			<input>
				<port id="0">
					<dim>1</dim>
					<dim>49</dim>
					<dim>128</dim>
				</port>
				<port id="1">
					<dim>4</dim>
				</port>
			</input>
			<output>
				<port id="2" names="StatefulPartitionedCall/model/tf.reshape/Reshape:0" precision="FP32">
					<dim>1</dim>
					<dim>49</dim>
					<dim>1</dim>
					<dim>128</dim>
				</port>
			</output>
		</layer>
		<layer id="136" name="StatefulPartitionedCall/model/tf.compat.v1.transpose/transpose/Cast_140502_const" type="Const" version="opset1">
			<data element_type="i64" offset="14292048" shape="4" size="32"/>
			<output>
				<port id="0" names="StatefulPartitionedCall/model/tf.compat.v1.transpose/transpose/perm:0" precision="I64">
					<dim>4</dim>
				</port>
			</output>
		</layer>
		<layer id="137" name="StatefulPartitionedCall/model/tf.compat.v1.transpose/transpose" type="Transpose" version="opset1">
			<input>
				<port id="0">
					<dim>1</dim>
					<dim>49</dim>
					<dim>1</dim>
					<dim>128</dim>
				</port>
				<port id="1">
					<dim>4</dim>
				</port>
			</input>
			<output>
				<port id="2" names="StatefulPartitionedCall/model/tf.compat.v1.transpose/transpose:0" precision="FP32">
					<dim>1</dim>
					<dim>1</dim>
					<dim>49</dim>
					<dim>128</dim>
				</port>
			</output>
		</layer>
		<layer id="138" name="StatefulPartitionedCall/model/dense_3/Tensordot/ReadVariableOp/MinusOne26649_const" type="Const" version="opset1">
			<data element_type="i64" offset="14225932" shape="1" size="8"/>
			<output>
				<port id="0" precision="I64">
					<dim>1</dim>
				</port>
			</output>
		</layer>
		<layer id="139" name="StatefulPartitionedCall/model/dense_3/Tensordot/MatMul/1_port_transpose25866_const" type="Const" version="opset1">
			<data element_type="f32" offset="21938200" shape="128,128" size="65536"/>
			<output>
				<port id="0" names="StatefulPartitionedCall/model/dense_3/Tensordot/ReadVariableOp:0" precision="FP32">
					<dim>128</dim>
					<dim>128</dim>
				</port>
			</output>
		</layer>
		<layer id="140" name="StatefulPartitionedCall/model/dense_3/Tensordot/ReadVariableOp/Shape" type="ShapeOf" version="opset3">
			<data output_type="i64"/>
			<input>
				<port id="0">
					<dim>128</dim>
					<dim>128</dim>
				</port>
			</input>
			<output>
				<port id="1" precision="I64">
					<dim>2</dim>
				</port>
			</output>
		</layer>
		<layer id="141" name="StatefulPartitionedCall/model/dense_3/Tensordot/ReadVariableOp/Shape/Gather/Cast_140056_const" type="Const" version="opset1">
			<data element_type="i32" offset="14291476" shape="1" size="4"/>
			<output>
				<port id="0" precision="I32">
					<dim>1</dim>
				</port>
			</output>
		</layer>
		<layer id="142" name="StatefulPartitionedCall/model/dense_3/Tensordot/ReadVariableOp/Shape/Gather/Cast_240058_const" type="Const" version="opset1">
			<data element_type="i64" offset="14197760" shape="" size="8"/>
			<output>
				<port id="0" precision="I64"/>
			</output>
		</layer>
		<layer id="143" name="StatefulPartitionedCall/model/dense_3/Tensordot/ReadVariableOp/Shape/Gather" type="Gather" version="opset1">
			<input>
				<port id="0">
					<dim>2</dim>
				</port>
				<port id="1">
					<dim>1</dim>
				</port>
				<port id="2"/>
			</input>
			<output>
				<port id="3" precision="I64">
					<dim>1</dim>
				</port>
			</output>
		</layer>
		<layer id="144" name="StatefulPartitionedCall/model/dense_3/Tensordot/ReadVariableOp/MinusOne/shapes_concat" type="Concat" version="opset1">
			<data axis="0"/>
			<input>
				<port id="0">
					<dim>1</dim>
				</port>
				<port id="1">
					<dim>1</dim>
				</port>
			</input>
			<output>
				<port id="2" names="StatefulPartitionedCall/model/dense_3/Tensordot/Reshape/shape:0" precision="I64">
					<dim>2</dim>
				</port>
			</output>
		</layer>
		<layer id="145" name="StatefulPartitionedCall/model/dense_3/Tensordot/Reshape" type="Reshape" version="opset1">
			<data special_zero="false"/>
			<input>
				<port id="0">
					<dim>1</dim>
					<dim>49</dim>
					<dim>128</dim>
				</port>
				<port id="1">
					<dim>2</dim>
				</port>
			</input>
			<output>
				<port id="2" names="StatefulPartitionedCall/model/dense_3/Tensordot/Reshape:0" precision="FP32">
					<dim>49</dim>
					<dim>128</dim>
				</port>
			</output>
		</layer>
		<layer id="146" name="StatefulPartitionedCall/model/dense_3/Tensordot/MatMul" type="MatMul" version="opset1">
			<data transpose_a="false" transpose_b="true"/>
			<input>
				<port id="0">
					<dim>49</dim>
					<dim>128</dim>
				</port>
				<port id="1">
					<dim>128</dim>
					<dim>128</dim>
				</port>
			</input>
			<output>
				<port id="2" names="StatefulPartitionedCall/model/dense_3/Tensordot/MatMul:0" precision="FP32">
					<dim>49</dim>
					<dim>128</dim>
				</port>
			</output>
		</layer>
		<layer id="147" name="StatefulPartitionedCall/model/dense_3/Tensordot/Cast_140570_const" type="Const" version="opset1">
			<data element_type="i64" offset="21937664" shape="3" size="24"/>
			<output>
				<port id="0" names="StatefulPartitionedCall/model/dense_3/Tensordot/shape:0" precision="I64">
					<dim>3</dim>
				</port>
			</output>
		</layer>
		<layer id="148" name="StatefulPartitionedCall/model/dense_3/Tensordot" type="Reshape" version="opset1">
			<data special_zero="false"/>
			<input>
				<port id="0">
					<dim>49</dim>
					<dim>128</dim>
				</port>
				<port id="1">
					<dim>3</dim>
				</port>
			</input>
			<output>
				<port id="2" names="StatefulPartitionedCall/model/dense_3/Tensordot:0" precision="FP32">
					<dim>1</dim>
					<dim>49</dim>
					<dim>128</dim>
				</port>
			</output>
		</layer>
		<layer id="149" name="StatefulPartitionedCall/model/dense_3/BiasAdd/ReadVariableOp/EltwiseUnsqueeze17690_const" type="Const" version="opset1">
			<data element_type="f32" offset="22003736" shape="1,1,128" size="512"/>
			<output>
				<port id="0" names="StatefulPartitionedCall/model/dense_3/BiasAdd/ReadVariableOp:0" precision="FP32">
					<dim>1</dim>
					<dim>1</dim>
					<dim>128</dim>
				</port>
			</output>
		</layer>
		<layer id="150" name="StatefulPartitionedCall/model/dense_3/BiasAdd/Add" type="Add" version="opset1">
			<data auto_broadcast="numpy"/>
			<input>
				<port id="0">
					<dim>1</dim>
					<dim>49</dim>
					<dim>128</dim>
				</port>
				<port id="1">
					<dim>1</dim>
					<dim>1</dim>
					<dim>128</dim>
				</port>
			</input>
			<output>
				<port id="2" names="StatefulPartitionedCall/model/dense_3/BiasAdd:0" precision="FP32">
					<dim>1</dim>
					<dim>49</dim>
					<dim>128</dim>
				</port>
			</output>
		</layer>
		<layer id="151" name="StatefulPartitionedCall/model/tf.reshape_1/Reshape/Cast_140064_const" type="Const" version="opset1">
			<data element_type="i64" offset="14292016" shape="4" size="32"/>
			<output>
				<port id="0" names="StatefulPartitionedCall/model/tf.reshape_1/Reshape/shape:0" precision="I64">
					<dim>4</dim>
				</port>
			</output>
		</layer>
		<layer id="152" name="StatefulPartitionedCall/model/tf.reshape_1/Reshape" type="Reshape" version="opset1">
			<data special_zero="false"/>
			<input>
				<port id="0">
					<dim>1</dim>
					<dim>49</dim>
					<dim>128</dim>
				</port>
				<port id="1">
					<dim>4</dim>
				</port>
			</input>
			<output>
				<port id="2" names="StatefulPartitionedCall/model/tf.reshape_1/Reshape:0" precision="FP32">
					<dim>1</dim>
					<dim>49</dim>
					<dim>1</dim>
					<dim>128</dim>
				</port>
			</output>
		</layer>
		<layer id="153" name="StatefulPartitionedCall/model/tf.compat.v1.transpose_1/transpose/Cast_140658_const" type="Const" version="opset1">
			<data element_type="i64" offset="14292048" shape="4" size="32"/>
			<output>
				<port id="0" names="StatefulPartitionedCall/model/tf.compat.v1.transpose_1/transpose/perm:0" precision="I64">
					<dim>4</dim>
				</port>
			</output>
		</layer>
		<layer id="154" name="StatefulPartitionedCall/model/tf.compat.v1.transpose_1/transpose" type="Transpose" version="opset1">
			<input>
				<port id="0">
					<dim>1</dim>
					<dim>49</dim>
					<dim>1</dim>
					<dim>128</dim>
				</port>
				<port id="1">
					<dim>4</dim>
				</port>
			</input>
			<output>
				<port id="2" precision="FP32">
					<dim>1</dim>
					<dim>1</dim>
					<dim>49</dim>
					<dim>128</dim>
				</port>
			</output>
		</layer>
		<layer id="155" name="StatefulPartitionedCall/model/tf.math.truediv/truediv_copy/const18202_const" type="Const" version="opset1">
			<data element_type="f32" offset="14358128" shape="1,1,1,1" size="4"/>
			<output>
				<port id="0" precision="FP32">
					<dim>1</dim>
					<dim>1</dim>
					<dim>1</dim>
					<dim>1</dim>
				</port>
			</output>
		</layer>
		<layer id="156" name="StatefulPartitionedCall/model/tf.math.truediv/truediv_copy" type="Multiply" version="opset1">
			<data auto_broadcast="numpy"/>
			<input>
				<port id="0">
					<dim>1</dim>
					<dim>1</dim>
					<dim>49</dim>
					<dim>128</dim>
				</port>
				<port id="1">
					<dim>1</dim>
					<dim>1</dim>
					<dim>1</dim>
					<dim>1</dim>
				</port>
			</input>
			<output>
				<port id="2" names="StatefulPartitionedCall/model/tf.compat.v1.transpose_1/transpose:0" precision="FP32">
					<dim>1</dim>
					<dim>1</dim>
					<dim>49</dim>
					<dim>128</dim>
				</port>
			</output>
		</layer>
		<layer id="157" name="StatefulPartitionedCall/model/tf.linalg.matmul/MatMul" type="MatMul" version="opset1">
			<data transpose_a="false" transpose_b="true"/>
			<input>
				<port id="0">
					<dim>1</dim>
					<dim>1</dim>
					<dim>49</dim>
					<dim>128</dim>
				</port>
				<port id="1">
					<dim>1</dim>
					<dim>1</dim>
					<dim>49</dim>
					<dim>128</dim>
				</port>
			</input>
			<output>
				<port id="2" names="StatefulPartitionedCall/model/tf.math.truediv/truediv:0" precision="FP32">
					<dim>1</dim>
					<dim>1</dim>
					<dim>49</dim>
					<dim>49</dim>
				</port>
			</output>
		</layer>
		<layer id="158" name="StatefulPartitionedCall/model/tf.math.equal/Equal/y/EltwiseUnsqueeze17246_const" type="Const" version="opset1">
			<data element_type="i32" offset="14358132" shape="1,1" size="4"/>
			<output>
				<port id="0" names="StatefulPartitionedCall/model/tf.math.equal/Equal/y:0" precision="I32">
					<dim>1</dim>
					<dim>1</dim>
				</port>
			</output>
		</layer>
		<layer id="159" name="StatefulPartitionedCall/model/tf.math.equal/Equal" type="Equal" version="opset1">
			<data auto_broadcast="numpy"/>
			<input>
				<port id="0">
					<dim>1</dim>
					<dim>49</dim>
				</port>
				<port id="1">
					<dim>1</dim>
					<dim>1</dim>
				</port>
			</input>
			<output>
				<port id="2" names="StatefulPartitionedCall/model/tf.math.equal/Equal:0" precision="BOOL">
					<dim>1</dim>
					<dim>49</dim>
				</port>
			</output>
		</layer>
		<layer id="160" name="StatefulPartitionedCall/model/tf.cast/Cast" type="Convert" version="opset1">
			<data destination_type="f32"/>
			<input>
				<port id="0">
					<dim>1</dim>
					<dim>49</dim>
				</port>
			</input>
			<output>
				<port id="1" names="StatefulPartitionedCall/model/tf.cast/Cast:0" precision="FP32">
					<dim>1</dim>
					<dim>49</dim>
				</port>
			</output>
		</layer>
		<layer id="161" name="StatefulPartitionedCall/model/tf.__operators__.getitem/strided_slice/Cast_140204_const" type="Const" version="opset1">
			<data element_type="i64" offset="14358136" shape="4" size="32"/>
			<output>
				<port id="0" precision="I64">
					<dim>4</dim>
				</port>
			</output>
		</layer>
		<layer id="162" name="StatefulPartitionedCall/model/tf.__operators__.getitem/strided_slice/Cast_240206_const" type="Const" version="opset1">
			<data element_type="i64" offset="14358136" shape="4" size="32"/>
			<output>
				<port id="0" precision="I64">
					<dim>4</dim>
				</port>
			</output>
		</layer>
		<layer id="163" name="StatefulPartitionedCall/model/tf.__operators__.getitem/strided_slice/Cast_340208_const" type="Const" version="opset1">
			<data element_type="i64" offset="14358168" shape="4" size="32"/>
			<output>
				<port id="0" precision="I64">
					<dim>4</dim>
				</port>
			</output>
		</layer>
		<layer id="164" name="StatefulPartitionedCall/model/tf.__operators__.getitem/strided_slice" type="StridedSlice" version="opset1">
			<data begin_mask="1,1,0,0" ellipsis_mask="0,0,0,0" end_mask="1,1,0,0" new_axis_mask="0,0,1,1" shrink_axis_mask="0,0,0,0"/>
			<input>
				<port id="0">
					<dim>1</dim>
					<dim>49</dim>
				</port>
				<port id="1">
					<dim>4</dim>
				</port>
				<port id="2">
					<dim>4</dim>
				</port>
				<port id="3">
					<dim>4</dim>
				</port>
			</input>
			<output>
				<port id="4" names="StatefulPartitionedCall/model/tf.__operators__.getitem/strided_slice:0" precision="FP32">
					<dim>1</dim>
					<dim>49</dim>
					<dim>1</dim>
					<dim>1</dim>
				</port>
			</output>
		</layer>
		<layer id="165" name="StatefulPartitionedCall/model/tf.math.multiply_1/Mul/y/EltwiseUnsqueeze17250_const" type="Const" version="opset1">
			<data element_type="f32" offset="14370300" shape="1,1,1,1" size="4"/>
			<output>
				<port id="0" names="StatefulPartitionedCall/model/tf.math.multiply_1/Mul/y:0" precision="FP32">
					<dim>1</dim>
					<dim>1</dim>
					<dim>1</dim>
					<dim>1</dim>
				</port>
			</output>
		</layer>
		<layer id="166" name="StatefulPartitionedCall/model/tf.math.multiply_1/Mul" type="Multiply" version="opset1">
			<data auto_broadcast="numpy"/>
			<input>
				<port id="0">
					<dim>1</dim>
					<dim>49</dim>
					<dim>1</dim>
					<dim>1</dim>
				</port>
				<port id="1">
					<dim>1</dim>
					<dim>1</dim>
					<dim>1</dim>
					<dim>1</dim>
				</port>
			</input>
			<output>
				<port id="2" names="StatefulPartitionedCall/model/tf.math.multiply_1/Mul:0" precision="FP32">
					<dim>1</dim>
					<dim>49</dim>
					<dim>1</dim>
					<dim>1</dim>
				</port>
			</output>
		</layer>
		<layer id="167" name="StatefulPartitionedCall/model/tf.__operators__.add_1/AddV2" type="Add" version="opset1">
			<data auto_broadcast="numpy"/>
			<input>
				<port id="0">
					<dim>1</dim>
					<dim>1</dim>
					<dim>49</dim>
					<dim>49</dim>
				</port>
				<port id="1">
					<dim>1</dim>
					<dim>49</dim>
					<dim>1</dim>
					<dim>1</dim>
				</port>
			</input>
			<output>
				<port id="2" names="StatefulPartitionedCall/model/tf.__operators__.add_1/AddV2:0" precision="FP32">
					<dim>1</dim>
					<dim>1</dim>
					<dim>49</dim>
					<dim>49</dim>
				</port>
			</output>
		</layer>
		<layer id="168" name="StatefulPartitionedCall/model/tf.nn.softmax/Softmax" type="SoftMax" version="opset1">
			<data axis="3"/>
			<input>
				<port id="0">
					<dim>1</dim>
					<dim>1</dim>
					<dim>49</dim>
					<dim>49</dim>
				</port>
			</input>
			<output>
				<port id="1" names="StatefulPartitionedCall/model/tf.nn.softmax/Softmax:0" precision="FP32">
					<dim>1</dim>
					<dim>1</dim>
					<dim>49</dim>
					<dim>49</dim>
				</port>
			</output>
		</layer>
		<layer id="169" name="StatefulPartitionedCall/model/dense_4/Tensordot/ReadVariableOp/MinusOne26493_const" type="Const" version="opset1">
			<data element_type="i64" offset="14225932" shape="1" size="8"/>
			<output>
				<port id="0" precision="I64">
					<dim>1</dim>
				</port>
			</output>
		</layer>
		<layer id="170" name="StatefulPartitionedCall/model/dense_4/Tensordot/MatMul/1_port_transpose25738_const" type="Const" version="opset1">
			<data element_type="f32" offset="22004248" shape="128,128" size="65536"/>
			<output>
				<port id="0" names="StatefulPartitionedCall/model/dense_4/Tensordot/ReadVariableOp:0" precision="FP32">
					<dim>128</dim>
					<dim>128</dim>
				</port>
			</output>
		</layer>
		<layer id="171" name="StatefulPartitionedCall/model/dense_4/Tensordot/ReadVariableOp/Shape" type="ShapeOf" version="opset3">
			<data output_type="i64"/>
			<input>
				<port id="0">
					<dim>128</dim>
					<dim>128</dim>
				</port>
			</input>
			<output>
				<port id="1" precision="I64">
					<dim>2</dim>
				</port>
			</output>
		</layer>
		<layer id="172" name="StatefulPartitionedCall/model/dense_4/Tensordot/ReadVariableOp/Shape/Gather/Cast_140216_const" type="Const" version="opset1">
			<data element_type="i32" offset="14291476" shape="1" size="4"/>
			<output>
				<port id="0" precision="I32">
					<dim>1</dim>
				</port>
			</output>
		</layer>
		<layer id="173" name="StatefulPartitionedCall/model/dense_4/Tensordot/ReadVariableOp/Shape/Gather/Cast_240218_const" type="Const" version="opset1">
			<data element_type="i64" offset="14197760" shape="" size="8"/>
			<output>
				<port id="0" precision="I64"/>
			</output>
		</layer>
		<layer id="174" name="StatefulPartitionedCall/model/dense_4/Tensordot/ReadVariableOp/Shape/Gather" type="Gather" version="opset1">
			<input>
				<port id="0">
					<dim>2</dim>
				</port>
				<port id="1">
					<dim>1</dim>
				</port>
				<port id="2"/>
			</input>
			<output>
				<port id="3" precision="I64">
					<dim>1</dim>
				</port>
			</output>
		</layer>
		<layer id="175" name="StatefulPartitionedCall/model/dense_4/Tensordot/ReadVariableOp/MinusOne/shapes_concat" type="Concat" version="opset1">
			<data axis="0"/>
			<input>
				<port id="0">
					<dim>1</dim>
				</port>
				<port id="1">
					<dim>1</dim>
				</port>
			</input>
			<output>
				<port id="2" names="StatefulPartitionedCall/model/dense_4/Tensordot/Reshape/shape:0" precision="I64">
					<dim>2</dim>
				</port>
			</output>
		</layer>
		<layer id="176" name="StatefulPartitionedCall/model/dense_4/Tensordot/Reshape" type="Reshape" version="opset1">
			<data special_zero="false"/>
			<input>
				<port id="0">
					<dim>1</dim>
					<dim>49</dim>
					<dim>128</dim>
				</port>
				<port id="1">
					<dim>2</dim>
				</port>
			</input>
			<output>
				<port id="2" names="StatefulPartitionedCall/model/dense_4/Tensordot/Reshape:0" precision="FP32">
					<dim>49</dim>
					<dim>128</dim>
				</port>
			</output>
		</layer>
		<layer id="177" name="StatefulPartitionedCall/model/dense_4/Tensordot/MatMul" type="MatMul" version="opset1">
			<data transpose_a="false" transpose_b="true"/>
			<input>
				<port id="0">
					<dim>49</dim>
					<dim>128</dim>
				</port>
				<port id="1">
					<dim>128</dim>
					<dim>128</dim>
				</port>
			</input>
			<output>
				<port id="2" names="StatefulPartitionedCall/model/dense_4/Tensordot/MatMul:0" precision="FP32">
					<dim>49</dim>
					<dim>128</dim>
				</port>
			</output>
		</layer>
		<layer id="178" name="StatefulPartitionedCall/model/dense_4/Tensordot/Cast_140062_const" type="Const" version="opset1">
			<data element_type="i64" offset="21937664" shape="3" size="24"/>
			<output>
				<port id="0" names="StatefulPartitionedCall/model/dense_4/Tensordot/shape:0" precision="I64">
					<dim>3</dim>
				</port>
			</output>
		</layer>
		<layer id="179" name="StatefulPartitionedCall/model/dense_4/Tensordot" type="Reshape" version="opset1">
			<data special_zero="false"/>
			<input>
				<port id="0">
					<dim>49</dim>
					<dim>128</dim>
				</port>
				<port id="1">
					<dim>3</dim>
				</port>
			</input>
			<output>
				<port id="2" names="StatefulPartitionedCall/model/dense_4/Tensordot:0" precision="FP32">
					<dim>1</dim>
					<dim>49</dim>
					<dim>128</dim>
				</port>
			</output>
		</layer>
		<layer id="180" name="StatefulPartitionedCall/model/dense_4/BiasAdd/ReadVariableOp/EltwiseUnsqueeze17458_const" type="Const" version="opset1">
			<data element_type="f32" offset="22069784" shape="1,1,128" size="512"/>
			<output>
				<port id="0" names="StatefulPartitionedCall/model/dense_4/BiasAdd/ReadVariableOp:0" precision="FP32">
					<dim>1</dim>
					<dim>1</dim>
					<dim>128</dim>
				</port>
			</output>
		</layer>
		<layer id="181" name="StatefulPartitionedCall/model/dense_4/BiasAdd/Add" type="Add" version="opset1">
			<data auto_broadcast="numpy"/>
			<input>
				<port id="0">
					<dim>1</dim>
					<dim>49</dim>
					<dim>128</dim>
				</port>
				<port id="1">
					<dim>1</dim>
					<dim>1</dim>
					<dim>128</dim>
				</port>
			</input>
			<output>
				<port id="2" names="StatefulPartitionedCall/model/dense_4/BiasAdd:0" precision="FP32">
					<dim>1</dim>
					<dim>49</dim>
					<dim>128</dim>
				</port>
			</output>
		</layer>
		<layer id="182" name="StatefulPartitionedCall/model/tf.reshape_2/Reshape/Cast_140168_const" type="Const" version="opset1">
			<data element_type="i64" offset="14292016" shape="4" size="32"/>
			<output>
				<port id="0" names="StatefulPartitionedCall/model/tf.reshape_2/Reshape/shape:0" precision="I64">
					<dim>4</dim>
				</port>
			</output>
		</layer>
		<layer id="183" name="StatefulPartitionedCall/model/tf.reshape_2/Reshape" type="Reshape" version="opset1">
			<data special_zero="false"/>
			<input>
				<port id="0">
					<dim>1</dim>
					<dim>49</dim>
					<dim>128</dim>
				</port>
				<port id="1">
					<dim>4</dim>
				</port>
			</input>
			<output>
				<port id="2" names="StatefulPartitionedCall/model/tf.reshape_2/Reshape:0" precision="FP32">
					<dim>1</dim>
					<dim>49</dim>
					<dim>1</dim>
					<dim>128</dim>
				</port>
			</output>
		</layer>
		<layer id="184" name="StatefulPartitionedCall/model/tf.compat.v1.transpose_2/transpose/Cast_140154_const" type="Const" version="opset1">
			<data element_type="i64" offset="14292048" shape="4" size="32"/>
			<output>
				<port id="0" names="StatefulPartitionedCall/model/tf.compat.v1.transpose_2/transpose/perm:0" precision="I64">
					<dim>4</dim>
				</port>
			</output>
		</layer>
		<layer id="185" name="StatefulPartitionedCall/model/tf.compat.v1.transpose_2/transpose" type="Transpose" version="opset1">
			<input>
				<port id="0">
					<dim>1</dim>
					<dim>49</dim>
					<dim>1</dim>
					<dim>128</dim>
				</port>
				<port id="1">
					<dim>4</dim>
				</port>
			</input>
			<output>
				<port id="2" names="StatefulPartitionedCall/model/tf.compat.v1.transpose_2/transpose:0" precision="FP32">
					<dim>1</dim>
					<dim>1</dim>
					<dim>49</dim>
					<dim>128</dim>
				</port>
			</output>
		</layer>
		<layer id="186" name="StatefulPartitionedCall/model/tf.linalg.matmul_1/MatMul" type="MatMul" version="opset1">
			<data transpose_a="false" transpose_b="false"/>
			<input>
				<port id="0">
					<dim>1</dim>
					<dim>1</dim>
					<dim>49</dim>
					<dim>49</dim>
				</port>
				<port id="1">
					<dim>1</dim>
					<dim>1</dim>
					<dim>49</dim>
					<dim>128</dim>
				</port>
			</input>
			<output>
				<port id="2" names="StatefulPartitionedCall/model/tf.linalg.matmul_1/MatMul:0" precision="FP32">
					<dim>1</dim>
					<dim>1</dim>
					<dim>49</dim>
					<dim>128</dim>
				</port>
			</output>
		</layer>
		<layer id="187" name="StatefulPartitionedCall/model/tf.compat.v1.transpose_3/transpose/Cast_140338_const" type="Const" version="opset1">
			<data element_type="i64" offset="14292048" shape="4" size="32"/>
			<output>
				<port id="0" names="StatefulPartitionedCall/model/tf.compat.v1.transpose_3/transpose/perm:0" precision="I64">
					<dim>4</dim>
				</port>
			</output>
		</layer>
		<layer id="188" name="StatefulPartitionedCall/model/tf.compat.v1.transpose_3/transpose" type="Transpose" version="opset1">
			<input>
				<port id="0">
					<dim>1</dim>
					<dim>1</dim>
					<dim>49</dim>
					<dim>128</dim>
				</port>
				<port id="1">
					<dim>4</dim>
				</port>
			</input>
			<output>
				<port id="2" names="StatefulPartitionedCall/model/tf.reshape_3/Reshape:0,StatefulPartitionedCall/model/tf.compat.v1.transpose_3/transpose:0" precision="FP32">
					<dim>1</dim>
					<dim>49</dim>
					<dim>1</dim>
					<dim>128</dim>
				</port>
			</output>
		</layer>
		<layer id="189" name="StatefulPartitionedCall/model/dense_5/Tensordot/ReadVariableOp/MinusOne27141_const" type="Const" version="opset1">
			<data element_type="i64" offset="14225932" shape="1" size="8"/>
			<output>
				<port id="0" precision="I64">
					<dim>1</dim>
				</port>
			</output>
		</layer>
		<layer id="190" name="StatefulPartitionedCall/model/dense_5/Tensordot/MatMul/1_port_transpose25710_const" type="Const" version="opset1">
			<data element_type="f32" offset="22070296" shape="128,128" size="65536"/>
			<output>
				<port id="0" names="StatefulPartitionedCall/model/dense_5/Tensordot/ReadVariableOp:0" precision="FP32">
					<dim>128</dim>
					<dim>128</dim>
				</port>
			</output>
		</layer>
		<layer id="191" name="StatefulPartitionedCall/model/dense_5/Tensordot/ReadVariableOp/Shape" type="ShapeOf" version="opset3">
			<data output_type="i64"/>
			<input>
				<port id="0">
					<dim>128</dim>
					<dim>128</dim>
				</port>
			</input>
			<output>
				<port id="1" precision="I64">
					<dim>2</dim>
				</port>
			</output>
		</layer>
		<layer id="192" name="StatefulPartitionedCall/model/dense_5/Tensordot/ReadVariableOp/Shape/Gather/Cast_140090_const" type="Const" version="opset1">
			<data element_type="i32" offset="14291476" shape="1" size="4"/>
			<output>
				<port id="0" precision="I32">
					<dim>1</dim>
				</port>
			</output>
		</layer>
		<layer id="193" name="StatefulPartitionedCall/model/dense_5/Tensordot/ReadVariableOp/Shape/Gather/Cast_240092_const" type="Const" version="opset1">
			<data element_type="i64" offset="14197760" shape="" size="8"/>
			<output>
				<port id="0" precision="I64"/>
			</output>
		</layer>
		<layer id="194" name="StatefulPartitionedCall/model/dense_5/Tensordot/ReadVariableOp/Shape/Gather" type="Gather" version="opset1">
			<input>
				<port id="0">
					<dim>2</dim>
				</port>
				<port id="1">
					<dim>1</dim>
				</port>
				<port id="2"/>
			</input>
			<output>
				<port id="3" precision="I64">
					<dim>1</dim>
				</port>
			</output>
		</layer>
		<layer id="195" name="StatefulPartitionedCall/model/dense_5/Tensordot/ReadVariableOp/MinusOne/shapes_concat" type="Concat" version="opset1">
			<data axis="0"/>
			<input>
				<port id="0">
					<dim>1</dim>
				</port>
				<port id="1">
					<dim>1</dim>
				</port>
			</input>
			<output>
				<port id="2" names="StatefulPartitionedCall/model/dense_5/Tensordot/Reshape/shape:0" precision="I64">
					<dim>2</dim>
				</port>
			</output>
		</layer>
		<layer id="196" name="StatefulPartitionedCall/model/dense_5/Tensordot/Reshape" type="Reshape" version="opset1">
			<data special_zero="false"/>
			<input>
				<port id="0">
					<dim>1</dim>
					<dim>49</dim>
					<dim>1</dim>
					<dim>128</dim>
				</port>
				<port id="1">
					<dim>2</dim>
				</port>
			</input>
			<output>
				<port id="2" names="StatefulPartitionedCall/model/dense_5/Tensordot/Reshape:0" precision="FP32">
					<dim>49</dim>
					<dim>128</dim>
				</port>
			</output>
		</layer>
		<layer id="197" name="StatefulPartitionedCall/model/dense_5/Tensordot/MatMul" type="MatMul" version="opset1">
			<data transpose_a="false" transpose_b="true"/>
			<input>
				<port id="0">
					<dim>49</dim>
					<dim>128</dim>
				</port>
				<port id="1">
					<dim>128</dim>
					<dim>128</dim>
				</port>
			</input>
			<output>
				<port id="2" names="StatefulPartitionedCall/model/dense_5/Tensordot/MatMul:0" precision="FP32">
					<dim>49</dim>
					<dim>128</dim>
				</port>
			</output>
		</layer>
		<layer id="198" name="StatefulPartitionedCall/model/dense_5/Tensordot/Cast_140332_const" type="Const" version="opset1">
			<data element_type="i64" offset="21937664" shape="3" size="24"/>
			<output>
				<port id="0" names="StatefulPartitionedCall/model/dense_5/Tensordot/shape:0" precision="I64">
					<dim>3</dim>
				</port>
			</output>
		</layer>
		<layer id="199" name="StatefulPartitionedCall/model/dense_5/Tensordot" type="Reshape" version="opset1">
			<data special_zero="false"/>
			<input>
				<port id="0">
					<dim>49</dim>
					<dim>128</dim>
				</port>
				<port id="1">
					<dim>3</dim>
				</port>
			</input>
			<output>
				<port id="2" names="StatefulPartitionedCall/model/dense_5/Tensordot:0" precision="FP32">
					<dim>1</dim>
					<dim>49</dim>
					<dim>128</dim>
				</port>
			</output>
		</layer>
		<layer id="200" name="StatefulPartitionedCall/model/dense_5/BiasAdd/ReadVariableOp/EltwiseUnsqueeze17670_const" type="Const" version="opset1">
			<data element_type="f32" offset="22135832" shape="1,1,128" size="512"/>
			<output>
				<port id="0" names="StatefulPartitionedCall/model/dense_5/BiasAdd/ReadVariableOp:0" precision="FP32">
					<dim>1</dim>
					<dim>1</dim>
					<dim>128</dim>
				</port>
			</output>
		</layer>
		<layer id="201" name="StatefulPartitionedCall/model/dense_5/BiasAdd/Add" type="Add" version="opset1">
			<data auto_broadcast="numpy"/>
			<input>
				<port id="0">
					<dim>1</dim>
					<dim>49</dim>
					<dim>128</dim>
				</port>
				<port id="1">
					<dim>1</dim>
					<dim>1</dim>
					<dim>128</dim>
				</port>
			</input>
			<output>
				<port id="2" names="StatefulPartitionedCall/model/dropout_1/Identity:0,StatefulPartitionedCall/model/dense_5/BiasAdd:0" precision="FP32">
					<dim>1</dim>
					<dim>49</dim>
					<dim>128</dim>
				</port>
			</output>
		</layer>
		<layer id="202" name="StatefulPartitionedCall/model/tf.__operators__.add_2/AddV2" type="Add" version="opset1">
			<data auto_broadcast="numpy"/>
			<input>
				<port id="0">
					<dim>1</dim>
					<dim>49</dim>
					<dim>128</dim>
				</port>
				<port id="1">
					<dim>1</dim>
					<dim>49</dim>
					<dim>128</dim>
				</port>
			</input>
			<output>
				<port id="2" names="StatefulPartitionedCall/model/tf.__operators__.add_2/AddV2:0" precision="FP32">
					<dim>1</dim>
					<dim>49</dim>
					<dim>128</dim>
				</port>
			</output>
		</layer>
		<layer id="203" name="StatefulPartitionedCall/model/batch_normalization/batchnorm/mul/EltwiseUnsqueeze17254_const" type="Const" version="opset1">
			<data element_type="f32" offset="22136344" shape="1,1,128" size="512"/>
			<output>
				<port id="0" names="StatefulPartitionedCall/model/batch_normalization/batchnorm/mul:0" precision="FP32">
					<dim>1</dim>
					<dim>1</dim>
					<dim>128</dim>
				</port>
			</output>
		</layer>
		<layer id="204" name="StatefulPartitionedCall/model/batch_normalization/batchnorm/mul_1" type="Multiply" version="opset1">
			<data auto_broadcast="numpy"/>
			<input>
				<port id="0">
					<dim>1</dim>
					<dim>49</dim>
					<dim>128</dim>
				</port>
				<port id="1">
					<dim>1</dim>
					<dim>1</dim>
					<dim>128</dim>
				</port>
			</input>
			<output>
				<port id="2" names="StatefulPartitionedCall/model/batch_normalization/batchnorm/mul_1:0" precision="FP32">
					<dim>1</dim>
					<dim>49</dim>
					<dim>128</dim>
				</port>
			</output>
		</layer>
		<layer id="205" name="StatefulPartitionedCall/model/batch_normalization/batchnorm/sub/EltwiseUnsqueeze17258_const" type="Const" version="opset1">
			<data element_type="f32" offset="22136856" shape="1,1,128" size="512"/>
			<output>
				<port id="0" names="StatefulPartitionedCall/model/batch_normalization/batchnorm/sub:0" precision="FP32">
					<dim>1</dim>
					<dim>1</dim>
					<dim>128</dim>
				</port>
			</output>
		</layer>
		<layer id="206" name="StatefulPartitionedCall/model/batch_normalization/batchnorm/add_1" type="Add" version="opset1">
			<data auto_broadcast="numpy"/>
			<input>
				<port id="0">
					<dim>1</dim>
					<dim>49</dim>
					<dim>128</dim>
				</port>
				<port id="1">
					<dim>1</dim>
					<dim>1</dim>
					<dim>128</dim>
				</port>
			</input>
			<output>
				<port id="2" names="StatefulPartitionedCall/model/batch_normalization/batchnorm/add_1:0" precision="FP32">
					<dim>1</dim>
					<dim>49</dim>
					<dim>128</dim>
				</port>
			</output>
		</layer>
		<layer id="207" name="StatefulPartitionedCall/model/sequential/dense_6/Tensordot/ReadVariableOp/MinusOne26841_const" type="Const" version="opset1">
			<data element_type="i64" offset="14225932" shape="1" size="8"/>
			<output>
				<port id="0" precision="I64">
					<dim>1</dim>
				</port>
			</output>
		</layer>
		<layer id="208" name="StatefulPartitionedCall/model/sequential/dense_6/Tensordot/MatMul/1_port_transpose25914_const" type="Const" version="opset1">
			<data element_type="f32" offset="22137368" shape="512,128" size="262144"/>
			<output>
				<port id="0" names="StatefulPartitionedCall/model/sequential/dense_6/Tensordot/ReadVariableOp:0" precision="FP32">
					<dim>512</dim>
					<dim>128</dim>
				</port>
			</output>
		</layer>
		<layer id="209" name="StatefulPartitionedCall/model/sequential/dense_6/Tensordot/ReadVariableOp/Shape" type="ShapeOf" version="opset3">
			<data output_type="i64"/>
			<input>
				<port id="0">
					<dim>512</dim>
					<dim>128</dim>
				</port>
			</input>
			<output>
				<port id="1" precision="I64">
					<dim>2</dim>
				</port>
			</output>
		</layer>
		<layer id="210" name="StatefulPartitionedCall/model/sequential/dense_6/Tensordot/ReadVariableOp/Shape/Gather/Cast_140310_const" type="Const" version="opset1">
			<data element_type="i32" offset="14291476" shape="1" size="4"/>
			<output>
				<port id="0" precision="I32">
					<dim>1</dim>
				</port>
			</output>
		</layer>
		<layer id="211" name="StatefulPartitionedCall/model/sequential/dense_6/Tensordot/ReadVariableOp/Shape/Gather/Cast_240312_const" type="Const" version="opset1">
			<data element_type="i64" offset="14197760" shape="" size="8"/>
			<output>
				<port id="0" precision="I64"/>
			</output>
		</layer>
		<layer id="212" name="StatefulPartitionedCall/model/sequential/dense_6/Tensordot/ReadVariableOp/Shape/Gather" type="Gather" version="opset1">
			<input>
				<port id="0">
					<dim>2</dim>
				</port>
				<port id="1">
					<dim>1</dim>
				</port>
				<port id="2"/>
			</input>
			<output>
				<port id="3" precision="I64">
					<dim>1</dim>
				</port>
			</output>
		</layer>
		<layer id="213" name="StatefulPartitionedCall/model/sequential/dense_6/Tensordot/ReadVariableOp/MinusOne/shapes_concat" type="Concat" version="opset1">
			<data axis="0"/>
			<input>
				<port id="0">
					<dim>1</dim>
				</port>
				<port id="1">
					<dim>1</dim>
				</port>
			</input>
			<output>
				<port id="2" names="StatefulPartitionedCall/model/sequential/dense_6/Tensordot/Reshape/shape:0" precision="I64">
					<dim>2</dim>
				</port>
			</output>
		</layer>
		<layer id="214" name="StatefulPartitionedCall/model/sequential/dense_6/Tensordot/Reshape" type="Reshape" version="opset1">
			<data special_zero="false"/>
			<input>
				<port id="0">
					<dim>1</dim>
					<dim>49</dim>
					<dim>128</dim>
				</port>
				<port id="1">
					<dim>2</dim>
				</port>
			</input>
			<output>
				<port id="2" names="StatefulPartitionedCall/model/sequential/dense_6/Tensordot/Reshape:0" precision="FP32">
					<dim>49</dim>
					<dim>128</dim>
				</port>
			</output>
		</layer>
		<layer id="215" name="StatefulPartitionedCall/model/sequential/dense_6/Tensordot/MatMul" type="MatMul" version="opset1">
			<data transpose_a="false" transpose_b="true"/>
			<input>
				<port id="0">
					<dim>49</dim>
					<dim>128</dim>
				</port>
				<port id="1">
					<dim>512</dim>
					<dim>128</dim>
				</port>
			</input>
			<output>
				<port id="2" names="StatefulPartitionedCall/model/sequential/dense_6/Tensordot/MatMul:0" precision="FP32">
					<dim>49</dim>
					<dim>512</dim>
				</port>
			</output>
		</layer>
		<layer id="216" name="StatefulPartitionedCall/model/sequential/dense_6/Tensordot/Cast_140482_const" type="Const" version="opset1">
			<data element_type="i64" offset="22399512" shape="3" size="24"/>
			<output>
				<port id="0" names="StatefulPartitionedCall/model/sequential/dense_6/Tensordot/shape:0" precision="I64">
					<dim>3</dim>
				</port>
			</output>
		</layer>
		<layer id="217" name="StatefulPartitionedCall/model/sequential/dense_6/Tensordot" type="Reshape" version="opset1">
			<data special_zero="false"/>
			<input>
				<port id="0">
					<dim>49</dim>
					<dim>512</dim>
				</port>
				<port id="1">
					<dim>3</dim>
				</port>
			</input>
			<output>
				<port id="2" names="StatefulPartitionedCall/model/sequential/dense_6/Tensordot:0" precision="FP32">
					<dim>1</dim>
					<dim>49</dim>
					<dim>512</dim>
				</port>
			</output>
		</layer>
		<layer id="218" name="StatefulPartitionedCall/model/sequential/dense_6/BiasAdd/ReadVariableOp/EltwiseUnsqueeze17582_const" type="Const" version="opset1">
			<data element_type="f32" offset="22399536" shape="1,1,512" size="2048"/>
			<output>
				<port id="0" names="StatefulPartitionedCall/model/sequential/dense_6/BiasAdd/ReadVariableOp:0" precision="FP32">
					<dim>1</dim>
					<dim>1</dim>
					<dim>512</dim>
				</port>
			</output>
		</layer>
		<layer id="219" name="StatefulPartitionedCall/model/sequential/dense_6/BiasAdd/Add" type="Add" version="opset1">
			<data auto_broadcast="numpy"/>
			<input>
				<port id="0">
					<dim>1</dim>
					<dim>49</dim>
					<dim>512</dim>
				</port>
				<port id="1">
					<dim>1</dim>
					<dim>1</dim>
					<dim>512</dim>
				</port>
			</input>
			<output>
				<port id="2" names="StatefulPartitionedCall/model/sequential/dense_6/BiasAdd:0" precision="FP32">
					<dim>1</dim>
					<dim>49</dim>
					<dim>512</dim>
				</port>
			</output>
		</layer>
		<layer id="220" name="StatefulPartitionedCall/model/sequential/dense_6/Relu" type="ReLU" version="opset1">
			<input>
				<port id="0">
					<dim>1</dim>
					<dim>49</dim>
					<dim>512</dim>
				</port>
			</input>
			<output>
				<port id="1" names="StatefulPartitionedCall/model/sequential/dense_6/Relu:0" precision="FP32">
					<dim>1</dim>
					<dim>49</dim>
					<dim>512</dim>
				</port>
			</output>
		</layer>
		<layer id="221" name="StatefulPartitionedCall/model/sequential/dense_7/Tensordot/ReadVariableOp/MinusOne26829_const" type="Const" version="opset1">
			<data element_type="i64" offset="14225932" shape="1" size="8"/>
			<output>
				<port id="0" precision="I64">
					<dim>1</dim>
				</port>
			</output>
		</layer>
		<layer id="222" name="StatefulPartitionedCall/model/sequential/dense_7/Tensordot/MatMul/1_port_transpose25778_const" type="Const" version="opset1">
			<data element_type="f32" offset="22401584" shape="128,512" size="262144"/>
			<output>
				<port id="0" names="StatefulPartitionedCall/model/sequential/dense_7/Tensordot/ReadVariableOp:0" precision="FP32">
					<dim>128</dim>
					<dim>512</dim>
				</port>
			</output>
		</layer>
		<layer id="223" name="StatefulPartitionedCall/model/sequential/dense_7/Tensordot/ReadVariableOp/Shape" type="ShapeOf" version="opset3">
			<data output_type="i64"/>
			<input>
				<port id="0">
					<dim>128</dim>
					<dim>512</dim>
				</port>
			</input>
			<output>
				<port id="1" precision="I64">
					<dim>2</dim>
				</port>
			</output>
		</layer>
		<layer id="224" name="StatefulPartitionedCall/model/sequential/dense_7/Tensordot/ReadVariableOp/Shape/Gather/Cast_140052_const" type="Const" version="opset1">
			<data element_type="i32" offset="14291476" shape="1" size="4"/>
			<output>
				<port id="0" precision="I32">
					<dim>1</dim>
				</port>
			</output>
		</layer>
		<layer id="225" name="StatefulPartitionedCall/model/sequential/dense_7/Tensordot/ReadVariableOp/Shape/Gather/Cast_240054_const" type="Const" version="opset1">
			<data element_type="i64" offset="14197760" shape="" size="8"/>
			<output>
				<port id="0" precision="I64"/>
			</output>
		</layer>
		<layer id="226" name="StatefulPartitionedCall/model/sequential/dense_7/Tensordot/ReadVariableOp/Shape/Gather" type="Gather" version="opset1">
			<input>
				<port id="0">
					<dim>2</dim>
				</port>
				<port id="1">
					<dim>1</dim>
				</port>
				<port id="2"/>
			</input>
			<output>
				<port id="3" precision="I64">
					<dim>1</dim>
				</port>
			</output>
		</layer>
		<layer id="227" name="StatefulPartitionedCall/model/sequential/dense_7/Tensordot/ReadVariableOp/MinusOne/shapes_concat" type="Concat" version="opset1">
			<data axis="0"/>
			<input>
				<port id="0">
					<dim>1</dim>
				</port>
				<port id="1">
					<dim>1</dim>
				</port>
			</input>
			<output>
				<port id="2" names="StatefulPartitionedCall/model/sequential/dense_7/Tensordot/Reshape/shape:0" precision="I64">
					<dim>2</dim>
				</port>
			</output>
		</layer>
		<layer id="228" name="StatefulPartitionedCall/model/sequential/dense_7/Tensordot/Reshape" type="Reshape" version="opset1">
			<data special_zero="false"/>
			<input>
				<port id="0">
					<dim>1</dim>
					<dim>49</dim>
					<dim>512</dim>
				</port>
				<port id="1">
					<dim>2</dim>
				</port>
			</input>
			<output>
				<port id="2" names="StatefulPartitionedCall/model/sequential/dense_7/Tensordot/Reshape:0" precision="FP32">
					<dim>49</dim>
					<dim>512</dim>
				</port>
			</output>
		</layer>
		<layer id="229" name="StatefulPartitionedCall/model/sequential/dense_7/Tensordot/MatMul" type="MatMul" version="opset1">
			<data transpose_a="false" transpose_b="true"/>
			<input>
				<port id="0">
					<dim>49</dim>
					<dim>512</dim>
				</port>
				<port id="1">
					<dim>128</dim>
					<dim>512</dim>
				</port>
			</input>
			<output>
				<port id="2" names="StatefulPartitionedCall/model/sequential/dense_7/Tensordot/MatMul:0" precision="FP32">
					<dim>49</dim>
					<dim>128</dim>
				</port>
			</output>
		</layer>
		<layer id="230" name="StatefulPartitionedCall/model/sequential/dense_7/Tensordot/Cast_140382_const" type="Const" version="opset1">
			<data element_type="i64" offset="21937664" shape="3" size="24"/>
			<output>
				<port id="0" names="StatefulPartitionedCall/model/sequential/dense_7/Tensordot/shape:0" precision="I64">
					<dim>3</dim>
				</port>
			</output>
		</layer>
		<layer id="231" name="StatefulPartitionedCall/model/sequential/dense_7/Tensordot" type="Reshape" version="opset1">
			<data special_zero="false"/>
			<input>
				<port id="0">
					<dim>49</dim>
					<dim>128</dim>
				</port>
				<port id="1">
					<dim>3</dim>
				</port>
			</input>
			<output>
				<port id="2" names="StatefulPartitionedCall/model/sequential/dense_7/Tensordot:0" precision="FP32">
					<dim>1</dim>
					<dim>49</dim>
					<dim>128</dim>
				</port>
			</output>
		</layer>
		<layer id="232" name="StatefulPartitionedCall/model/sequential/dense_7/BiasAdd/ReadVariableOp/EltwiseUnsqueeze17586_const" type="Const" version="opset1">
			<data element_type="f32" offset="22663728" shape="1,1,128" size="512"/>
			<output>
				<port id="0" names="StatefulPartitionedCall/model/sequential/dense_7/BiasAdd/ReadVariableOp:0" precision="FP32">
					<dim>1</dim>
					<dim>1</dim>
					<dim>128</dim>
				</port>
			</output>
		</layer>
		<layer id="233" name="StatefulPartitionedCall/model/sequential/dense_7/BiasAdd/Add" type="Add" version="opset1">
			<data auto_broadcast="numpy"/>
			<input>
				<port id="0">
					<dim>1</dim>
					<dim>49</dim>
					<dim>128</dim>
				</port>
				<port id="1">
					<dim>1</dim>
					<dim>1</dim>
					<dim>128</dim>
				</port>
			</input>
			<output>
				<port id="2" names="StatefulPartitionedCall/model/dropout_2/Identity:0,StatefulPartitionedCall/model/sequential/dense_7/BiasAdd:0" precision="FP32">
					<dim>1</dim>
					<dim>49</dim>
					<dim>128</dim>
				</port>
			</output>
		</layer>
		<layer id="234" name="StatefulPartitionedCall/model/tf.__operators__.add_3/AddV2" type="Add" version="opset1">
			<data auto_broadcast="numpy"/>
			<input>
				<port id="0">
					<dim>1</dim>
					<dim>49</dim>
					<dim>128</dim>
				</port>
				<port id="1">
					<dim>1</dim>
					<dim>49</dim>
					<dim>128</dim>
				</port>
			</input>
			<output>
				<port id="2" names="StatefulPartitionedCall/model/tf.__operators__.add_3/AddV2:0" precision="FP32">
					<dim>1</dim>
					<dim>49</dim>
					<dim>128</dim>
				</port>
			</output>
		</layer>
		<layer id="235" name="StatefulPartitionedCall/model/batch_normalization_1/batchnorm/mul/EltwiseUnsqueeze17262_const" type="Const" version="opset1">
			<data element_type="f32" offset="22664240" shape="1,1,128" size="512"/>
			<output>
				<port id="0" names="StatefulPartitionedCall/model/batch_normalization_1/batchnorm/mul:0" precision="FP32">
					<dim>1</dim>
					<dim>1</dim>
					<dim>128</dim>
				</port>
			</output>
		</layer>
		<layer id="236" name="StatefulPartitionedCall/model/batch_normalization_1/batchnorm/mul_1" type="Multiply" version="opset1">
			<data auto_broadcast="numpy"/>
			<input>
				<port id="0">
					<dim>1</dim>
					<dim>49</dim>
					<dim>128</dim>
				</port>
				<port id="1">
					<dim>1</dim>
					<dim>1</dim>
					<dim>128</dim>
				</port>
			</input>
			<output>
				<port id="2" names="StatefulPartitionedCall/model/batch_normalization_1/batchnorm/mul_1:0" precision="FP32">
					<dim>1</dim>
					<dim>49</dim>
					<dim>128</dim>
				</port>
			</output>
		</layer>
		<layer id="237" name="StatefulPartitionedCall/model/batch_normalization_1/batchnorm/sub/EltwiseUnsqueeze17266_const" type="Const" version="opset1">
			<data element_type="f32" offset="22664752" shape="1,1,128" size="512"/>
			<output>
				<port id="0" names="StatefulPartitionedCall/model/batch_normalization_1/batchnorm/sub:0" precision="FP32">
					<dim>1</dim>
					<dim>1</dim>
					<dim>128</dim>
				</port>
			</output>
		</layer>
		<layer id="238" name="StatefulPartitionedCall/model/batch_normalization_1/batchnorm/add_1" type="Add" version="opset1">
			<data auto_broadcast="numpy"/>
			<input>
				<port id="0">
					<dim>1</dim>
					<dim>49</dim>
					<dim>128</dim>
				</port>
				<port id="1">
					<dim>1</dim>
					<dim>1</dim>
					<dim>128</dim>
				</port>
			</input>
			<output>
				<port id="2" names="StatefulPartitionedCall/model/batch_normalization_1/batchnorm/add_1:0" precision="FP32">
					<dim>1</dim>
					<dim>49</dim>
					<dim>128</dim>
				</port>
			</output>
		</layer>
		<layer id="239" name="StatefulPartitionedCall/model/dense_10/Tensordot/ReadVariableOp/MinusOne26565_const" type="Const" version="opset1">
			<data element_type="i64" offset="14225932" shape="1" size="8"/>
			<output>
				<port id="0" precision="I64">
					<dim>1</dim>
				</port>
			</output>
		</layer>
		<layer id="240" name="StatefulPartitionedCall/model/dense_10/Tensordot/MatMul/1_port_transpose25814_const" type="Const" version="opset1">
			<data element_type="f32" offset="22665264" shape="128,128" size="65536"/>
			<output>
				<port id="0" names="StatefulPartitionedCall/model/dense_10/Tensordot/ReadVariableOp:0" precision="FP32">
					<dim>128</dim>
					<dim>128</dim>
				</port>
			</output>
		</layer>
		<layer id="241" name="StatefulPartitionedCall/model/dense_10/Tensordot/ReadVariableOp/Shape" type="ShapeOf" version="opset3">
			<data output_type="i64"/>
			<input>
				<port id="0">
					<dim>128</dim>
					<dim>128</dim>
				</port>
			</input>
			<output>
				<port id="1" precision="I64">
					<dim>2</dim>
				</port>
			</output>
		</layer>
		<layer id="242" name="StatefulPartitionedCall/model/dense_10/Tensordot/ReadVariableOp/Shape/Gather/Cast_140430_const" type="Const" version="opset1">
			<data element_type="i32" offset="14291476" shape="1" size="4"/>
			<output>
				<port id="0" precision="I32">
					<dim>1</dim>
				</port>
			</output>
		</layer>
		<layer id="243" name="StatefulPartitionedCall/model/dense_10/Tensordot/ReadVariableOp/Shape/Gather/Cast_240432_const" type="Const" version="opset1">
			<data element_type="i64" offset="14197760" shape="" size="8"/>
			<output>
				<port id="0" precision="I64"/>
			</output>
		</layer>
		<layer id="244" name="StatefulPartitionedCall/model/dense_10/Tensordot/ReadVariableOp/Shape/Gather" type="Gather" version="opset1">
			<input>
				<port id="0">
					<dim>2</dim>
				</port>
				<port id="1">
					<dim>1</dim>
				</port>
				<port id="2"/>
			</input>
			<output>
				<port id="3" precision="I64">
					<dim>1</dim>
				</port>
			</output>
		</layer>
		<layer id="245" name="StatefulPartitionedCall/model/dense_10/Tensordot/ReadVariableOp/MinusOne/shapes_concat" type="Concat" version="opset1">
			<data axis="0"/>
			<input>
				<port id="0">
					<dim>1</dim>
				</port>
				<port id="1">
					<dim>1</dim>
				</port>
			</input>
			<output>
				<port id="2" names="StatefulPartitionedCall/model/dense_10/Tensordot/Reshape/shape:0" precision="I64">
					<dim>2</dim>
				</port>
			</output>
		</layer>
		<layer id="246" name="StatefulPartitionedCall/model/dense_10/Tensordot/Reshape" type="Reshape" version="opset1">
			<data special_zero="false"/>
			<input>
				<port id="0">
					<dim>1</dim>
					<dim>49</dim>
					<dim>128</dim>
				</port>
				<port id="1">
					<dim>2</dim>
				</port>
			</input>
			<output>
				<port id="2" names="StatefulPartitionedCall/model/dense_10/Tensordot/Reshape:0" precision="FP32">
					<dim>49</dim>
					<dim>128</dim>
				</port>
			</output>
		</layer>
		<layer id="247" name="StatefulPartitionedCall/model/dense_10/Tensordot/MatMul" type="MatMul" version="opset1">
			<data transpose_a="false" transpose_b="true"/>
			<input>
				<port id="0">
					<dim>49</dim>
					<dim>128</dim>
				</port>
				<port id="1">
					<dim>128</dim>
					<dim>128</dim>
				</port>
			</input>
			<output>
				<port id="2" names="StatefulPartitionedCall/model/dense_10/Tensordot/MatMul:0" precision="FP32">
					<dim>49</dim>
					<dim>128</dim>
				</port>
			</output>
		</layer>
		<layer id="248" name="StatefulPartitionedCall/model/dense_10/Tensordot/Cast_140100_const" type="Const" version="opset1">
			<data element_type="i64" offset="21937664" shape="3" size="24"/>
			<output>
				<port id="0" names="StatefulPartitionedCall/model/dense_10/Tensordot/shape:0" precision="I64">
					<dim>3</dim>
				</port>
			</output>
		</layer>
		<layer id="249" name="StatefulPartitionedCall/model/dense_10/Tensordot" type="Reshape" version="opset1">
			<data special_zero="false"/>
			<input>
				<port id="0">
					<dim>49</dim>
					<dim>128</dim>
				</port>
				<port id="1">
					<dim>3</dim>
				</port>
			</input>
			<output>
				<port id="2" names="StatefulPartitionedCall/model/dense_10/Tensordot:0" precision="FP32">
					<dim>1</dim>
					<dim>49</dim>
					<dim>128</dim>
				</port>
			</output>
		</layer>
		<layer id="250" name="StatefulPartitionedCall/model/dense_10/BiasAdd/ReadVariableOp/EltwiseUnsqueeze17510_const" type="Const" version="opset1">
			<data element_type="f32" offset="22730800" shape="1,1,128" size="512"/>
			<output>
				<port id="0" names="StatefulPartitionedCall/model/dense_10/BiasAdd/ReadVariableOp:0" precision="FP32">
					<dim>1</dim>
					<dim>1</dim>
					<dim>128</dim>
				</port>
			</output>
		</layer>
		<layer id="251" name="StatefulPartitionedCall/model/dense_10/BiasAdd/Add" type="Add" version="opset1">
			<data auto_broadcast="numpy"/>
			<input>
				<port id="0">
					<dim>1</dim>
					<dim>49</dim>
					<dim>128</dim>
				</port>
				<port id="1">
					<dim>1</dim>
					<dim>1</dim>
					<dim>128</dim>
				</port>
			</input>
			<output>
				<port id="2" names="StatefulPartitionedCall/model/dense_10/BiasAdd:0" precision="FP32">
					<dim>1</dim>
					<dim>49</dim>
					<dim>128</dim>
				</port>
			</output>
		</layer>
		<layer id="252" name="StatefulPartitionedCall/model/tf.reshape_4/Reshape/Cast_140550_const" type="Const" version="opset1">
			<data element_type="i64" offset="14292016" shape="4" size="32"/>
			<output>
				<port id="0" names="StatefulPartitionedCall/model/tf.reshape_4/Reshape/shape:0" precision="I64">
					<dim>4</dim>
				</port>
			</output>
		</layer>
		<layer id="253" name="StatefulPartitionedCall/model/tf.reshape_4/Reshape" type="Reshape" version="opset1">
			<data special_zero="false"/>
			<input>
				<port id="0">
					<dim>1</dim>
					<dim>49</dim>
					<dim>128</dim>
				</port>
				<port id="1">
					<dim>4</dim>
				</port>
			</input>
			<output>
				<port id="2" names="StatefulPartitionedCall/model/tf.reshape_4/Reshape:0" precision="FP32">
					<dim>1</dim>
					<dim>49</dim>
					<dim>1</dim>
					<dim>128</dim>
				</port>
			</output>
		</layer>
		<layer id="254" name="StatefulPartitionedCall/model/tf.compat.v1.transpose_4/transpose/Cast_140656_const" type="Const" version="opset1">
			<data element_type="i64" offset="14292048" shape="4" size="32"/>
			<output>
				<port id="0" names="StatefulPartitionedCall/model/tf.compat.v1.transpose_4/transpose/perm:0" precision="I64">
					<dim>4</dim>
				</port>
			</output>
		</layer>
		<layer id="255" name="StatefulPartitionedCall/model/tf.compat.v1.transpose_4/transpose" type="Transpose" version="opset1">
			<input>
				<port id="0">
					<dim>1</dim>
					<dim>49</dim>
					<dim>1</dim>
					<dim>128</dim>
				</port>
				<port id="1">
					<dim>4</dim>
				</port>
			</input>
			<output>
				<port id="2" names="StatefulPartitionedCall/model/tf.compat.v1.transpose_4/transpose:0" precision="FP32">
					<dim>1</dim>
					<dim>1</dim>
					<dim>49</dim>
					<dim>128</dim>
				</port>
			</output>
		</layer>
		<layer id="256" name="StatefulPartitionedCall/model/dense_11/Tensordot/ReadVariableOp/MinusOne27165_const" type="Const" version="opset1">
			<data element_type="i64" offset="14225932" shape="1" size="8"/>
			<output>
				<port id="0" precision="I64">
					<dim>1</dim>
				</port>
			</output>
		</layer>
		<layer id="257" name="StatefulPartitionedCall/model/dense_11/Tensordot/MatMul/1_port_transpose25846_const" type="Const" version="opset1">
			<data element_type="f32" offset="22731312" shape="128,128" size="65536"/>
			<output>
				<port id="0" names="StatefulPartitionedCall/model/dense_11/Tensordot/ReadVariableOp:0" precision="FP32">
					<dim>128</dim>
					<dim>128</dim>
				</port>
			</output>
		</layer>
		<layer id="258" name="StatefulPartitionedCall/model/dense_11/Tensordot/ReadVariableOp/Shape" type="ShapeOf" version="opset3">
			<data output_type="i64"/>
			<input>
				<port id="0">
					<dim>128</dim>
					<dim>128</dim>
				</port>
			</input>
			<output>
				<port id="1" precision="I64">
					<dim>2</dim>
				</port>
			</output>
		</layer>
		<layer id="259" name="StatefulPartitionedCall/model/dense_11/Tensordot/ReadVariableOp/Shape/Gather/Cast_140520_const" type="Const" version="opset1">
			<data element_type="i32" offset="14291476" shape="1" size="4"/>
			<output>
				<port id="0" precision="I32">
					<dim>1</dim>
				</port>
			</output>
		</layer>
		<layer id="260" name="StatefulPartitionedCall/model/dense_11/Tensordot/ReadVariableOp/Shape/Gather/Cast_240522_const" type="Const" version="opset1">
			<data element_type="i64" offset="14197760" shape="" size="8"/>
			<output>
				<port id="0" precision="I64"/>
			</output>
		</layer>
		<layer id="261" name="StatefulPartitionedCall/model/dense_11/Tensordot/ReadVariableOp/Shape/Gather" type="Gather" version="opset1">
			<input>
				<port id="0">
					<dim>2</dim>
				</port>
				<port id="1">
					<dim>1</dim>
				</port>
				<port id="2"/>
			</input>
			<output>
				<port id="3" precision="I64">
					<dim>1</dim>
				</port>
			</output>
		</layer>
		<layer id="262" name="StatefulPartitionedCall/model/dense_11/Tensordot/ReadVariableOp/MinusOne/shapes_concat" type="Concat" version="opset1">
			<data axis="0"/>
			<input>
				<port id="0">
					<dim>1</dim>
				</port>
				<port id="1">
					<dim>1</dim>
				</port>
			</input>
			<output>
				<port id="2" names="StatefulPartitionedCall/model/dense_11/Tensordot/Reshape/shape:0" precision="I64">
					<dim>2</dim>
				</port>
			</output>
		</layer>
		<layer id="263" name="StatefulPartitionedCall/model/dense_11/Tensordot/Reshape" type="Reshape" version="opset1">
			<data special_zero="false"/>
			<input>
				<port id="0">
					<dim>1</dim>
					<dim>49</dim>
					<dim>128</dim>
				</port>
				<port id="1">
					<dim>2</dim>
				</port>
			</input>
			<output>
				<port id="2" names="StatefulPartitionedCall/model/dense_11/Tensordot/Reshape:0" precision="FP32">
					<dim>49</dim>
					<dim>128</dim>
				</port>
			</output>
		</layer>
		<layer id="264" name="StatefulPartitionedCall/model/dense_11/Tensordot/MatMul" type="MatMul" version="opset1">
			<data transpose_a="false" transpose_b="true"/>
			<input>
				<port id="0">
					<dim>49</dim>
					<dim>128</dim>
				</port>
				<port id="1">
					<dim>128</dim>
					<dim>128</dim>
				</port>
			</input>
			<output>
				<port id="2" names="StatefulPartitionedCall/model/dense_11/Tensordot/MatMul:0" precision="FP32">
					<dim>49</dim>
					<dim>128</dim>
				</port>
			</output>
		</layer>
		<layer id="265" name="StatefulPartitionedCall/model/dense_11/Tensordot/Cast_140362_const" type="Const" version="opset1">
			<data element_type="i64" offset="21937664" shape="3" size="24"/>
			<output>
				<port id="0" names="StatefulPartitionedCall/model/dense_11/Tensordot/shape:0" precision="I64">
					<dim>3</dim>
				</port>
			</output>
		</layer>
		<layer id="266" name="StatefulPartitionedCall/model/dense_11/Tensordot" type="Reshape" version="opset1">
			<data special_zero="false"/>
			<input>
				<port id="0">
					<dim>49</dim>
					<dim>128</dim>
				</port>
				<port id="1">
					<dim>3</dim>
				</port>
			</input>
			<output>
				<port id="2" names="StatefulPartitionedCall/model/dense_11/Tensordot:0" precision="FP32">
					<dim>1</dim>
					<dim>49</dim>
					<dim>128</dim>
				</port>
			</output>
		</layer>
		<layer id="267" name="StatefulPartitionedCall/model/dense_11/BiasAdd/ReadVariableOp/EltwiseUnsqueeze17686_const" type="Const" version="opset1">
			<data element_type="f32" offset="22796848" shape="1,1,128" size="512"/>
			<output>
				<port id="0" names="StatefulPartitionedCall/model/dense_11/BiasAdd/ReadVariableOp:0" precision="FP32">
					<dim>1</dim>
					<dim>1</dim>
					<dim>128</dim>
				</port>
			</output>
		</layer>
		<layer id="268" name="StatefulPartitionedCall/model/dense_11/BiasAdd/Add" type="Add" version="opset1">
			<data auto_broadcast="numpy"/>
			<input>
				<port id="0">
					<dim>1</dim>
					<dim>49</dim>
					<dim>128</dim>
				</port>
				<port id="1">
					<dim>1</dim>
					<dim>1</dim>
					<dim>128</dim>
				</port>
			</input>
			<output>
				<port id="2" names="StatefulPartitionedCall/model/dense_11/BiasAdd:0" precision="FP32">
					<dim>1</dim>
					<dim>49</dim>
					<dim>128</dim>
				</port>
			</output>
		</layer>
		<layer id="269" name="StatefulPartitionedCall/model/tf.reshape_5/Reshape/Cast_140300_const" type="Const" version="opset1">
			<data element_type="i64" offset="14292016" shape="4" size="32"/>
			<output>
				<port id="0" names="StatefulPartitionedCall/model/tf.reshape_5/Reshape/shape:0" precision="I64">
					<dim>4</dim>
				</port>
			</output>
		</layer>
		<layer id="270" name="StatefulPartitionedCall/model/tf.reshape_5/Reshape" type="Reshape" version="opset1">
			<data special_zero="false"/>
			<input>
				<port id="0">
					<dim>1</dim>
					<dim>49</dim>
					<dim>128</dim>
				</port>
				<port id="1">
					<dim>4</dim>
				</port>
			</input>
			<output>
				<port id="2" names="StatefulPartitionedCall/model/tf.reshape_5/Reshape:0" precision="FP32">
					<dim>1</dim>
					<dim>49</dim>
					<dim>1</dim>
					<dim>128</dim>
				</port>
			</output>
		</layer>
		<layer id="271" name="StatefulPartitionedCall/model/tf.compat.v1.transpose_5/transpose/Cast_140696_const" type="Const" version="opset1">
			<data element_type="i64" offset="14292048" shape="4" size="32"/>
			<output>
				<port id="0" names="StatefulPartitionedCall/model/tf.compat.v1.transpose_5/transpose/perm:0" precision="I64">
					<dim>4</dim>
				</port>
			</output>
		</layer>
		<layer id="272" name="StatefulPartitionedCall/model/tf.compat.v1.transpose_5/transpose" type="Transpose" version="opset1">
			<input>
				<port id="0">
					<dim>1</dim>
					<dim>49</dim>
					<dim>1</dim>
					<dim>128</dim>
				</port>
				<port id="1">
					<dim>4</dim>
				</port>
			</input>
			<output>
				<port id="2" precision="FP32">
					<dim>1</dim>
					<dim>1</dim>
					<dim>49</dim>
					<dim>128</dim>
				</port>
			</output>
		</layer>
		<layer id="273" name="StatefulPartitionedCall/model/tf.math.truediv_1/truediv_copy/const18206_const" type="Const" version="opset1">
			<data element_type="f32" offset="14358128" shape="1,1,1,1" size="4"/>
			<output>
				<port id="0" precision="FP32">
					<dim>1</dim>
					<dim>1</dim>
					<dim>1</dim>
					<dim>1</dim>
				</port>
			</output>
		</layer>
		<layer id="274" name="StatefulPartitionedCall/model/tf.math.truediv_1/truediv_copy" type="Multiply" version="opset1">
			<data auto_broadcast="numpy"/>
			<input>
				<port id="0">
					<dim>1</dim>
					<dim>1</dim>
					<dim>49</dim>
					<dim>128</dim>
				</port>
				<port id="1">
					<dim>1</dim>
					<dim>1</dim>
					<dim>1</dim>
					<dim>1</dim>
				</port>
			</input>
			<output>
				<port id="2" names="StatefulPartitionedCall/model/tf.compat.v1.transpose_5/transpose:0" precision="FP32">
					<dim>1</dim>
					<dim>1</dim>
					<dim>49</dim>
					<dim>128</dim>
				</port>
			</output>
		</layer>
		<layer id="275" name="StatefulPartitionedCall/model/tf.linalg.matmul_2/MatMul" type="MatMul" version="opset1">
			<data transpose_a="false" transpose_b="true"/>
			<input>
				<port id="0">
					<dim>1</dim>
					<dim>1</dim>
					<dim>49</dim>
					<dim>128</dim>
				</port>
				<port id="1">
					<dim>1</dim>
					<dim>1</dim>
					<dim>49</dim>
					<dim>128</dim>
				</port>
			</input>
			<output>
				<port id="2" names="StatefulPartitionedCall/model/tf.math.truediv_1/truediv:0" precision="FP32">
					<dim>1</dim>
					<dim>1</dim>
					<dim>49</dim>
					<dim>49</dim>
				</port>
			</output>
		</layer>
		<layer id="276" name="StatefulPartitionedCall/model/tf.math.multiply_2/Mul/y/EltwiseUnsqueeze17270_const" type="Const" version="opset1">
			<data element_type="f32" offset="14370300" shape="1,1,1,1" size="4"/>
			<output>
				<port id="0" names="StatefulPartitionedCall/model/tf.math.multiply_2/Mul/y:0" precision="FP32">
					<dim>1</dim>
					<dim>1</dim>
					<dim>1</dim>
					<dim>1</dim>
				</port>
			</output>
		</layer>
		<layer id="277" name="StatefulPartitionedCall/model/tf.math.multiply_2/Mul" type="Multiply" version="opset1">
			<data auto_broadcast="numpy"/>
			<input>
				<port id="0">
					<dim>1</dim>
					<dim>49</dim>
					<dim>1</dim>
					<dim>1</dim>
				</port>
				<port id="1">
					<dim>1</dim>
					<dim>1</dim>
					<dim>1</dim>
					<dim>1</dim>
				</port>
			</input>
			<output>
				<port id="2" names="StatefulPartitionedCall/model/tf.math.multiply_2/Mul:0" precision="FP32">
					<dim>1</dim>
					<dim>49</dim>
					<dim>1</dim>
					<dim>1</dim>
				</port>
			</output>
		</layer>
		<layer id="278" name="StatefulPartitionedCall/model/tf.__operators__.add_4/AddV2" type="Add" version="opset1">
			<data auto_broadcast="numpy"/>
			<input>
				<port id="0">
					<dim>1</dim>
					<dim>1</dim>
					<dim>49</dim>
					<dim>49</dim>
				</port>
				<port id="1">
					<dim>1</dim>
					<dim>49</dim>
					<dim>1</dim>
					<dim>1</dim>
				</port>
			</input>
			<output>
				<port id="2" names="StatefulPartitionedCall/model/tf.__operators__.add_4/AddV2:0" precision="FP32">
					<dim>1</dim>
					<dim>1</dim>
					<dim>49</dim>
					<dim>49</dim>
				</port>
			</output>
		</layer>
		<layer id="279" name="StatefulPartitionedCall/model/tf.nn.softmax_1/Softmax" type="SoftMax" version="opset1">
			<data axis="3"/>
			<input>
				<port id="0">
					<dim>1</dim>
					<dim>1</dim>
					<dim>49</dim>
					<dim>49</dim>
				</port>
			</input>
			<output>
				<port id="1" names="StatefulPartitionedCall/model/tf.nn.softmax_1/Softmax:0" precision="FP32">
					<dim>1</dim>
					<dim>1</dim>
					<dim>49</dim>
					<dim>49</dim>
				</port>
			</output>
		</layer>
		<layer id="280" name="StatefulPartitionedCall/model/dense_12/Tensordot/ReadVariableOp/MinusOne26961_const" type="Const" version="opset1">
			<data element_type="i64" offset="14225932" shape="1" size="8"/>
			<output>
				<port id="0" precision="I64">
					<dim>1</dim>
				</port>
			</output>
		</layer>
		<layer id="281" name="StatefulPartitionedCall/model/dense_12/Tensordot/MatMul/1_port_transpose25766_const" type="Const" version="opset1">
			<data element_type="f32" offset="22797360" shape="128,128" size="65536"/>
			<output>
				<port id="0" names="StatefulPartitionedCall/model/dense_12/Tensordot/ReadVariableOp:0" precision="FP32">
					<dim>128</dim>
					<dim>128</dim>
				</port>
			</output>
		</layer>
		<layer id="282" name="StatefulPartitionedCall/model/dense_12/Tensordot/ReadVariableOp/Shape" type="ShapeOf" version="opset3">
			<data output_type="i64"/>
			<input>
				<port id="0">
					<dim>128</dim>
					<dim>128</dim>
				</port>
			</input>
			<output>
				<port id="1" precision="I64">
					<dim>2</dim>
				</port>
			</output>
		</layer>
		<layer id="283" name="StatefulPartitionedCall/model/dense_12/Tensordot/ReadVariableOp/Shape/Gather/Cast_140038_const" type="Const" version="opset1">
			<data element_type="i32" offset="14291476" shape="1" size="4"/>
			<output>
				<port id="0" precision="I32">
					<dim>1</dim>
				</port>
			</output>
		</layer>
		<layer id="284" name="StatefulPartitionedCall/model/dense_12/Tensordot/ReadVariableOp/Shape/Gather/Cast_240040_const" type="Const" version="opset1">
			<data element_type="i64" offset="14197760" shape="" size="8"/>
			<output>
				<port id="0" precision="I64"/>
			</output>
		</layer>
		<layer id="285" name="StatefulPartitionedCall/model/dense_12/Tensordot/ReadVariableOp/Shape/Gather" type="Gather" version="opset1">
			<input>
				<port id="0">
					<dim>2</dim>
				</port>
				<port id="1">
					<dim>1</dim>
				</port>
				<port id="2"/>
			</input>
			<output>
				<port id="3" precision="I64">
					<dim>1</dim>
				</port>
			</output>
		</layer>
		<layer id="286" name="StatefulPartitionedCall/model/dense_12/Tensordot/ReadVariableOp/MinusOne/shapes_concat" type="Concat" version="opset1">
			<data axis="0"/>
			<input>
				<port id="0">
					<dim>1</dim>
				</port>
				<port id="1">
					<dim>1</dim>
				</port>
			</input>
			<output>
				<port id="2" names="StatefulPartitionedCall/model/dense_12/Tensordot/Reshape/shape:0" precision="I64">
					<dim>2</dim>
				</port>
			</output>
		</layer>
		<layer id="287" name="StatefulPartitionedCall/model/dense_12/Tensordot/Reshape" type="Reshape" version="opset1">
			<data special_zero="false"/>
			<input>
				<port id="0">
					<dim>1</dim>
					<dim>49</dim>
					<dim>128</dim>
				</port>
				<port id="1">
					<dim>2</dim>
				</port>
			</input>
			<output>
				<port id="2" names="StatefulPartitionedCall/model/dense_12/Tensordot/Reshape:0" precision="FP32">
					<dim>49</dim>
					<dim>128</dim>
				</port>
			</output>
		</layer>
		<layer id="288" name="StatefulPartitionedCall/model/dense_12/Tensordot/MatMul" type="MatMul" version="opset1">
			<data transpose_a="false" transpose_b="true"/>
			<input>
				<port id="0">
					<dim>49</dim>
					<dim>128</dim>
				</port>
				<port id="1">
					<dim>128</dim>
					<dim>128</dim>
				</port>
			</input>
			<output>
				<port id="2" names="StatefulPartitionedCall/model/dense_12/Tensordot/MatMul:0" precision="FP32">
					<dim>49</dim>
					<dim>128</dim>
				</port>
			</output>
		</layer>
		<layer id="289" name="StatefulPartitionedCall/model/dense_12/Tensordot/Cast_140076_const" type="Const" version="opset1">
			<data element_type="i64" offset="21937664" shape="3" size="24"/>
			<output>
				<port id="0" names="StatefulPartitionedCall/model/dense_12/Tensordot/shape:0" precision="I64">
					<dim>3</dim>
				</port>
			</output>
		</layer>
		<layer id="290" name="StatefulPartitionedCall/model/dense_12/Tensordot" type="Reshape" version="opset1">
			<data special_zero="false"/>
			<input>
				<port id="0">
					<dim>49</dim>
					<dim>128</dim>
				</port>
				<port id="1">
					<dim>3</dim>
				</port>
			</input>
			<output>
				<port id="2" names="StatefulPartitionedCall/model/dense_12/Tensordot:0" precision="FP32">
					<dim>1</dim>
					<dim>49</dim>
					<dim>128</dim>
				</port>
			</output>
		</layer>
		<layer id="291" name="StatefulPartitionedCall/model/dense_12/BiasAdd/ReadVariableOp/EltwiseUnsqueeze17570_const" type="Const" version="opset1">
			<data element_type="f32" offset="22862896" shape="1,1,128" size="512"/>
			<output>
				<port id="0" names="StatefulPartitionedCall/model/dense_12/BiasAdd/ReadVariableOp:0" precision="FP32">
					<dim>1</dim>
					<dim>1</dim>
					<dim>128</dim>
				</port>
			</output>
		</layer>
		<layer id="292" name="StatefulPartitionedCall/model/dense_12/BiasAdd/Add" type="Add" version="opset1">
			<data auto_broadcast="numpy"/>
			<input>
				<port id="0">
					<dim>1</dim>
					<dim>49</dim>
					<dim>128</dim>
				</port>
				<port id="1">
					<dim>1</dim>
					<dim>1</dim>
					<dim>128</dim>
				</port>
			</input>
			<output>
				<port id="2" names="StatefulPartitionedCall/model/dense_12/BiasAdd:0" precision="FP32">
					<dim>1</dim>
					<dim>49</dim>
					<dim>128</dim>
				</port>
			</output>
		</layer>
		<layer id="293" name="StatefulPartitionedCall/model/tf.reshape_6/Reshape/Cast_140210_const" type="Const" version="opset1">
			<data element_type="i64" offset="14292016" shape="4" size="32"/>
			<output>
				<port id="0" names="StatefulPartitionedCall/model/tf.reshape_6/Reshape/shape:0" precision="I64">
					<dim>4</dim>
				</port>
			</output>
		</layer>
		<layer id="294" name="StatefulPartitionedCall/model/tf.reshape_6/Reshape" type="Reshape" version="opset1">
			<data special_zero="false"/>
			<input>
				<port id="0">
					<dim>1</dim>
					<dim>49</dim>
					<dim>128</dim>
				</port>
				<port id="1">
					<dim>4</dim>
				</port>
			</input>
			<output>
				<port id="2" names="StatefulPartitionedCall/model/tf.reshape_6/Reshape:0" precision="FP32">
					<dim>1</dim>
					<dim>49</dim>
					<dim>1</dim>
					<dim>128</dim>
				</port>
			</output>
		</layer>
		<layer id="295" name="StatefulPartitionedCall/model/tf.compat.v1.transpose_6/transpose/Cast_140236_const" type="Const" version="opset1">
			<data element_type="i64" offset="14292048" shape="4" size="32"/>
			<output>
				<port id="0" names="StatefulPartitionedCall/model/tf.compat.v1.transpose_6/transpose/perm:0" precision="I64">
					<dim>4</dim>
				</port>
			</output>
		</layer>
		<layer id="296" name="StatefulPartitionedCall/model/tf.compat.v1.transpose_6/transpose" type="Transpose" version="opset1">
			<input>
				<port id="0">
					<dim>1</dim>
					<dim>49</dim>
					<dim>1</dim>
					<dim>128</dim>
				</port>
				<port id="1">
					<dim>4</dim>
				</port>
			</input>
			<output>
				<port id="2" names="StatefulPartitionedCall/model/tf.compat.v1.transpose_6/transpose:0" precision="FP32">
					<dim>1</dim>
					<dim>1</dim>
					<dim>49</dim>
					<dim>128</dim>
				</port>
			</output>
		</layer>
		<layer id="297" name="StatefulPartitionedCall/model/tf.linalg.matmul_3/MatMul" type="MatMul" version="opset1">
			<data transpose_a="false" transpose_b="false"/>
			<input>
				<port id="0">
					<dim>1</dim>
					<dim>1</dim>
					<dim>49</dim>
					<dim>49</dim>
				</port>
				<port id="1">
					<dim>1</dim>
					<dim>1</dim>
					<dim>49</dim>
					<dim>128</dim>
				</port>
			</input>
			<output>
				<port id="2" names="StatefulPartitionedCall/model/tf.linalg.matmul_3/MatMul:0" precision="FP32">
					<dim>1</dim>
					<dim>1</dim>
					<dim>49</dim>
					<dim>128</dim>
				</port>
			</output>
		</layer>
		<layer id="298" name="StatefulPartitionedCall/model/tf.compat.v1.transpose_7/transpose/Cast_140160_const" type="Const" version="opset1">
			<data element_type="i64" offset="14292048" shape="4" size="32"/>
			<output>
				<port id="0" names="StatefulPartitionedCall/model/tf.compat.v1.transpose_7/transpose/perm:0" precision="I64">
					<dim>4</dim>
				</port>
			</output>
		</layer>
		<layer id="299" name="StatefulPartitionedCall/model/tf.compat.v1.transpose_7/transpose" type="Transpose" version="opset1">
			<input>
				<port id="0">
					<dim>1</dim>
					<dim>1</dim>
					<dim>49</dim>
					<dim>128</dim>
				</port>
				<port id="1">
					<dim>4</dim>
				</port>
			</input>
			<output>
				<port id="2" names="StatefulPartitionedCall/model/tf.reshape_7/Reshape:0,StatefulPartitionedCall/model/tf.compat.v1.transpose_7/transpose:0" precision="FP32">
					<dim>1</dim>
					<dim>49</dim>
					<dim>1</dim>
					<dim>128</dim>
				</port>
			</output>
		</layer>
		<layer id="300" name="StatefulPartitionedCall/model/dense_13/Tensordot/ReadVariableOp/MinusOne27057_const" type="Const" version="opset1">
			<data element_type="i64" offset="14225932" shape="1" size="8"/>
			<output>
				<port id="0" precision="I64">
					<dim>1</dim>
				</port>
			</output>
		</layer>
		<layer id="301" name="StatefulPartitionedCall/model/dense_13/Tensordot/MatMul/1_port_transpose25742_const" type="Const" version="opset1">
			<data element_type="f32" offset="22863408" shape="128,128" size="65536"/>
			<output>
				<port id="0" names="StatefulPartitionedCall/model/dense_13/Tensordot/ReadVariableOp:0" precision="FP32">
					<dim>128</dim>
					<dim>128</dim>
				</port>
			</output>
		</layer>
		<layer id="302" name="StatefulPartitionedCall/model/dense_13/Tensordot/ReadVariableOp/Shape" type="ShapeOf" version="opset3">
			<data output_type="i64"/>
			<input>
				<port id="0">
					<dim>128</dim>
					<dim>128</dim>
				</port>
			</input>
			<output>
				<port id="1" precision="I64">
					<dim>2</dim>
				</port>
			</output>
		</layer>
		<layer id="303" name="StatefulPartitionedCall/model/dense_13/Tensordot/ReadVariableOp/Shape/Gather/Cast_140546_const" type="Const" version="opset1">
			<data element_type="i32" offset="14291476" shape="1" size="4"/>
			<output>
				<port id="0" precision="I32">
					<dim>1</dim>
				</port>
			</output>
		</layer>
		<layer id="304" name="StatefulPartitionedCall/model/dense_13/Tensordot/ReadVariableOp/Shape/Gather/Cast_240548_const" type="Const" version="opset1">
			<data element_type="i64" offset="14197760" shape="" size="8"/>
			<output>
				<port id="0" precision="I64"/>
			</output>
		</layer>
		<layer id="305" name="StatefulPartitionedCall/model/dense_13/Tensordot/ReadVariableOp/Shape/Gather" type="Gather" version="opset1">
			<input>
				<port id="0">
					<dim>2</dim>
				</port>
				<port id="1">
					<dim>1</dim>
				</port>
				<port id="2"/>
			</input>
			<output>
				<port id="3" precision="I64">
					<dim>1</dim>
				</port>
			</output>
		</layer>
		<layer id="306" name="StatefulPartitionedCall/model/dense_13/Tensordot/ReadVariableOp/MinusOne/shapes_concat" type="Concat" version="opset1">
			<data axis="0"/>
			<input>
				<port id="0">
					<dim>1</dim>
				</port>
				<port id="1">
					<dim>1</dim>
				</port>
			</input>
			<output>
				<port id="2" names="StatefulPartitionedCall/model/dense_13/Tensordot/Reshape/shape:0" precision="I64">
					<dim>2</dim>
				</port>
			</output>
		</layer>
		<layer id="307" name="StatefulPartitionedCall/model/dense_13/Tensordot/Reshape" type="Reshape" version="opset1">
			<data special_zero="false"/>
			<input>
				<port id="0">
					<dim>1</dim>
					<dim>49</dim>
					<dim>1</dim>
					<dim>128</dim>
				</port>
				<port id="1">
					<dim>2</dim>
				</port>
			</input>
			<output>
				<port id="2" names="StatefulPartitionedCall/model/dense_13/Tensordot/Reshape:0" precision="FP32">
					<dim>49</dim>
					<dim>128</dim>
				</port>
			</output>
		</layer>
		<layer id="308" name="StatefulPartitionedCall/model/dense_13/Tensordot/MatMul" type="MatMul" version="opset1">
			<data transpose_a="false" transpose_b="true"/>
			<input>
				<port id="0">
					<dim>49</dim>
					<dim>128</dim>
				</port>
				<port id="1">
					<dim>128</dim>
					<dim>128</dim>
				</port>
			</input>
			<output>
				<port id="2" names="StatefulPartitionedCall/model/dense_13/Tensordot/MatMul:0" precision="FP32">
					<dim>49</dim>
					<dim>128</dim>
				</port>
			</output>
		</layer>
		<layer id="309" name="StatefulPartitionedCall/model/dense_13/Tensordot/Cast_140714_const" type="Const" version="opset1">
			<data element_type="i64" offset="21937664" shape="3" size="24"/>
			<output>
				<port id="0" names="StatefulPartitionedCall/model/dense_13/Tensordot/shape:0" precision="I64">
					<dim>3</dim>
				</port>
			</output>
		</layer>
		<layer id="310" name="StatefulPartitionedCall/model/dense_13/Tensordot" type="Reshape" version="opset1">
			<data special_zero="false"/>
			<input>
				<port id="0">
					<dim>49</dim>
					<dim>128</dim>
				</port>
				<port id="1">
					<dim>3</dim>
				</port>
			</input>
			<output>
				<port id="2" names="StatefulPartitionedCall/model/dense_13/Tensordot:0" precision="FP32">
					<dim>1</dim>
					<dim>49</dim>
					<dim>128</dim>
				</port>
			</output>
		</layer>
		<layer id="311" name="StatefulPartitionedCall/model/dense_13/BiasAdd/ReadVariableOp/EltwiseUnsqueeze17674_const" type="Const" version="opset1">
			<data element_type="f32" offset="22928944" shape="1,1,128" size="512"/>
			<output>
				<port id="0" names="StatefulPartitionedCall/model/dense_13/BiasAdd/ReadVariableOp:0" precision="FP32">
					<dim>1</dim>
					<dim>1</dim>
					<dim>128</dim>
				</port>
			</output>
		</layer>
		<layer id="312" name="StatefulPartitionedCall/model/dense_13/BiasAdd/Add" type="Add" version="opset1">
			<data auto_broadcast="numpy"/>
			<input>
				<port id="0">
					<dim>1</dim>
					<dim>49</dim>
					<dim>128</dim>
				</port>
				<port id="1">
					<dim>1</dim>
					<dim>1</dim>
					<dim>128</dim>
				</port>
			</input>
			<output>
				<port id="2" names="StatefulPartitionedCall/model/dropout_3/Identity:0,StatefulPartitionedCall/model/dense_13/BiasAdd:0" precision="FP32">
					<dim>1</dim>
					<dim>49</dim>
					<dim>128</dim>
				</port>
			</output>
		</layer>
		<layer id="313" name="StatefulPartitionedCall/model/tf.__operators__.add_5/AddV2" type="Add" version="opset1">
			<data auto_broadcast="numpy"/>
			<input>
				<port id="0">
					<dim>1</dim>
					<dim>49</dim>
					<dim>128</dim>
				</port>
				<port id="1">
					<dim>1</dim>
					<dim>49</dim>
					<dim>128</dim>
				</port>
			</input>
			<output>
				<port id="2" names="StatefulPartitionedCall/model/tf.__operators__.add_5/AddV2:0" precision="FP32">
					<dim>1</dim>
					<dim>49</dim>
					<dim>128</dim>
				</port>
			</output>
		</layer>
		<layer id="314" name="StatefulPartitionedCall/model/batch_normalization_2/batchnorm/mul/EltwiseUnsqueeze17274_const" type="Const" version="opset1">
			<data element_type="f32" offset="22929456" shape="1,1,128" size="512"/>
			<output>
				<port id="0" names="StatefulPartitionedCall/model/batch_normalization_2/batchnorm/mul:0" precision="FP32">
					<dim>1</dim>
					<dim>1</dim>
					<dim>128</dim>
				</port>
			</output>
		</layer>
		<layer id="315" name="StatefulPartitionedCall/model/batch_normalization_2/batchnorm/mul_1" type="Multiply" version="opset1">
			<data auto_broadcast="numpy"/>
			<input>
				<port id="0">
					<dim>1</dim>
					<dim>49</dim>
					<dim>128</dim>
				</port>
				<port id="1">
					<dim>1</dim>
					<dim>1</dim>
					<dim>128</dim>
				</port>
			</input>
			<output>
				<port id="2" names="StatefulPartitionedCall/model/batch_normalization_2/batchnorm/mul_1:0" precision="FP32">
					<dim>1</dim>
					<dim>49</dim>
					<dim>128</dim>
				</port>
			</output>
		</layer>
		<layer id="316" name="StatefulPartitionedCall/model/batch_normalization_2/batchnorm/sub/EltwiseUnsqueeze17278_const" type="Const" version="opset1">
			<data element_type="f32" offset="22929968" shape="1,1,128" size="512"/>
			<output>
				<port id="0" names="StatefulPartitionedCall/model/batch_normalization_2/batchnorm/sub:0" precision="FP32">
					<dim>1</dim>
					<dim>1</dim>
					<dim>128</dim>
				</port>
			</output>
		</layer>
		<layer id="317" name="StatefulPartitionedCall/model/batch_normalization_2/batchnorm/add_1" type="Add" version="opset1">
			<data auto_broadcast="numpy"/>
			<input>
				<port id="0">
					<dim>1</dim>
					<dim>49</dim>
					<dim>128</dim>
				</port>
				<port id="1">
					<dim>1</dim>
					<dim>1</dim>
					<dim>128</dim>
				</port>
			</input>
			<output>
				<port id="2" names="StatefulPartitionedCall/model/batch_normalization_2/batchnorm/add_1:0" precision="FP32">
					<dim>1</dim>
					<dim>49</dim>
					<dim>128</dim>
				</port>
			</output>
		</layer>
		<layer id="318" name="StatefulPartitionedCall/model/sequential_1/dense_14/Tensordot/ReadVariableOp/MinusOne26781_const" type="Const" version="opset1">
			<data element_type="i64" offset="14225932" shape="1" size="8"/>
			<output>
				<port id="0" precision="I64">
					<dim>1</dim>
				</port>
			</output>
		</layer>
		<layer id="319" name="StatefulPartitionedCall/model/sequential_1/dense_14/Tensordot/MatMul/1_port_transpose25730_const" type="Const" version="opset1">
			<data element_type="f32" offset="22930480" shape="512,128" size="262144"/>
			<output>
				<port id="0" names="StatefulPartitionedCall/model/sequential_1/dense_14/Tensordot/ReadVariableOp:0" precision="FP32">
					<dim>512</dim>
					<dim>128</dim>
				</port>
			</output>
		</layer>
		<layer id="320" name="StatefulPartitionedCall/model/sequential_1/dense_14/Tensordot/ReadVariableOp/Shape" type="ShapeOf" version="opset3">
			<data output_type="i64"/>
			<input>
				<port id="0">
					<dim>512</dim>
					<dim>128</dim>
				</port>
			</input>
			<output>
				<port id="1" precision="I64">
					<dim>2</dim>
				</port>
			</output>
		</layer>
		<layer id="321" name="StatefulPartitionedCall/model/sequential_1/dense_14/Tensordot/ReadVariableOp/Shape/Gather/Cast_140692_const" type="Const" version="opset1">
			<data element_type="i32" offset="14291476" shape="1" size="4"/>
			<output>
				<port id="0" precision="I32">
					<dim>1</dim>
				</port>
			</output>
		</layer>
		<layer id="322" name="StatefulPartitionedCall/model/sequential_1/dense_14/Tensordot/ReadVariableOp/Shape/Gather/Cast_240694_const" type="Const" version="opset1">
			<data element_type="i64" offset="14197760" shape="" size="8"/>
			<output>
				<port id="0" precision="I64"/>
			</output>
		</layer>
		<layer id="323" name="StatefulPartitionedCall/model/sequential_1/dense_14/Tensordot/ReadVariableOp/Shape/Gather" type="Gather" version="opset1">
			<input>
				<port id="0">
					<dim>2</dim>
				</port>
				<port id="1">
					<dim>1</dim>
				</port>
				<port id="2"/>
			</input>
			<output>
				<port id="3" precision="I64">
					<dim>1</dim>
				</port>
			</output>
		</layer>
		<layer id="324" name="StatefulPartitionedCall/model/sequential_1/dense_14/Tensordot/ReadVariableOp/MinusOne/shapes_concat" type="Concat" version="opset1">
			<data axis="0"/>
			<input>
				<port id="0">
					<dim>1</dim>
				</port>
				<port id="1">
					<dim>1</dim>
				</port>
			</input>
			<output>
				<port id="2" names="StatefulPartitionedCall/model/sequential_1/dense_14/Tensordot/Reshape/shape:0" precision="I64">
					<dim>2</dim>
				</port>
			</output>
		</layer>
		<layer id="325" name="StatefulPartitionedCall/model/sequential_1/dense_14/Tensordot/Reshape" type="Reshape" version="opset1">
			<data special_zero="false"/>
			<input>
				<port id="0">
					<dim>1</dim>
					<dim>49</dim>
					<dim>128</dim>
				</port>
				<port id="1">
					<dim>2</dim>
				</port>
			</input>
			<output>
				<port id="2" names="StatefulPartitionedCall/model/sequential_1/dense_14/Tensordot/Reshape:0" precision="FP32">
					<dim>49</dim>
					<dim>128</dim>
				</port>
			</output>
		</layer>
		<layer id="326" name="StatefulPartitionedCall/model/sequential_1/dense_14/Tensordot/MatMul" type="MatMul" version="opset1">
			<data transpose_a="false" transpose_b="true"/>
			<input>
				<port id="0">
					<dim>49</dim>
					<dim>128</dim>
				</port>
				<port id="1">
					<dim>512</dim>
					<dim>128</dim>
				</port>
			</input>
			<output>
				<port id="2" names="StatefulPartitionedCall/model/sequential_1/dense_14/Tensordot/MatMul:0" precision="FP32">
					<dim>49</dim>
					<dim>512</dim>
				</port>
			</output>
		</layer>
		<layer id="327" name="StatefulPartitionedCall/model/sequential_1/dense_14/Tensordot/Cast_140278_const" type="Const" version="opset1">
			<data element_type="i64" offset="22399512" shape="3" size="24"/>
			<output>
				<port id="0" names="StatefulPartitionedCall/model/sequential_1/dense_14/Tensordot/shape:0" precision="I64">
					<dim>3</dim>
				</port>
			</output>
		</layer>
		<layer id="328" name="StatefulPartitionedCall/model/sequential_1/dense_14/Tensordot" type="Reshape" version="opset1">
			<data special_zero="false"/>
			<input>
				<port id="0">
					<dim>49</dim>
					<dim>512</dim>
				</port>
				<port id="1">
					<dim>3</dim>
				</port>
			</input>
			<output>
				<port id="2" names="StatefulPartitionedCall/model/sequential_1/dense_14/Tensordot:0" precision="FP32">
					<dim>1</dim>
					<dim>49</dim>
					<dim>512</dim>
				</port>
			</output>
		</layer>
		<layer id="329" name="StatefulPartitionedCall/model/sequential_1/dense_14/BiasAdd/ReadVariableOp/EltwiseUnsqueeze17522_const" type="Const" version="opset1">
			<data element_type="f32" offset="23192624" shape="1,1,512" size="2048"/>
			<output>
				<port id="0" names="StatefulPartitionedCall/model/sequential_1/dense_14/BiasAdd/ReadVariableOp:0" precision="FP32">
					<dim>1</dim>
					<dim>1</dim>
					<dim>512</dim>
				</port>
			</output>
		</layer>
		<layer id="330" name="StatefulPartitionedCall/model/sequential_1/dense_14/BiasAdd/Add" type="Add" version="opset1">
			<data auto_broadcast="numpy"/>
			<input>
				<port id="0">
					<dim>1</dim>
					<dim>49</dim>
					<dim>512</dim>
				</port>
				<port id="1">
					<dim>1</dim>
					<dim>1</dim>
					<dim>512</dim>
				</port>
			</input>
			<output>
				<port id="2" names="StatefulPartitionedCall/model/sequential_1/dense_14/BiasAdd:0" precision="FP32">
					<dim>1</dim>
					<dim>49</dim>
					<dim>512</dim>
				</port>
			</output>
		</layer>
		<layer id="331" name="StatefulPartitionedCall/model/sequential_1/dense_14/Relu" type="ReLU" version="opset1">
			<input>
				<port id="0">
					<dim>1</dim>
					<dim>49</dim>
					<dim>512</dim>
				</port>
			</input>
			<output>
				<port id="1" names="StatefulPartitionedCall/model/sequential_1/dense_14/Relu:0" precision="FP32">
					<dim>1</dim>
					<dim>49</dim>
					<dim>512</dim>
				</port>
			</output>
		</layer>
		<layer id="332" name="StatefulPartitionedCall/model/sequential_1/dense_15/Tensordot/ReadVariableOp/MinusOne26421_const" type="Const" version="opset1">
			<data element_type="i64" offset="14225932" shape="1" size="8"/>
			<output>
				<port id="0" precision="I64">
					<dim>1</dim>
				</port>
			</output>
		</layer>
		<layer id="333" name="StatefulPartitionedCall/model/sequential_1/dense_15/Tensordot/MatMul/1_port_transpose25754_const" type="Const" version="opset1">
			<data element_type="f32" offset="23194672" shape="128,512" size="262144"/>
			<output>
				<port id="0" names="StatefulPartitionedCall/model/sequential_1/dense_15/Tensordot/ReadVariableOp:0" precision="FP32">
					<dim>128</dim>
					<dim>512</dim>
				</port>
			</output>
		</layer>
		<layer id="334" name="StatefulPartitionedCall/model/sequential_1/dense_15/Tensordot/ReadVariableOp/Shape" type="ShapeOf" version="opset3">
			<data output_type="i64"/>
			<input>
				<port id="0">
					<dim>128</dim>
					<dim>512</dim>
				</port>
			</input>
			<output>
				<port id="1" precision="I64">
					<dim>2</dim>
				</port>
			</output>
		</layer>
		<layer id="335" name="StatefulPartitionedCall/model/sequential_1/dense_15/Tensordot/ReadVariableOp/Shape/Gather/Cast_140628_const" type="Const" version="opset1">
			<data element_type="i32" offset="14291476" shape="1" size="4"/>
			<output>
				<port id="0" precision="I32">
					<dim>1</dim>
				</port>
			</output>
		</layer>
		<layer id="336" name="StatefulPartitionedCall/model/sequential_1/dense_15/Tensordot/ReadVariableOp/Shape/Gather/Cast_240630_const" type="Const" version="opset1">
			<data element_type="i64" offset="14197760" shape="" size="8"/>
			<output>
				<port id="0" precision="I64"/>
			</output>
		</layer>
		<layer id="337" name="StatefulPartitionedCall/model/sequential_1/dense_15/Tensordot/ReadVariableOp/Shape/Gather" type="Gather" version="opset1">
			<input>
				<port id="0">
					<dim>2</dim>
				</port>
				<port id="1">
					<dim>1</dim>
				</port>
				<port id="2"/>
			</input>
			<output>
				<port id="3" precision="I64">
					<dim>1</dim>
				</port>
			</output>
		</layer>
		<layer id="338" name="StatefulPartitionedCall/model/sequential_1/dense_15/Tensordot/ReadVariableOp/MinusOne/shapes_concat" type="Concat" version="opset1">
			<data axis="0"/>
			<input>
				<port id="0">
					<dim>1</dim>
				</port>
				<port id="1">
					<dim>1</dim>
				</port>
			</input>
			<output>
				<port id="2" names="StatefulPartitionedCall/model/sequential_1/dense_15/Tensordot/Reshape/shape:0" precision="I64">
					<dim>2</dim>
				</port>
			</output>
		</layer>
		<layer id="339" name="StatefulPartitionedCall/model/sequential_1/dense_15/Tensordot/Reshape" type="Reshape" version="opset1">
			<data special_zero="false"/>
			<input>
				<port id="0">
					<dim>1</dim>
					<dim>49</dim>
					<dim>512</dim>
				</port>
				<port id="1">
					<dim>2</dim>
				</port>
			</input>
			<output>
				<port id="2" names="StatefulPartitionedCall/model/sequential_1/dense_15/Tensordot/Reshape:0" precision="FP32">
					<dim>49</dim>
					<dim>512</dim>
				</port>
			</output>
		</layer>
		<layer id="340" name="StatefulPartitionedCall/model/sequential_1/dense_15/Tensordot/MatMul" type="MatMul" version="opset1">
			<data transpose_a="false" transpose_b="true"/>
			<input>
				<port id="0">
					<dim>49</dim>
					<dim>512</dim>
				</port>
				<port id="1">
					<dim>128</dim>
					<dim>512</dim>
				</port>
			</input>
			<output>
				<port id="2" names="StatefulPartitionedCall/model/sequential_1/dense_15/Tensordot/MatMul:0" precision="FP32">
					<dim>49</dim>
					<dim>128</dim>
				</port>
			</output>
		</layer>
		<layer id="341" name="StatefulPartitionedCall/model/sequential_1/dense_15/Tensordot/Cast_140396_const" type="Const" version="opset1">
			<data element_type="i64" offset="21937664" shape="3" size="24"/>
			<output>
				<port id="0" names="StatefulPartitionedCall/model/sequential_1/dense_15/Tensordot/shape:0" precision="I64">
					<dim>3</dim>
				</port>
			</output>
		</layer>
		<layer id="342" name="StatefulPartitionedCall/model/sequential_1/dense_15/Tensordot" type="Reshape" version="opset1">
			<data special_zero="false"/>
			<input>
				<port id="0">
					<dim>49</dim>
					<dim>128</dim>
				</port>
				<port id="1">
					<dim>3</dim>
				</port>
			</input>
			<output>
				<port id="2" names="StatefulPartitionedCall/model/sequential_1/dense_15/Tensordot:0" precision="FP32">
					<dim>1</dim>
					<dim>49</dim>
					<dim>128</dim>
				</port>
			</output>
		</layer>
		<layer id="343" name="StatefulPartitionedCall/model/sequential_1/dense_15/BiasAdd/ReadVariableOp/EltwiseUnsqueeze17454_const" type="Const" version="opset1">
			<data element_type="f32" offset="23456816" shape="1,1,128" size="512"/>
			<output>
				<port id="0" names="StatefulPartitionedCall/model/sequential_1/dense_15/BiasAdd/ReadVariableOp:0" precision="FP32">
					<dim>1</dim>
					<dim>1</dim>
					<dim>128</dim>
				</port>
			</output>
		</layer>
		<layer id="344" name="StatefulPartitionedCall/model/sequential_1/dense_15/BiasAdd/Add" type="Add" version="opset1">
			<data auto_broadcast="numpy"/>
			<input>
				<port id="0">
					<dim>1</dim>
					<dim>49</dim>
					<dim>128</dim>
				</port>
				<port id="1">
…
		<edge from-layer="614" from-port="0" to-layer="615" to-port="1"/>
		<edge from-layer="615" from-port="2" to-layer="617" to-port="0"/>
		<edge from-layer="616" from-port="0" to-layer="617" to-port="1"/>
		<edge from-layer="617" from-port="2" to-layer="619" to-port="0"/>
		<edge from-layer="618" from-port="0" to-layer="619" to-port="1"/>
		<edge from-layer="602" from-port="1" to-layer="620" to-port="0"/>
		<edge from-layer="619" from-port="2" to-layer="620" to-port="1"/>
		<edge from-layer="620" from-port="2" to-layer="622" to-port="0"/>
		<edge from-layer="621" from-port="0" to-layer="622" to-port="1"/>
		<edge from-layer="624" from-port="0" to-layer="625" to-port="0"/>
		<edge from-layer="625" from-port="1" to-layer="628" to-port="0"/>
		<edge from-layer="626" from-port="0" to-layer="628" to-port="1"/>
		<edge from-layer="627" from-port="0" to-layer="628" to-port="2"/>
		<edge from-layer="623" from-port="0" to-layer="629" to-port="0"/>
		<edge from-layer="628" from-port="3" to-layer="629" to-port="1"/>
		<edge from-layer="622" from-port="2" to-layer="630" to-port="0"/>
		<edge from-layer="629" from-port="2" to-layer="630" to-port="1"/>
		<edge from-layer="630" from-port="2" to-layer="631" to-port="0"/>
		<edge from-layer="624" from-port="0" to-layer="631" to-port="1"/>
		<edge from-layer="631" from-port="2" to-layer="633" to-port="0"/>
		<edge from-layer="632" from-port="0" to-layer="633" to-port="1"/>
		<edge from-layer="633" from-port="2" to-layer="635" to-port="0"/>
		<edge from-layer="634" from-port="0" to-layer="635" to-port="1"/>
		<edge from-layer="635" from-port="2" to-layer="636" to-port="0"/>
		<edge from-layer="95" from-port="2" to-layer="636" to-port="1"/>
		<edge from-layer="636" from-port="2" to-layer="638" to-port="0"/>
		<edge from-layer="637" from-port="0" to-layer="638" to-port="1"/>
		<edge from-layer="638" from-port="2" to-layer="640" to-port="0"/>
		<edge from-layer="639" from-port="0" to-layer="640" to-port="1"/>
		<edge from-layer="642" from-port="0" to-layer="643" to-port="0"/>
		<edge from-layer="643" from-port="1" to-layer="646" to-port="0"/>
		<edge from-layer="644" from-port="0" to-layer="646" to-port="1"/>
		<edge from-layer="645" from-port="0" to-layer="646" to-port="2"/>
		<edge from-layer="641" from-port="0" to-layer="647" to-port="0"/>
		<edge from-layer="646" from-port="3" to-layer="647" to-port="1"/>
		<edge from-layer="640" from-port="2" to-layer="648" to-port="0"/>
		<edge from-layer="647" from-port="2" to-layer="648" to-port="1"/>
		<edge from-layer="648" from-port="2" to-layer="649" to-port="0"/>
		<edge from-layer="642" from-port="0" to-layer="649" to-port="1"/>
		<edge from-layer="649" from-port="2" to-layer="651" to-port="0"/>
		<edge from-layer="650" from-port="0" to-layer="651" to-port="1"/>
		<edge from-layer="651" from-port="2" to-layer="653" to-port="0"/>
		<edge from-layer="652" from-port="0" to-layer="653" to-port="1"/>
		<edge from-layer="653" from-port="2" to-layer="654" to-port="0"/>
		<edge from-layer="656" from-port="0" to-layer="657" to-port="0"/>
		<edge from-layer="657" from-port="1" to-layer="660" to-port="0"/>
		<edge from-layer="658" from-port="0" to-layer="660" to-port="1"/>
		<edge from-layer="659" from-port="0" to-layer="660" to-port="2"/>
		<edge from-layer="655" from-port="0" to-layer="661" to-port="0"/>
		<edge from-layer="660" from-port="3" to-layer="661" to-port="1"/>
		<edge from-layer="654" from-port="1" to-layer="662" to-port="0"/>
		<edge from-layer="661" from-port="2" to-layer="662" to-port="1"/>
		<edge from-layer="662" from-port="2" to-layer="663" to-port="0"/>
		<edge from-layer="656" from-port="0" to-layer="663" to-port="1"/>
		<edge from-layer="663" from-port="2" to-layer="665" to-port="0"/>
		<edge from-layer="664" from-port="0" to-layer="665" to-port="1"/>
		<edge from-layer="665" from-port="2" to-layer="667" to-port="0"/>
		<edge from-layer="666" from-port="0" to-layer="667" to-port="1"/>
		<edge from-layer="667" from-port="2" to-layer="668" to-port="0"/>
		<edge from-layer="640" from-port="2" to-layer="668" to-port="1"/>
		<edge from-layer="668" from-port="2" to-layer="670" to-port="0"/>
		<edge from-layer="669" from-port="0" to-layer="670" to-port="1"/>
		<edge from-layer="670" from-port="2" to-layer="672" to-port="0"/>
		<edge from-layer="671" from-port="0" to-layer="672" to-port="1"/>
		<edge from-layer="674" from-port="0" to-layer="675" to-port="0"/>
		<edge from-layer="675" from-port="1" to-layer="678" to-port="0"/>
		<edge from-layer="676" from-port="0" to-layer="678" to-port="1"/>
		<edge from-layer="677" from-port="0" to-layer="678" to-port="2"/>
		<edge from-layer="673" from-port="0" to-layer="679" to-port="0"/>
		<edge from-layer="678" from-port="3" to-layer="679" to-port="1"/>
		<edge from-layer="672" from-port="2" to-layer="680" to-port="0"/>
		<edge from-layer="679" from-port="2" to-layer="680" to-port="1"/>
		<edge from-layer="680" from-port="2" to-layer="681" to-port="0"/>
		<edge from-layer="674" from-port="0" to-layer="681" to-port="1"/>
		<edge from-layer="681" from-port="2" to-layer="683" to-port="0"/>
		<edge from-layer="682" from-port="0" to-layer="683" to-port="1"/>
		<edge from-layer="683" from-port="2" to-layer="685" to-port="0"/>
		<edge from-layer="684" from-port="0" to-layer="685" to-port="1"/>
		<edge from-layer="685" from-port="2" to-layer="687" to-port="0"/>
		<edge from-layer="686" from-port="0" to-layer="687" to-port="1"/>
		<edge from-layer="687" from-port="2" to-layer="689" to-port="0"/>
		<edge from-layer="688" from-port="0" to-layer="689" to-port="1"/>
		<edge from-layer="691" from-port="0" to-layer="692" to-port="0"/>
		<edge from-layer="692" from-port="1" to-layer="695" to-port="0"/>
		<edge from-layer="693" from-port="0" to-layer="695" to-port="1"/>
		<edge from-layer="694" from-port="0" to-layer="695" to-port="2"/>
		<edge from-layer="690" from-port="0" to-layer="696" to-port="0"/>
		<edge from-layer="695" from-port="3" to-layer="696" to-port="1"/>
		<edge from-layer="672" from-port="2" to-layer="697" to-port="0"/>
		<edge from-layer="696" from-port="2" to-layer="697" to-port="1"/>
		<edge from-layer="697" from-port="2" to-layer="698" to-port="0"/>
		<edge from-layer="691" from-port="0" to-layer="698" to-port="1"/>
		<edge from-layer="698" from-port="2" to-layer="700" to-port="0"/>
		<edge from-layer="699" from-port="0" to-layer="700" to-port="1"/>
		<edge from-layer="700" from-port="2" to-layer="702" to-port="0"/>
		<edge from-layer="701" from-port="0" to-layer="702" to-port="1"/>
		<edge from-layer="702" from-port="2" to-layer="704" to-port="0"/>
		<edge from-layer="703" from-port="0" to-layer="704" to-port="1"/>
		<edge from-layer="704" from-port="2" to-layer="706" to-port="0"/>
		<edge from-layer="705" from-port="0" to-layer="706" to-port="1"/>
		<edge from-layer="706" from-port="2" to-layer="708" to-port="0"/>
		<edge from-layer="707" from-port="0" to-layer="708" to-port="1"/>
		<edge from-layer="689" from-port="2" to-layer="709" to-port="0"/>
		<edge from-layer="708" from-port="2" to-layer="709" to-port="1"/>
		<edge from-layer="53" from-port="2" to-layer="711" to-port="0"/>
		<edge from-layer="710" from-port="0" to-layer="711" to-port="1"/>
		<edge from-layer="709" from-port="2" to-layer="712" to-port="0"/>
		<edge from-layer="711" from-port="2" to-layer="712" to-port="1"/>
		<edge from-layer="712" from-port="2" to-layer="713" to-port="0"/>
		<edge from-layer="715" from-port="0" to-layer="716" to-port="0"/>
		<edge from-layer="716" from-port="1" to-layer="719" to-port="0"/>
		<edge from-layer="717" from-port="0" to-layer="719" to-port="1"/>
		<edge from-layer="718" from-port="0" to-layer="719" to-port="2"/>
		<edge from-layer="714" from-port="0" to-layer="720" to-port="0"/>
		<edge from-layer="719" from-port="3" to-layer="720" to-port="1"/>
		<edge from-layer="672" from-port="2" to-layer="721" to-port="0"/>
		<edge from-layer="720" from-port="2" to-layer="721" to-port="1"/>
		<edge from-layer="721" from-port="2" to-layer="722" to-port="0"/>
		<edge from-layer="715" from-port="0" to-layer="722" to-port="1"/>
		<edge from-layer="722" from-port="2" to-layer="724" to-port="0"/>
		<edge from-layer="723" from-port="0" to-layer="724" to-port="1"/>
		<edge from-layer="724" from-port="2" to-layer="726" to-port="0"/>
		<edge from-layer="725" from-port="0" to-layer="726" to-port="1"/>
		<edge from-layer="726" from-port="2" to-layer="728" to-port="0"/>
		<edge from-layer="727" from-port="0" to-layer="728" to-port="1"/>
		<edge from-layer="728" from-port="2" to-layer="730" to-port="0"/>
		<edge from-layer="729" from-port="0" to-layer="730" to-port="1"/>
		<edge from-layer="713" from-port="1" to-layer="731" to-port="0"/>
		<edge from-layer="730" from-port="2" to-layer="731" to-port="1"/>
		<edge from-layer="731" from-port="2" to-layer="733" to-port="0"/>
		<edge from-layer="732" from-port="0" to-layer="733" to-port="1"/>
		<edge from-layer="735" from-port="0" to-layer="736" to-port="0"/>
		<edge from-layer="736" from-port="1" to-layer="739" to-port="0"/>
		<edge from-layer="737" from-port="0" to-layer="739" to-port="1"/>
		<edge from-layer="738" from-port="0" to-layer="739" to-port="2"/>
		<edge from-layer="734" from-port="0" to-layer="740" to-port="0"/>
		<edge from-layer="739" from-port="3" to-layer="740" to-port="1"/>
		<edge from-layer="733" from-port="2" to-layer="741" to-port="0"/>
		<edge from-layer="740" from-port="2" to-layer="741" to-port="1"/>
		<edge from-layer="741" from-port="2" to-layer="742" to-port="0"/>
		<edge from-layer="735" from-port="0" to-layer="742" to-port="1"/>
		<edge from-layer="742" from-port="2" to-layer="744" to-port="0"/>
		<edge from-layer="743" from-port="0" to-layer="744" to-port="1"/>
		<edge from-layer="744" from-port="2" to-layer="746" to-port="0"/>
		<edge from-layer="745" from-port="0" to-layer="746" to-port="1"/>
		<edge from-layer="746" from-port="2" to-layer="747" to-port="0"/>
		<edge from-layer="672" from-port="2" to-layer="747" to-port="1"/>
		<edge from-layer="747" from-port="2" to-layer="749" to-port="0"/>
		<edge from-layer="748" from-port="0" to-layer="749" to-port="1"/>
		<edge from-layer="749" from-port="2" to-layer="751" to-port="0"/>
		<edge from-layer="750" from-port="0" to-layer="751" to-port="1"/>
		<edge from-layer="753" from-port="0" to-layer="754" to-port="0"/>
		<edge from-layer="754" from-port="1" to-layer="757" to-port="0"/>
		<edge from-layer="755" from-port="0" to-layer="757" to-port="1"/>
		<edge from-layer="756" from-port="0" to-layer="757" to-port="2"/>
		<edge from-layer="752" from-port="0" to-layer="758" to-port="0"/>
		<edge from-layer="757" from-port="3" to-layer="758" to-port="1"/>
		<edge from-layer="751" from-port="2" to-layer="759" to-port="0"/>
		<edge from-layer="758" from-port="2" to-layer="759" to-port="1"/>
		<edge from-layer="759" from-port="2" to-layer="760" to-port="0"/>
		<edge from-layer="753" from-port="0" to-layer="760" to-port="1"/>
		<edge from-layer="760" from-port="2" to-layer="762" to-port="0"/>
		<edge from-layer="761" from-port="0" to-layer="762" to-port="1"/>
		<edge from-layer="762" from-port="2" to-layer="764" to-port="0"/>
		<edge from-layer="763" from-port="0" to-layer="764" to-port="1"/>
		<edge from-layer="764" from-port="2" to-layer="766" to-port="0"/>
		<edge from-layer="765" from-port="0" to-layer="766" to-port="1"/>
		<edge from-layer="766" from-port="2" to-layer="768" to-port="0"/>
		<edge from-layer="767" from-port="0" to-layer="768" to-port="1"/>
		<edge from-layer="770" from-port="0" to-layer="771" to-port="0"/>
		<edge from-layer="771" from-port="1" to-layer="774" to-port="0"/>
		<edge from-layer="772" from-port="0" to-layer="774" to-port="1"/>
		<edge from-layer="773" from-port="0" to-layer="774" to-port="2"/>
		<edge from-layer="769" from-port="0" to-layer="775" to-port="0"/>
		<edge from-layer="774" from-port="3" to-layer="775" to-port="1"/>
		<edge from-layer="571" from-port="2" to-layer="776" to-port="0"/>
		<edge from-layer="775" from-port="2" to-layer="776" to-port="1"/>
		<edge from-layer="776" from-port="2" to-layer="777" to-port="0"/>
		<edge from-layer="770" from-port="0" to-layer="777" to-port="1"/>
		<edge from-layer="777" from-port="2" to-layer="779" to-port="0"/>
		<edge from-layer="778" from-port="0" to-layer="779" to-port="1"/>
		<edge from-layer="779" from-port="2" to-layer="781" to-port="0"/>
		<edge from-layer="780" from-port="0" to-layer="781" to-port="1"/>
		<edge from-layer="781" from-port="2" to-layer="783" to-port="0"/>
		<edge from-layer="782" from-port="0" to-layer="783" to-port="1"/>
		<edge from-layer="783" from-port="2" to-layer="785" to-port="0"/>
		<edge from-layer="784" from-port="0" to-layer="785" to-port="1"/>
		<edge from-layer="785" from-port="2" to-layer="787" to-port="0"/>
		<edge from-layer="786" from-port="0" to-layer="787" to-port="1"/>
		<edge from-layer="768" from-port="2" to-layer="788" to-port="0"/>
		<edge from-layer="787" from-port="2" to-layer="788" to-port="1"/>
		<edge from-layer="598" from-port="4" to-layer="790" to-port="0"/>
		<edge from-layer="789" from-port="0" to-layer="790" to-port="1"/>
		<edge from-layer="788" from-port="2" to-layer="791" to-port="0"/>
		<edge from-layer="790" from-port="2" to-layer="791" to-port="1"/>
		<edge from-layer="791" from-port="2" to-layer="792" to-port="0"/>
		<edge from-layer="794" from-port="0" to-layer="795" to-port="0"/>
		<edge from-layer="795" from-port="1" to-layer="798" to-port="0"/>
		<edge from-layer="796" from-port="0" to-layer="798" to-port="1"/>
		<edge from-layer="797" from-port="0" to-layer="798" to-port="2"/>
		<edge from-layer="793" from-port="0" to-layer="799" to-port="0"/>
		<edge from-layer="798" from-port="3" to-layer="799" to-port="1"/>
		<edge from-layer="571" from-port="2" to-layer="800" to-port="0"/>
		<edge from-layer="799" from-port="2" to-layer="800" to-port="1"/>
		<edge from-layer="800" from-port="2" to-layer="801" to-port="0"/>
		<edge from-layer="794" from-port="0" to-layer="801" to-port="1"/>
		<edge from-layer="801" from-port="2" to-layer="803" to-port="0"/>
		<edge from-layer="802" from-port="0" to-layer="803" to-port="1"/>
		<edge from-layer="803" from-port="2" to-layer="805" to-port="0"/>
		<edge from-layer="804" from-port="0" to-layer="805" to-port="1"/>
		<edge from-layer="805" from-port="2" to-layer="807" to-port="0"/>
		<edge from-layer="806" from-port="0" to-layer="807" to-port="1"/>
		<edge from-layer="807" from-port="2" to-layer="809" to-port="0"/>
		<edge from-layer="808" from-port="0" to-layer="809" to-port="1"/>
		<edge from-layer="792" from-port="1" to-layer="810" to-port="0"/>
		<edge from-layer="809" from-port="2" to-layer="810" to-port="1"/>
		<edge from-layer="810" from-port="2" to-layer="812" to-port="0"/>
		<edge from-layer="811" from-port="0" to-layer="812" to-port="1"/>
		<edge from-layer="814" from-port="0" to-layer="815" to-port="0"/>
		<edge from-layer="815" from-port="1" to-layer="818" to-port="0"/>
		<edge from-layer="816" from-port="0" to-layer="818" to-port="1"/>
		<edge from-layer="817" from-port="0" to-layer="818" to-port="2"/>
		<edge from-layer="813" from-port="0" to-layer="819" to-port="0"/>
		<edge from-layer="818" from-port="3" to-layer="819" to-port="1"/>
		<edge from-layer="812" from-port="2" to-layer="820" to-port="0"/>
		<edge from-layer="819" from-port="2" to-layer="820" to-port="1"/>
		<edge from-layer="820" from-port="2" to-layer="821" to-port="0"/>
		<edge from-layer="814" from-port="0" to-layer="821" to-port="1"/>
		<edge from-layer="821" from-port="2" to-layer="823" to-port="0"/>
		<edge from-layer="822" from-port="0" to-layer="823" to-port="1"/>
		<edge from-layer="823" from-port="2" to-layer="825" to-port="0"/>
		<edge from-layer="824" from-port="0" to-layer="825" to-port="1"/>
		<edge from-layer="825" from-port="2" to-layer="826" to-port="0"/>
		<edge from-layer="751" from-port="2" to-layer="826" to-port="1"/>
		<edge from-layer="826" from-port="2" to-layer="828" to-port="0"/>
		<edge from-layer="827" from-port="0" to-layer="828" to-port="1"/>
		<edge from-layer="828" from-port="2" to-layer="830" to-port="0"/>
		<edge from-layer="829" from-port="0" to-layer="830" to-port="1"/>
		<edge from-layer="832" from-port="0" to-layer="833" to-port="0"/>
		<edge from-layer="833" from-port="1" to-layer="836" to-port="0"/>
		<edge from-layer="834" from-port="0" to-layer="836" to-port="1"/>
		<edge from-layer="835" from-port="0" to-layer="836" to-port="2"/>
		<edge from-layer="831" from-port="0" to-layer="837" to-port="0"/>
		<edge from-layer="836" from-port="3" to-layer="837" to-port="1"/>
		<edge from-layer="830" from-port="2" to-layer="838" to-port="0"/>
		<edge from-layer="837" from-port="2" to-layer="838" to-port="1"/>
		<edge from-layer="838" from-port="2" to-layer="839" to-port="0"/>
		<edge from-layer="832" from-port="0" to-layer="839" to-port="1"/>
		<edge from-layer="839" from-port="2" to-layer="841" to-port="0"/>
		<edge from-layer="840" from-port="0" to-layer="841" to-port="1"/>
		<edge from-layer="841" from-port="2" to-layer="843" to-port="0"/>
		<edge from-layer="842" from-port="0" to-layer="843" to-port="1"/>
		<edge from-layer="843" from-port="2" to-layer="844" to-port="0"/>
		<edge from-layer="846" from-port="0" to-layer="847" to-port="0"/>
		<edge from-layer="847" from-port="1" to-layer="850" to-port="0"/>
		<edge from-layer="848" from-port="0" to-layer="850" to-port="1"/>
		<edge from-layer="849" from-port="0" to-layer="850" to-port="2"/>
		<edge from-layer="845" from-port="0" to-layer="851" to-port="0"/>
		<edge from-layer="850" from-port="3" to-layer="851" to-port="1"/>
		<edge from-layer="844" from-port="1" to-layer="852" to-port="0"/>
		<edge from-layer="851" from-port="2" to-layer="852" to-port="1"/>
		<edge from-layer="852" from-port="2" to-layer="853" to-port="0"/>
		<edge from-layer="846" from-port="0" to-layer="853" to-port="1"/>
		<edge from-layer="853" from-port="2" to-layer="855" to-port="0"/>
		<edge from-layer="854" from-port="0" to-layer="855" to-port="1"/>
		<edge from-layer="855" from-port="2" to-layer="857" to-port="0"/>
		<edge from-layer="856" from-port="0" to-layer="857" to-port="1"/>
		<edge from-layer="857" from-port="2" to-layer="858" to-port="0"/>
		<edge from-layer="830" from-port="2" to-layer="858" to-port="1"/>
		<edge from-layer="858" from-port="2" to-layer="860" to-port="0"/>
		<edge from-layer="859" from-port="0" to-layer="860" to-port="1"/>
		<edge from-layer="860" from-port="2" to-layer="862" to-port="0"/>
		<edge from-layer="861" from-port="0" to-layer="862" to-port="1"/>
		<edge from-layer="864" from-port="0" to-layer="865" to-port="0"/>
		<edge from-layer="865" from-port="1" to-layer="868" to-port="0"/>
		<edge from-layer="866" from-port="0" to-layer="868" to-port="1"/>
		<edge from-layer="867" from-port="0" to-layer="868" to-port="2"/>
		<edge from-layer="863" from-port="0" to-layer="869" to-port="0"/>
		<edge from-layer="868" from-port="3" to-layer="869" to-port="1"/>
		<edge from-layer="862" from-port="2" to-layer="870" to-port="0"/>
		<edge from-layer="869" from-port="2" to-layer="870" to-port="1"/>
		<edge from-layer="870" from-port="2" to-layer="871" to-port="0"/>
		<edge from-layer="864" from-port="0" to-layer="871" to-port="1"/>
		<edge from-layer="871" from-port="2" to-layer="873" to-port="0"/>
		<edge from-layer="872" from-port="0" to-layer="873" to-port="1"/>
		<edge from-layer="873" from-port="2" to-layer="875" to-port="0"/>
		<edge from-layer="874" from-port="0" to-layer="875" to-port="1"/>
		<edge from-layer="875" from-port="2" to-layer="877" to-port="0"/>
		<edge from-layer="876" from-port="0" to-layer="877" to-port="1"/>
		<edge from-layer="877" from-port="2" to-layer="879" to-port="0"/>
		<edge from-layer="878" from-port="0" to-layer="879" to-port="1"/>
		<edge from-layer="881" from-port="0" to-layer="882" to-port="0"/>
		<edge from-layer="882" from-port="1" to-layer="885" to-port="0"/>
		<edge from-layer="883" from-port="0" to-layer="885" to-port="1"/>
		<edge from-layer="884" from-port="0" to-layer="885" to-port="2"/>
		<edge from-layer="880" from-port="0" to-layer="886" to-port="0"/>
		<edge from-layer="885" from-port="3" to-layer="886" to-port="1"/>
		<edge from-layer="862" from-port="2" to-layer="887" to-port="0"/>
		<edge from-layer="886" from-port="2" to-layer="887" to-port="1"/>
		<edge from-layer="887" from-port="2" to-layer="888" to-port="0"/>
		<edge from-layer="881" from-port="0" to-layer="888" to-port="1"/>
		<edge from-layer="888" from-port="2" to-layer="890" to-port="0"/>
		<edge from-layer="889" from-port="0" to-layer="890" to-port="1"/>
		<edge from-layer="890" from-port="2" to-layer="892" to-port="0"/>
		<edge from-layer="891" from-port="0" to-layer="892" to-port="1"/>
		<edge from-layer="892" from-port="2" to-layer="894" to-port="0"/>
		<edge from-layer="893" from-port="0" to-layer="894" to-port="1"/>
		<edge from-layer="894" from-port="2" to-layer="896" to-port="0"/>
		<edge from-layer="895" from-port="0" to-layer="896" to-port="1"/>
		<edge from-layer="896" from-port="2" to-layer="898" to-port="0"/>
		<edge from-layer="897" from-port="0" to-layer="898" to-port="1"/>
		<edge from-layer="879" from-port="2" to-layer="899" to-port="0"/>
		<edge from-layer="898" from-port="2" to-layer="899" to-port="1"/>
		<edge from-layer="53" from-port="2" to-layer="901" to-port="0"/>
		<edge from-layer="900" from-port="0" to-layer="901" to-port="1"/>
		<edge from-layer="899" from-port="2" to-layer="902" to-port="0"/>
		<edge from-layer="901" from-port="2" to-layer="902" to-port="1"/>
		<edge from-layer="902" from-port="2" to-layer="903" to-port="0"/>
		<edge from-layer="905" from-port="0" to-layer="906" to-port="0"/>
		<edge from-layer="906" from-port="1" to-layer="909" to-port="0"/>
		<edge from-layer="907" from-port="0" to-layer="909" to-port="1"/>
		<edge from-layer="908" from-port="0" to-layer="909" to-port="2"/>
		<edge from-layer="904" from-port="0" to-layer="910" to-port="0"/>
		<edge from-layer="909" from-port="3" to-layer="910" to-port="1"/>
		<edge from-layer="862" from-port="2" to-layer="911" to-port="0"/>
		<edge from-layer="910" from-port="2" to-layer="911" to-port="1"/>
		<edge from-layer="911" from-port="2" to-layer="912" to-port="0"/>
		<edge from-layer="905" from-port="0" to-layer="912" to-port="1"/>
		<edge from-layer="912" from-port="2" to-layer="914" to-port="0"/>
		<edge from-layer="913" from-port="0" to-layer="914" to-port="1"/>
		<edge from-layer="914" from-port="2" to-layer="916" to-port="0"/>
		<edge from-layer="915" from-port="0" to-layer="916" to-port="1"/>
		<edge from-layer="916" from-port="2" to-layer="918" to-port="0"/>
		<edge from-layer="917" from-port="0" to-layer="918" to-port="1"/>
		<edge from-layer="918" from-port="2" to-layer="920" to-port="0"/>
		<edge from-layer="919" from-port="0" to-layer="920" to-port="1"/>
		<edge from-layer="903" from-port="1" to-layer="921" to-port="0"/>
		<edge from-layer="920" from-port="2" to-layer="921" to-port="1"/>
		<edge from-layer="921" from-port="2" to-layer="923" to-port="0"/>
		<edge from-layer="922" from-port="0" to-layer="923" to-port="1"/>
		<edge from-layer="925" from-port="0" to-layer="926" to-port="0"/>
		<edge from-layer="926" from-port="1" to-layer="929" to-port="0"/>
		<edge from-layer="927" from-port="0" to-layer="929" to-port="1"/>
		<edge from-layer="928" from-port="0" to-layer="929" to-port="2"/>
		<edge from-layer="924" from-port="0" to-layer="930" to-port="0"/>
		<edge from-layer="929" from-port="3" to-layer="930" to-port="1"/>
		<edge from-layer="923" from-port="2" to-layer="931" to-port="0"/>
		<edge from-layer="930" from-port="2" to-layer="931" to-port="1"/>
		<edge from-layer="931" from-port="2" to-layer="932" to-port="0"/>
		<edge from-layer="925" from-port="0" to-layer="932" to-port="1"/>
		<edge from-layer="932" from-port="2" to-layer="934" to-port="0"/>
		<edge from-layer="933" from-port="0" to-layer="934" to-port="1"/>
		<edge from-layer="934" from-port="2" to-layer="936" to-port="0"/>
		<edge from-layer="935" from-port="0" to-layer="936" to-port="1"/>
		<edge from-layer="936" from-port="2" to-layer="937" to-port="0"/>
		<edge from-layer="862" from-port="2" to-layer="937" to-port="1"/>
		<edge from-layer="937" from-port="2" to-layer="939" to-port="0"/>
		<edge from-layer="938" from-port="0" to-layer="939" to-port="1"/>
		<edge from-layer="939" from-port="2" to-layer="941" to-port="0"/>
		<edge from-layer="940" from-port="0" to-layer="941" to-port="1"/>
		<edge from-layer="943" from-port="0" to-layer="944" to-port="0"/>
		<edge from-layer="944" from-port="1" to-layer="947" to-port="0"/>
		<edge from-layer="945" from-port="0" to-layer="947" to-port="1"/>
		<edge from-layer="946" from-port="0" to-layer="947" to-port="2"/>
		<edge from-layer="942" from-port="0" to-layer="948" to-port="0"/>
		<edge from-layer="947" from-port="3" to-layer="948" to-port="1"/>
		<edge from-layer="941" from-port="2" to-layer="949" to-port="0"/>
		<edge from-layer="948" from-port="2" to-layer="949" to-port="1"/>
		<edge from-layer="949" from-port="2" to-layer="950" to-port="0"/>
		<edge from-layer="943" from-port="0" to-layer="950" to-port="1"/>
		<edge from-layer="950" from-port="2" to-layer="952" to-port="0"/>
		<edge from-layer="951" from-port="0" to-layer="952" to-port="1"/>
		<edge from-layer="952" from-port="2" to-layer="954" to-port="0"/>
		<edge from-layer="953" from-port="0" to-layer="954" to-port="1"/>
		<edge from-layer="954" from-port="2" to-layer="956" to-port="0"/>
		<edge from-layer="955" from-port="0" to-layer="956" to-port="1"/>
		<edge from-layer="956" from-port="2" to-layer="958" to-port="0"/>
		<edge from-layer="957" from-port="0" to-layer="958" to-port="1"/>
		<edge from-layer="960" from-port="0" to-layer="961" to-port="0"/>
		<edge from-layer="961" from-port="1" to-layer="964" to-port="0"/>
		<edge from-layer="962" from-port="0" to-layer="964" to-port="1"/>
		<edge from-layer="963" from-port="0" to-layer="964" to-port="2"/>
		<edge from-layer="959" from-port="0" to-layer="965" to-port="0"/>
		<edge from-layer="964" from-port="3" to-layer="965" to-port="1"/>
		<edge from-layer="571" from-port="2" to-layer="966" to-port="0"/>
		<edge from-layer="965" from-port="2" to-layer="966" to-port="1"/>
		<edge from-layer="966" from-port="2" to-layer="967" to-port="0"/>
		<edge from-layer="960" from-port="0" to-layer="967" to-port="1"/>
		<edge from-layer="967" from-port="2" to-layer="969" to-port="0"/>
		<edge from-layer="968" from-port="0" to-layer="969" to-port="1"/>
		<edge from-layer="969" from-port="2" to-layer="971" to-port="0"/>
		<edge from-layer="970" from-port="0" to-layer="971" to-port="1"/>
		<edge from-layer="971" from-port="2" to-layer="973" to-port="0"/>
		<edge from-layer="972" from-port="0" to-layer="973" to-port="1"/>
		<edge from-layer="973" from-port="2" to-layer="975" to-port="0"/>
		<edge from-layer="974" from-port="0" to-layer="975" to-port="1"/>
		<edge from-layer="975" from-port="2" to-layer="977" to-port="0"/>
		<edge from-layer="976" from-port="0" to-layer="977" to-port="1"/>
		<edge from-layer="958" from-port="2" to-layer="978" to-port="0"/>
		<edge from-layer="977" from-port="2" to-layer="978" to-port="1"/>
		<edge from-layer="598" from-port="4" to-layer="980" to-port="0"/>
		<edge from-layer="979" from-port="0" to-layer="980" to-port="1"/>
		<edge from-layer="978" from-port="2" to-layer="981" to-port="0"/>
		<edge from-layer="980" from-port="2" to-layer="981" to-port="1"/>
		<edge from-layer="981" from-port="2" to-layer="982" to-port="0"/>
		<edge from-layer="984" from-port="0" to-layer="985" to-port="0"/>
		<edge from-layer="985" from-port="1" to-layer="988" to-port="0"/>
		<edge from-layer="986" from-port="0" to-layer="988" to-port="1"/>
		<edge from-layer="987" from-port="0" to-layer="988" to-port="2"/>
		<edge from-layer="983" from-port="0" to-layer="989" to-port="0"/>
		<edge from-layer="988" from-port="3" to-layer="989" to-port="1"/>
		<edge from-layer="571" from-port="2" to-layer="990" to-port="0"/>
		<edge from-layer="989" from-port="2" to-layer="990" to-port="1"/>
		<edge from-layer="990" from-port="2" to-layer="991" to-port="0"/>
		<edge from-layer="984" from-port="0" to-layer="991" to-port="1"/>
		<edge from-layer="991" from-port="2" to-layer="993" to-port="0"/>
		<edge from-layer="992" from-port="0" to-layer="993" to-port="1"/>
		<edge from-layer="993" from-port="2" to-layer="995" to-port="0"/>
		<edge from-layer="994" from-port="0" to-layer="995" to-port="1"/>
		<edge from-layer="995" from-port="2" to-layer="997" to-port="0"/>
		<edge from-layer="996" from-port="0" to-layer="997" to-port="1"/>
		<edge from-layer="997" from-port="2" to-layer="999" to-port="0"/>
		<edge from-layer="998" from-port="0" to-layer="999" to-port="1"/>
		<edge from-layer="982" from-port="1" to-layer="1000" to-port="0"/>
		<edge from-layer="999" from-port="2" to-layer="1000" to-port="1"/>
		<edge from-layer="1000" from-port="2" to-layer="1002" to-port="0"/>
		<edge from-layer="1001" from-port="0" to-layer="1002" to-port="1"/>
		<edge from-layer="1004" from-port="0" to-layer="1005" to-port="0"/>
		<edge from-layer="1005" from-port="1" to-layer="1008" to-port="0"/>
		<edge from-layer="1006" from-port="0" to-layer="1008" to-port="1"/>
		<edge from-layer="1007" from-port="0" to-layer="1008" to-port="2"/>
		<edge from-layer="1003" from-port="0" to-layer="1009" to-port="0"/>
		<edge from-layer="1008" from-port="3" to-layer="1009" to-port="1"/>
		<edge from-layer="1002" from-port="2" to-layer="1010" to-port="0"/>
		<edge from-layer="1009" from-port="2" to-layer="1010" to-port="1"/>
		<edge from-layer="1010" from-port="2" to-layer="1011" to-port="0"/>
		<edge from-layer="1004" from-port="0" to-layer="1011" to-port="1"/>
		<edge from-layer="1011" from-port="2" to-layer="1013" to-port="0"/>
		<edge from-layer="1012" from-port="0" to-layer="1013" to-port="1"/>
		<edge from-layer="1013" from-port="2" to-layer="1015" to-port="0"/>
		<edge from-layer="1014" from-port="0" to-layer="1015" to-port="1"/>
		<edge from-layer="1015" from-port="2" to-layer="1016" to-port="0"/>
		<edge from-layer="941" from-port="2" to-layer="1016" to-port="1"/>
		<edge from-layer="1016" from-port="2" to-layer="1018" to-port="0"/>
		<edge from-layer="1017" from-port="0" to-layer="1018" to-port="1"/>
		<edge from-layer="1018" from-port="2" to-layer="1020" to-port="0"/>
		<edge from-layer="1019" from-port="0" to-layer="1020" to-port="1"/>
		<edge from-layer="1022" from-port="0" to-layer="1023" to-port="0"/>
		<edge from-layer="1023" from-port="1" to-layer="1026" to-port="0"/>
		<edge from-layer="1024" from-port="0" to-layer="1026" to-port="1"/>
		<edge from-layer="1025" from-port="0" to-layer="1026" to-port="2"/>
		<edge from-layer="1021" from-port="0" to-layer="1027" to-port="0"/>
		<edge from-layer="1026" from-port="3" to-layer="1027" to-port="1"/>
		<edge from-layer="1020" from-port="2" to-layer="1028" to-port="0"/>
		<edge from-layer="1027" from-port="2" to-layer="1028" to-port="1"/>
		<edge from-layer="1028" from-port="2" to-layer="1029" to-port="0"/>
		<edge from-layer="1022" from-port="0" to-layer="1029" to-port="1"/>
		<edge from-layer="1029" from-port="2" to-layer="1031" to-port="0"/>
		<edge from-layer="1030" from-port="0" to-layer="1031" to-port="1"/>
		<edge from-layer="1031" from-port="2" to-layer="1033" to-port="0"/>
		<edge from-layer="1032" from-port="0" to-layer="1033" to-port="1"/>
		<edge from-layer="1033" from-port="2" to-layer="1034" to-port="0"/>
		<edge from-layer="1036" from-port="0" to-layer="1037" to-port="0"/>
		<edge from-layer="1037" from-port="1" to-layer="1040" to-port="0"/>
		<edge from-layer="1038" from-port="0" to-layer="1040" to-port="1"/>
		<edge from-layer="1039" from-port="0" to-layer="1040" to-port="2"/>
		<edge from-layer="1035" from-port="0" to-layer="1041" to-port="0"/>
		<edge from-layer="1040" from-port="3" to-layer="1041" to-port="1"/>
		<edge from-layer="1034" from-port="1" to-layer="1042" to-port="0"/>
		<edge from-layer="1041" from-port="2" to-layer="1042" to-port="1"/>
		<edge from-layer="1042" from-port="2" to-layer="1043" to-port="0"/>
		<edge from-layer="1036" from-port="0" to-layer="1043" to-port="1"/>
		<edge from-layer="1043" from-port="2" to-layer="1045" to-port="0"/>
		<edge from-layer="1044" from-port="0" to-layer="1045" to-port="1"/>
		<edge from-layer="1045" from-port="2" to-layer="1047" to-port="0"/>
		<edge from-layer="1046" from-port="0" to-layer="1047" to-port="1"/>
		<edge from-layer="1047" from-port="2" to-layer="1048" to-port="0"/>
		<edge from-layer="1020" from-port="2" to-layer="1048" to-port="1"/>
		<edge from-layer="1048" from-port="2" to-layer="1050" to-port="0"/>
		<edge from-layer="1049" from-port="0" to-layer="1050" to-port="1"/>
		<edge from-layer="1050" from-port="2" to-layer="1052" to-port="0"/>
		<edge from-layer="1051" from-port="0" to-layer="1052" to-port="1"/>
		<edge from-layer="1054" from-port="0" to-layer="1055" to-port="0"/>
		<edge from-layer="1055" from-port="1" to-layer="1058" to-port="0"/>
		<edge from-layer="1056" from-port="0" to-layer="1058" to-port="1"/>
		<edge from-layer="1057" from-port="0" to-layer="1058" to-port="2"/>
		<edge from-layer="1053" from-port="0" to-layer="1059" to-port="0"/>
		<edge from-layer="1058" from-port="3" to-layer="1059" to-port="1"/>
		<edge from-layer="1052" from-port="2" to-layer="1060" to-port="0"/>
		<edge from-layer="1059" from-port="2" to-layer="1060" to-port="1"/>
		<edge from-layer="1060" from-port="2" to-layer="1061" to-port="0"/>
		<edge from-layer="1054" from-port="0" to-layer="1061" to-port="1"/>
		<edge from-layer="1061" from-port="2" to-layer="1063" to-port="0"/>
		<edge from-layer="1062" from-port="0" to-layer="1063" to-port="1"/>
		<edge from-layer="1063" from-port="2" to-layer="1065" to-port="0"/>
		<edge from-layer="1064" from-port="0" to-layer="1065" to-port="1"/>
		<edge from-layer="1065" from-port="2" to-layer="1067" to-port="0"/>
		<edge from-layer="1066" from-port="0" to-layer="1067" to-port="1"/>
		<edge from-layer="1067" from-port="2" to-layer="1069" to-port="0"/>
		<edge from-layer="1068" from-port="0" to-layer="1069" to-port="1"/>
		<edge from-layer="1071" from-port="0" to-layer="1072" to-port="0"/>
		<edge from-layer="1072" from-port="1" to-layer="1075" to-port="0"/>
		<edge from-layer="1073" from-port="0" to-layer="1075" to-port="1"/>
		<edge from-layer="1074" from-port="0" to-layer="1075" to-port="2"/>
		<edge from-layer="1070" from-port="0" to-layer="1076" to-port="0"/>
		<edge from-layer="1075" from-port="3" to-layer="1076" to-port="1"/>
		<edge from-layer="1052" from-port="2" to-layer="1077" to-port="0"/>
		<edge from-layer="1076" from-port="2" to-layer="1077" to-port="1"/>
		<edge from-layer="1077" from-port="2" to-layer="1078" to-port="0"/>
		<edge from-layer="1071" from-port="0" to-layer="1078" to-port="1"/>
		<edge from-layer="1078" from-port="2" to-layer="1080" to-port="0"/>
		<edge from-layer="1079" from-port="0" to-layer="1080" to-port="1"/>
		<edge from-layer="1080" from-port="2" to-layer="1082" to-port="0"/>
		<edge from-layer="1081" from-port="0" to-layer="1082" to-port="1"/>
		<edge from-layer="1082" from-port="2" to-layer="1084" to-port="0"/>
		<edge from-layer="1083" from-port="0" to-layer="1084" to-port="1"/>
		<edge from-layer="1084" from-port="2" to-layer="1086" to-port="0"/>
		<edge from-layer="1085" from-port="0" to-layer="1086" to-port="1"/>
		<edge from-layer="1086" from-port="2" to-layer="1088" to-port="0"/>
		<edge from-layer="1087" from-port="0" to-layer="1088" to-port="1"/>
		<edge from-layer="1069" from-port="2" to-layer="1089" to-port="0"/>
		<edge from-layer="1088" from-port="2" to-layer="1089" to-port="1"/>
		<edge from-layer="53" from-port="2" to-layer="1091" to-port="0"/>
		<edge from-layer="1090" from-port="0" to-layer="1091" to-port="1"/>
		<edge from-layer="1089" from-port="2" to-layer="1092" to-port="0"/>
		<edge from-layer="1091" from-port="2" to-layer="1092" to-port="1"/>
		<edge from-layer="1092" from-port="2" to-layer="1093" to-port="0"/>
		<edge from-layer="1095" from-port="0" to-layer="1096" to-port="0"/>
		<edge from-layer="1096" from-port="1" to-layer="1099" to-port="0"/>
		<edge from-layer="1097" from-port="0" to-layer="1099" to-port="1"/>
		<edge from-layer="1098" from-port="0" to-layer="1099" to-port="2"/>
		<edge from-layer="1094" from-port="0" to-layer="1100" to-port="0"/>
		<edge from-layer="1099" from-port="3" to-layer="1100" to-port="1"/>
		<edge from-layer="1052" from-port="2" to-layer="1101" to-port="0"/>
		<edge from-layer="1100" from-port="2" to-layer="1101" to-port="1"/>
		<edge from-layer="1101" from-port="2" to-layer="1102" to-port="0"/>
		<edge from-layer="1095" from-port="0" to-layer="1102" to-port="1"/>
		<edge from-layer="1102" from-port="2" to-layer="1104" to-port="0"/>
		<edge from-layer="1103" from-port="0" to-layer="1104" to-port="1"/>
		<edge from-layer="1104" from-port="2" to-layer="1106" to-port="0"/>
		<edge from-layer="1105" from-port="0" to-layer="1106" to-port="1"/>
		<edge from-layer="1106" from-port="2" to-layer="1108" to-port="0"/>
		<edge from-layer="1107" from-port="0" to-layer="1108" to-port="1"/>
		<edge from-layer="1108" from-port="2" to-layer="1110" to-port="0"/>
		<edge from-layer="1109" from-port="0" to-layer="1110" to-port="1"/>
		<edge from-layer="1093" from-port="1" to-layer="1111" to-port="0"/>
		<edge from-layer="1110" from-port="2" to-layer="1111" to-port="1"/>
		<edge from-layer="1111" from-port="2" to-layer="1113" to-port="0"/>
		<edge from-layer="1112" from-port="0" to-layer="1113" to-port="1"/>
		<edge from-layer="1115" from-port="0" to-layer="1116" to-port="0"/>
		<edge from-layer="1116" from-port="1" to-layer="1119" to-port="0"/>
		<edge from-layer="1117" from-port="0" to-layer="1119" to-port="1"/>
		<edge from-layer="1118" from-port="0" to-layer="1119" to-port="2"/>
		<edge from-layer="1114" from-port="0" to-layer="1120" to-port="0"/>
		<edge from-layer="1119" from-port="3" to-layer="1120" to-port="1"/>
		<edge from-layer="1113" from-port="2" to-layer="1121" to-port="0"/>
		<edge from-layer="1120" from-port="2" to-layer="1121" to-port="1"/>
		<edge from-layer="1121" from-port="2" to-layer="1122" to-port="0"/>
		<edge from-layer="1115" from-port="0" to-layer="1122" to-port="1"/>
		<edge from-layer="1122" from-port="2" to-layer="1124" to-port="0"/>
		<edge from-layer="1123" from-port="0" to-layer="1124" to-port="1"/>
		<edge from-layer="1124" from-port="2" to-layer="1126" to-port="0"/>
		<edge from-layer="1125" from-port="0" to-layer="1126" to-port="1"/>
		<edge from-layer="1126" from-port="2" to-layer="1127" to-port="0"/>
		<edge from-layer="1052" from-port="2" to-layer="1127" to-port="1"/>
		<edge from-layer="1127" from-port="2" to-layer="1129" to-port="0"/>
		<edge from-layer="1128" from-port="0" to-layer="1129" to-port="1"/>
		<edge from-layer="1129" from-port="2" to-layer="1131" to-port="0"/>
		<edge from-layer="1130" from-port="0" to-layer="1131" to-port="1"/>
		<edge from-layer="1133" from-port="0" to-layer="1134" to-port="0"/>
		<edge from-layer="1134" from-port="1" to-layer="1137" to-port="0"/>
		<edge from-layer="1135" from-port="0" to-layer="1137" to-port="1"/>
		<edge from-layer="1136" from-port="0" to-layer="1137" to-port="2"/>
		<edge from-layer="1132" from-port="0" to-layer="1138" to-port="0"/>
		<edge from-layer="1137" from-port="3" to-layer="1138" to-port="1"/>
		<edge from-layer="1131" from-port="2" to-layer="1139" to-port="0"/>
		<edge from-layer="1138" from-port="2" to-layer="1139" to-port="1"/>
		<edge from-layer="1139" from-port="2" to-layer="1140" to-port="0"/>
		<edge from-layer="1133" from-port="0" to-layer="1140" to-port="1"/>
		<edge from-layer="1140" from-port="2" to-layer="1142" to-port="0"/>
		<edge from-layer="1141" from-port="0" to-layer="1142" to-port="1"/>
		<edge from-layer="1142" from-port="2" to-layer="1144" to-port="0"/>
		<edge from-layer="1143" from-port="0" to-layer="1144" to-port="1"/>
		<edge from-layer="1144" from-port="2" to-layer="1146" to-port="0"/>
		<edge from-layer="1145" from-port="0" to-layer="1146" to-port="1"/>
		<edge from-layer="1146" from-port="2" to-layer="1148" to-port="0"/>
		<edge from-layer="1147" from-port="0" to-layer="1148" to-port="1"/>
		<edge from-layer="1150" from-port="0" to-layer="1151" to-port="0"/>
		<edge from-layer="1151" from-port="1" to-layer="1154" to-port="0"/>
		<edge from-layer="1152" from-port="0" to-layer="1154" to-port="1"/>
		<edge from-layer="1153" from-port="0" to-layer="1154" to-port="2"/>
		<edge from-layer="1149" from-port="0" to-layer="1155" to-port="0"/>
		<edge from-layer="1154" from-port="3" to-layer="1155" to-port="1"/>
		<edge from-layer="571" from-port="2" to-layer="1156" to-port="0"/>
		<edge from-layer="1155" from-port="2" to-layer="1156" to-port="1"/>
		<edge from-layer="1156" from-port="2" to-layer="1157" to-port="0"/>
		<edge from-layer="1150" from-port="0" to-layer="1157" to-port="1"/>
		<edge from-layer="1157" from-port="2" to-layer="1159" to-port="0"/>
		<edge from-layer="1158" from-port="0" to-layer="1159" to-port="1"/>
		<edge from-layer="1159" from-port="2" to-layer="1161" to-port="0"/>
		<edge from-layer="1160" from-port="0" to-layer="1161" to-port="1"/>
		<edge from-layer="1161" from-port="2" to-layer="1163" to-port="0"/>
		<edge from-layer="1162" from-port="0" to-layer="1163" to-port="1"/>
		<edge from-layer="1163" from-port="2" to-layer="1165" to-port="0"/>
		<edge from-layer="1164" from-port="0" to-layer="1165" to-port="1"/>
		<edge from-layer="1165" from-port="2" to-layer="1167" to-port="0"/>
		<edge from-layer="1166" from-port="0" to-layer="1167" to-port="1"/>
		<edge from-layer="1148" from-port="2" to-layer="1168" to-port="0"/>
		<edge from-layer="1167" from-port="2" to-layer="1168" to-port="1"/>
		<edge from-layer="598" from-port="4" to-layer="1170" to-port="0"/>
		<edge from-layer="1169" from-port="0" to-layer="1170" to-port="1"/>
		<edge from-layer="1168" from-port="2" to-layer="1171" to-port="0"/>
		<edge from-layer="1170" from-port="2" to-layer="1171" to-port="1"/>
		<edge from-layer="1171" from-port="2" to-layer="1172" to-port="0"/>
		<edge from-layer="1174" from-port="0" to-layer="1175" to-port="0"/>
		<edge from-layer="1175" from-port="1" to-layer="1178" to-port="0"/>
		<edge from-layer="1176" from-port="0" to-layer="1178" to-port="1"/>
		<edge from-layer="1177" from-port="0" to-layer="1178" to-port="2"/>
		<edge from-layer="1173" from-port="0" to-layer="1179" to-port="0"/>
		<edge from-layer="1178" from-port="3" to-layer="1179" to-port="1"/>
		<edge from-layer="571" from-port="2" to-layer="1180" to-port="0"/>
		<edge from-layer="1179" from-port="2" to-layer="1180" to-port="1"/>
		<edge from-layer="1180" from-port="2" to-layer="1181" to-port="0"/>
		<edge from-layer="1174" from-port="0" to-layer="1181" to-port="1"/>
		<edge from-layer="1181" from-port="2" to-layer="1183" to-port="0"/>
		<edge from-layer="1182" from-port="0" to-layer="1183" to-port="1"/>
		<edge from-layer="1183" from-port="2" to-layer="1185" to-port="0"/>
		<edge from-layer="1184" from-port="0" to-layer="1185" to-port="1"/>
		<edge from-layer="1185" from-port="2" to-layer="1187" to-port="0"/>
		<edge from-layer="1186" from-port="0" to-layer="1187" to-port="1"/>
		<edge from-layer="1187" from-port="2" to-layer="1189" to-port="0"/>
		<edge from-layer="1188" from-port="0" to-layer="1189" to-port="1"/>
		<edge from-layer="1172" from-port="1" to-layer="1190" to-port="0"/>
		<edge from-layer="1189" from-port="2" to-layer="1190" to-port="1"/>
		<edge from-layer="1190" from-port="2" to-layer="1192" to-port="0"/>
		<edge from-layer="1191" from-port="0" to-layer="1192" to-port="1"/>
		<edge from-layer="1194" from-port="0" to-layer="1195" to-port="0"/>
		<edge from-layer="1195" from-port="1" to-layer="1198" to-port="0"/>
		<edge from-layer="1196" from-port="0" to-layer="1198" to-port="1"/>
		<edge from-layer="1197" from-port="0" to-layer="1198" to-port="2"/>
		<edge from-layer="1193" from-port="0" to-layer="1199" to-port="0"/>
		<edge from-layer="1198" from-port="3" to-layer="1199" to-port="1"/>
		<edge from-layer="1192" from-port="2" to-layer="1200" to-port="0"/>
		<edge from-layer="1199" from-port="2" to-layer="1200" to-port="1"/>
		<edge from-layer="1200" from-port="2" to-layer="1201" to-port="0"/>
		<edge from-layer="1194" from-port="0" to-layer="1201" to-port="1"/>
		<edge from-layer="1201" from-port="2" to-layer="1203" to-port="0"/>
		<edge from-layer="1202" from-port="0" to-layer="1203" to-port="1"/>
		<edge from-layer="1203" from-port="2" to-layer="1205" to-port="0"/>
		<edge from-layer="1204" from-port="0" to-layer="1205" to-port="1"/>
		<edge from-layer="1205" from-port="2" to-layer="1206" to-port="0"/>
		<edge from-layer="1131" from-port="2" to-layer="1206" to-port="1"/>
		<edge from-layer="1206" from-port="2" to-layer="1208" to-port="0"/>
		<edge from-layer="1207" from-port="0" to-layer="1208" to-port="1"/>
		<edge from-layer="1208" from-port="2" to-layer="1210" to-port="0"/>
		<edge from-layer="1209" from-port="0" to-layer="1210" to-port="1"/>
		<edge from-layer="1212" from-port="0" to-layer="1213" to-port="0"/>
		<edge from-layer="1213" from-port="1" to-layer="1216" to-port="0"/>
		<edge from-layer="1214" from-port="0" to-layer="1216" to-port="1"/>
		<edge from-layer="1215" from-port="0" to-layer="1216" to-port="2"/>
		<edge from-layer="1211" from-port="0" to-layer="1217" to-port="0"/>
		<edge from-layer="1216" from-port="3" to-layer="1217" to-port="1"/>
		<edge from-layer="1210" from-port="2" to-layer="1218" to-port="0"/>
		<edge from-layer="1217" from-port="2" to-layer="1218" to-port="1"/>
		<edge from-layer="1218" from-port="2" to-layer="1219" to-port="0"/>
		<edge from-layer="1212" from-port="0" to-layer="1219" to-port="1"/>
		<edge from-layer="1219" from-port="2" to-layer="1221" to-port="0"/>
		<edge from-layer="1220" from-port="0" to-layer="1221" to-port="1"/>
		<edge from-layer="1221" from-port="2" to-layer="1223" to-port="0"/>
		<edge from-layer="1222" from-port="0" to-layer="1223" to-port="1"/>
		<edge from-layer="1223" from-port="2" to-layer="1224" to-port="0"/>
		<edge from-layer="1226" from-port="0" to-layer="1227" to-port="0"/>
		<edge from-layer="1227" from-port="1" to-layer="1230" to-port="0"/>
		<edge from-layer="1228" from-port="0" to-layer="1230" to-port="1"/>
		<edge from-layer="1229" from-port="0" to-layer="1230" to-port="2"/>
		<edge from-layer="1225" from-port="0" to-layer="1231" to-port="0"/>
		<edge from-layer="1230" from-port="3" to-layer="1231" to-port="1"/>
		<edge from-layer="1224" from-port="1" to-layer="1232" to-port="0"/>
		<edge from-layer="1231" from-port="2" to-layer="1232" to-port="1"/>
		<edge from-layer="1232" from-port="2" to-layer="1233" to-port="0"/>
		<edge from-layer="1226" from-port="0" to-layer="1233" to-port="1"/>
		<edge from-layer="1233" from-port="2" to-layer="1235" to-port="0"/>
		<edge from-layer="1234" from-port="0" to-layer="1235" to-port="1"/>
		<edge from-layer="1235" from-port="2" to-layer="1237" to-port="0"/>
		<edge from-layer="1236" from-port="0" to-layer="1237" to-port="1"/>
		<edge from-layer="1237" from-port="2" to-layer="1238" to-port="0"/>
		<edge from-layer="1210" from-port="2" to-layer="1238" to-port="1"/>
		<edge from-layer="1238" from-port="2" to-layer="1240" to-port="0"/>
		<edge from-layer="1239" from-port="0" to-layer="1240" to-port="1"/>
		<edge from-layer="1240" from-port="2" to-layer="1242" to-port="0"/>
		<edge from-layer="1241" from-port="0" to-layer="1242" to-port="1"/>
		<edge from-layer="1244" from-port="0" to-layer="1245" to-port="0"/>
		<edge from-layer="1245" from-port="1" to-layer="1248" to-port="0"/>
		<edge from-layer="1246" from-port="0" to-layer="1248" to-port="1"/>
		<edge from-layer="1247" from-port="0" to-layer="1248" to-port="2"/>
		<edge from-layer="1243" from-port="0" to-layer="1249" to-port="0"/>
		<edge from-layer="1248" from-port="3" to-layer="1249" to-port="1"/>
		<edge from-layer="1242" from-port="2" to-layer="1250" to-port="0"/>
		<edge from-layer="1249" from-port="2" to-layer="1250" to-port="1"/>
		<edge from-layer="1250" from-port="2" to-layer="1251" to-port="0"/>
		<edge from-layer="1244" from-port="0" to-layer="1251" to-port="1"/>
		<edge from-layer="1251" from-port="2" to-layer="1253" to-port="0"/>
		<edge from-layer="1252" from-port="0" to-layer="1253" to-port="1"/>
		<edge from-layer="1253" from-port="2" to-layer="1255" to-port="0"/>
		<edge from-layer="1254" from-port="0" to-layer="1255" to-port="1"/>
		<edge from-layer="1255" from-port="2" to-layer="1256" to-port="0"/>
	</edges>
	<meta_data>
		<MO_version value="2021.3.0-2787-60059f2c755-releases/2021/3"/>
		<cli_parameters>
			<data_type value="float"/>
			<disable_nhwc_to_nchw value="False"/>
			<disable_resnet_optimization value="False"/>
			<disable_weights_compression value="False"/>
			<enable_concat_optimization value="False"/>
			<extensions value="DIR"/>
			<framework value="tf"/>
			<freeze_placeholder_with_value value="{}"/>
			<generate_deprecated_IR_V7 value="False"/>
			<input_model_is_text value="False"/>
			<keep_shape_ops value="True"/>
			<log_level value="ERROR"/>
			<mean_scale_values value="{}"/>
			<mean_values value="()"/>
			<model_name value="saved_model"/>
			<output_dir value="DIR"/>
			<placeholder_data_types value="{}"/>
			<progress value="False"/>
			<reverse_input_channels value="False"/>
			<saved_model_dir value="DIR"/>
			<scale_values value="()"/>
			<silent value="False"/>
			<static_shape value="False"/>
			<stream_output value="False"/>
			<unset unset_cli_parameters="batch, disable_fusing, disable_gfusing, finegrain_fusing, input, input_checkpoint, input_meta_graph, input_model, input_shape, move_to_preprocess, output, placeholder_shapes, saved_model_tags, scale, tensorboard_logdir, tensorflow_custom_layer_libraries, tensorflow_custom_operations_config_update, tensorflow_object_detection_api_pipeline_config, tensorflow_use_custom_operations_config, transformations_config"/>
		</cli_parameters>
	</meta_data>
</net>
